face_recognition_custom_model_dict.pt (torch, 706051 bytes, 20 tensors)

base_model.conv1.weight f4 [16, 3, 3, 3]
00000000: 45f0 a93d 9f1c 8b3d 8972 ba3d 3e7c 0abc
00000010: 4f8e de3c 7af4 edbd 00e0 23be 834c 8cbd
00000020: fda9 8e3d 2383 10bd 6a91 23bd f681 d7bd
00000030: 6e4e c5bd 3089 cfbd f59a 24bd 6225 383e
00000040: 4c6b 4bbd 8ba1 d2bc 7397 cdbd f4c3 eebd
00000050: bf95 40be 156f fabd f2bb 63bd 84c3 36bd
00000060: 7420 07be b120 74bc db4d 263e b950 18be
00000070: d978 f53d daec 17be 09b5 0e3d 9d42 cf3a
00000080: 32fd 1ebe 346e cabd 6363 bcbd 95a8 16be
00000090: 04b4 643c 2af8 1cbe e34f 373e b2d9 323c
000000a0: 2365 16be 4d1e 9ebd 50ea 2b3e 3cba 07bc
000000b0: be0e b43d 65e1 073e b678 c8bd 2188 293e
000000c0: dcf4 cebd ffc9 23be aad8 ef3d 3d43 15be
000000d0: 4786 05be 93c4 15be 730d 883d 80b3 2abc
000000e0: 9a31 293e 4a8e aebd 8af1 0b3c bb73 ca3d
000000f0: fc61 03bd 3738 68bc 3500 fcbd b4bb e73d
00000100: c010 923d fa08 0abd 0f5e a8bd 9a4f 023e
00000110: 0faa 2dbe 65c5 a33d 6bb3 083e 6ddc 85bd
00000120: d523 9b3d 4367 503d 6dcb d33c f6fa aabd
00000130: 56e7 ebbc 87b9 f0bc 0d65 963d d102 44be
00000140: 3ede 28bc d517 763d 5959 6a3d 49be d7bd
00000150: 0d2c 8ebd 4f8a e83d 0d38 353d 9041 433e
00000160: f0cf 8ebd 1859 d93d e6c1 dabc 9734 f63c
00000170: 655d 9dbb 396a 3bbe 51e9 9e3d c70a 573d
00000180: 9f0b 2cbe f078 e6bb 52f1 113d 04ed 1e3e
00000190: 99f3 423e d14e 0bbd b827 0abd 6a28 2fbd
000001a0: 12ce 10be 90a1 c13d 6758 413e 9cdd 293e
000001b0: 3141 2cbe 294c 36be 5b70 00be 6dac 0bbd
000001c0: 0d57 49bd 9389 38be f2da 2bbe 20cb 1bbe
000001d0: 93ff 61bd 951c 2a3b dede 3c3e 6b42 3abe
000001e0: 2f6b f13d b53e a0bd cf45 433e b32b 25be
000001f0: 5390 2ebe 0caa e9bc 3d85 a23d 8261 21be
00000200: dd82 38bd 4755 1abe 7f71 e23d 2755 babd
00000210: 76b7 bebd 11ec 29be ca77 6f3d 0d7c 353e
00000220: 18cd 4a3d edd8 9a3d 1a9d 1a3e 2138 4ebc
00000230: 81ec 09ba b703 293e af82 83bd d937 34be
00000240: cecf c43c 527c a63d 1542 813d 96d6 113e
00000250: f31b 243e 8d8e 12b8 49f9 e63d 94d4 26be
00000260: 346a a63c 4dc4 e73d 0de7 f13d b5c4 38be
00000270: 66c0 2c3e b2cd d73b dbcb a13c a179 3d3c
00000280: 71a4 423b 2aa5 ecbd f7ef 2b3e a78b 773d
00000290: db46 0abe 8507 17be c631 dd3d 825d 1b3e
000002a0: be18 0e3d 7fa9 2c3e dcbb 80bc 3df2 99bd
000002b0: e428 b63d b2e8 90ba 2bcf c23c 1b62 7e3c
000002c0: 84f0 143e 0be6 b83d 360f d03d 874c b43c
000002d0: 1526 66bd 7adc 08be 2962 c6bc 7e6e 2ebe
000002e0: 948d ddbd 3971 3fbd 265f 133e 3968 43be
000002f0: c9ee e73d 6344 f2bd 186f 37be 5922 05be
00000300: 89a5 05be 0e50 3e3e d448 0f3e 78c7 3a3e
00000310: e2b3 d5bd 6d2b 3dbe e69d 3ebd d218 1b3e
00000320: 102b cb3d fa22 1dbe ff32 63bd 1fa1 aa3b
00000330: 4460 3e3e f402 08be 4f6d 053e a3db e63d
00000340: f519 d5bd e6b8 12be 72c1 ecbd 42d4 013e
00000350: 28f9 3fbe 9360 053e 7381 343e cdf7 38be
00000360: 8867 edbc a225 053e bd25 48bd 3834 a83d
00000370: 3d0b f9ba 43cd b2bd ffb6 0e3e 3c9f f23c
00000380: 8fe7 e9bc 5bd9 853d b613 d1bd 9fe8 16bd
00000390: b595 eabd 688d e2bd 905b e3bd 0ff3 4fbc
000003a0: a601 10be 062a b2bc 7502 7cbd 3acb 24bd
000003b0: 8638 b9bd 0fd1 f2bd 17dd 353e c080 963d
000003c0: b921 263e 5b82 30bc b932 113e 4b66 443b
000003d0: 6886 8a3b ef1a 37be 6e14 893d fcc8 d83d
000003e0: 44c7 3dbd a543 2ebe 227d 09be 41ec 083e
000003f0: b07b 66bd a3c8 c63d 3216 103d 58a5 283e
0.08297781 0.067925684 0.09103877 -0.008452473 0.027167467 -0.11618896 -0.16003418 -0.06850531
0.069660164 -0.03528131 -0.0399336 -0.10522835 -0.096341 -0.10133588 -0.04018684 0.1798301
-0.049662873 -0.025711795 -0.10038652 -0.11658469 -0.18807124 -0.122282185 -0.05559916 -0.044620052
-0.13195974 -0.014900372 0.16240637 -0.14874543 0.119859405 -0.14836445 0.034840617 0.0015812699
-0.15526274 -0.09884301 -0.09198644 -0.14712746 0.013958935 -0.15329042 0.17901568 0.01091616
-0.14687018 -0.07720623 0.16788602 -0.008284148 0.08791874 0.13269575 -0.09788649 0.16555835
-0.10105297 -0.15995024 0.11711247 -0.1457643 -0.13039504 -0.14625768 0.0664319 -0.010418773
0.16522828 -0.08523233 0.008541474 0.09885355 -0.032075867 -0.014173559 -0.12304727 0.113150984
0.07132101 -0.033699967 -0.08221065 0.12725678 -0.16959403 0.079966344 0.13349693 -0.065361835
0.07575194 0.050879728 0.025853837 -0.08348648 -0.028796833 -0.029385341 0.07343493 -0.191417
-0.010306893 0.06008132 0.057214115 -0.10534341 -0.06941996 0.11354505 0.044242907 0.19067979
-0.06973255 0.106126964 -0.026703786 0.030054374 -0.0048023933 -0.1830224 0.07759345 0.052500512
-0.16801308 -0.00703346 0.03563053 0.15520102 0.19038238 -0.034010712 -0.033729285 -0.04276315
-0.1414111 0.09454644 0.18881379 0.16588444 -0.16821744 -0.1780249 -0.1254286 -0.034099985
-0.049155284 -0.1802123 -0.1678274 -0.15214205 -0.055175375 0.0025956978 0.18444392 -0.18189399
0.11788022 -0.078244604 0.19069599 -0.16129951 -0.17047243 -0.028523467 0.079355694 -0.15759853
-0.045046676 -0.15071593 0.11056804 -0.09098273 -0.09312336 -0.16593958 0.05846385 0.17723103
0.049512 0.075609066 0.15098992 -0.012586624 -0.0005261377 0.16505323 -0.0642141 -0.17599429
0.02402487 0.08129181 0.06311432 0.14242014 0.16026287 -3.4941873e-05 0.11278016 -0.1629203
0.020314313 0.11316738 0.118116476 -0.18043788 0.16870269 0.0065858 0.019750526 0.011564643
0.0029700065 -0.1155494 0.16790758 0.060435917 -0.13503592 -0.14748962 0.10800509 0.15172389
0.034691565 0.16861533 -0.015714578 -0.075169064 0.08894518 -0.0011055677 0.023780426 0.01552632
0.14544874 0.09028252 0.10159151 0.022009147 -0.05618866 -0.13365355 -0.024216728 -0.17034337
-0.108180195 -0.046738837 0.14391765 -0.19082727 0.113248415 -0.1182945 -0.17913473 -0.13001384
-0.13051428 0.18585226 0.13992625 0.18240154 -0.104347005 -0.18473597 -0.046537302 0.15146187
0.09920323 -0.15345374 -0.055468556 0.0052071954 0.1859141 -0.13282377 0.13029979 0.11272361
-0.104053415 -0.14328346 -0.11560334 0.12678626 -0.1874739 0.13025121 0.17627506 -0.18063278
-0.028980032 0.13002637 -0.048864115 0.08213085 -0.0019000542 -0.08730557 0.13936995 0.029616944
-0.028552799 0.06535598 -0.10208838 -0.03684294 -0.114543356 -0.11062127 -0.111014485 -0.012692227
-0.14063129 -0.021748554 -0.06152578 -0.040232874 -0.09043984 -0.11856281 0.1776012 0.07348776
0.16223802 -0.010773267 0.14179505 0.0029968198 0.0042274483 -0.17881368 0.0669335 0.1058521
-0.046332613 -0.17017992 -0.1342664 0.13371374 -0.0562703 0.09706237 0.035177417 0.16469324

base_model.conv1.bias f4 [16]
00000000: 4159 23bd ab81 c13c 341e 2cbe fea9 e23d
00000010: 12c1 a53d 61e6 213d 49e0 28bd d312 333e
00000020: 78e7 22be 42c5 ce3d 3e4e 2c3e 2351 8a3d
00000030: b97a 213e b243 f1bd 77ce 303e acea 103e
-0.03988004 0.0236214 -0.16808397 0.1106758 0.08093466 0.039526347 -0.04122952 0.1748765
-0.15908611 0.10096218 0.16826722 0.06753757 0.15769471 -0.1178049 0.1726626 0.1415202

base_model.bn1.weight f4 [16]
00000000: a704 803f 0913 803f 2b15 803f 640f 803f
00000010: 11fa 7f3f cf03 803f 63e8 7f3f 2e11 803f
00000020: e5e4 7f3f 0202 803f 7de3 7f3f bcf1 7f3f
00000030: e2ca 7f3f 5519 803f abcd 7f3f 7f0d 803f
1.000142 1.0005809 1.000646 1.0004697 0.99990946 1.0001162 0.9996397 1.0005243
0.9995864 1.0000613 0.99956495 0.9997823 0.9991895 1.0007731 0.999232 1.0004119

base_model.bn1.bias f4 [16]
00000000: 15c0 0bb9 82c6 8f39 bc96 773a c86c 293a
00000010: 89af 033a 8bad 0f3a 42a4 9ab9 b0e0 1d3a
00000020: 29e9 10ba 312e 27b9 4cb8 1fb9 bd58 f338
00000030: 9d43 03b9 ef3f 7b3a 897a 05ba 314d 6e39
-0.00013327629 0.00027422985 0.00094447634 0.0006463048 0.000502341 0.0005480877 -0.0002949555 0.0006022556
-0.00055279076 -0.00015943569 -0.00015232078 0.00011603672 -0.00012518321 0.0009584417 -0.00050918065 0.00022726205

base_model.bn1.running_mean f4 [16]
00000000: c065 d3be e626 d7be 22b7 c9bd 4a1e d03e
00000010: 729d 3bbf ce2a f43e d05d 283e 96a8 7a3b
00000020: 3005 64be 9056 2dba fdc0 de3e 48b6 15be
00000030: 2891 853e 9ce8 cdbd 2eed 9d3e 7076 e13e
-0.41288567 -0.42021865 -0.09849383 0.4064811 -0.7328712 0.47688907 0.16442037 0.0038247458
-0.22267604 -0.0006612325 0.43506613 -0.14620316 0.26087308 -0.10054132 0.30845016 0.44035673

base_model.bn1.running_var f4 [16]
00000000: 9f10 3e3d e176 383d 4563 f13a af82 c23c
00000010: 6fa6 173e 62a3 4a3d 3336 1c3c f027 ea3b
00000020: c375 423b 32ac 323b b9e9 8b3c 14be 953c
00000030: ec5f 903b 199b ae3a 4f51 033c caa2 9d3c
0.04640257 0.045035247 0.0018416425 0.023743955 0.14809583 0.04947222 0.0095344065 0.007145874
0.0029672242 0.002726328 0.017079221 0.018279113 0.004405966 0.0013321369 0.008014991 0.019242663

base_model.conv2.weight f4 [32, 16, 3, 3]
00000000: 3ed2 0cbd d14d 933d 0737 18bd a63e 8fbd
00000010: 0415 a13d 6521 da3c 96f8 3f3d 0e05 aa3c
00000020: 5880 4d3c de1a e73c 99f2 003d e995 61bd
00000030: 1ab2 603d eb21 c53b 5a39 163d cf6b 94bd
00000040: 0612 53bd 0bb6 18bd b364 8cbd 2a6b 843d
00000050: 73db 503c 135a 7abd d72b 53bd ca91 9dbc
00000060: c69f 8f3d d49d 0dbd 7fb0 993d 61b9 393d
00000070: e8eb 76bd 722d 9abd 41b6 c03c ac21 683d
00000080: 873f 8abc fb21 96bd 2f34 fc3c f7e7 e4bc
00000090: fa98 1fbd 2b68 fa3b 5a93 803d 39a6 98bd
000000a0: e773 9d3c 5e4f 67bb f1ab 69bd bf5e 8f3d
000000b0: d518 4dbc ba97 a23d de36 74bd a552 9c3b
000000c0: cbf3 b6bc 038a 8d3c 73ff a4bd f4fa c83c
000000d0: cfb5 36bd 3728 3e3d f80e 12bd 29cc f0b9
000000e0: fc9f 83bd 3eae 5abd 6d35 233d b4c8 983d
000000f0: 9e66 8e3d 6916 8cbd 81fc dfbc 382b 6c3d
00000100: cecc 073d 6c43 3f3d 075f 9b3d 252a b9bc
00000110: 8b8e e4bc f074 dc3b 4cd3 9abd fe7e 93bc
00000120: 320b a33d b776 cabb 1769 f5bc c6c3 02bd
00000130: 4209 83bc 9fac 8039 9a1e 95bd a811 833d
00000140: 689e a3bd 5eec 26bd dd8c 8bbd c8f7 45bd
00000150: 19b7 cd3c 8da3 52bd 7a05 05bd 2bb4 70bd
00000160: 271d 7bbb ed64 983d a30c 0f3d 39dc 4e3d
00000170: bef7 87bd 1684 eabc af6d 1a3d 6844 05bc
00000180: d831 843d c654 71bd 4e22 a4bd 3b1b 83bd
00000190: e8c3 28bd 2a9f 713d f544 eabc ac0d 25bd
000001a0: c11e 2ebb 6717 3d3d a556 a9bd 8a5c 9bbc
000001b0: 692e fabc 23ff 59bd 1b79 cbbc 682d f8bb
000001c0: a3f6 96bd 3697 863d f7cf da3c 802c 553b
000001d0: 1b13 92b8 5503 5e3c 5492 9d3d 6215 833c
000001e0: db0e 4e3b 522f f7ba e0fb 67bd 7f71 a7bd
000001f0: 12d7 80bc 628f 9abd 6b8f 0a3d a22b 41bd
00000200: 0309 243c 95ac 0d3d 7c72 3fbd 202b 96bc
00000210: e37e 8bbd 9373 8abc daa3 893d 81cb 063d
00000220: 2f30 693d 634c 3bbd 9904 98bd fcb1 1bbd
00000230: de67 0dbd 352c 4b3d 45f8 2fbd a6ce 5b3d
00000240: d391 82bd 4a56 c23c 3363 393c 871e 663d
00000250: 056d 603d 4ab0 83bd 6029 973d 1e03 a73c
00000260: ca55 a53d 8848 0f3d b9f1 90bd 209c af3c
00000270: 0868 5bbb 3105 253d 41d8 05bd 6845 dfba
00000280: d3d5 87bd ffa8 5fbc 1936 37bd 4907 c93c
00000290: 3d2b 89bd 8562 213a 0dbb 253c 438b f53a
000002a0: 000d a53d 479c 93bd 1022 6e3d ad52 abbd
000002b0: 47ac 10bd 9325 1bbd be36 33bd 817d d63c
000002c0: 11e1 0ebd b2d9 d0bc b102 873d ec5d c73c
000002d0: 18a2 c83c 5bb5 b9bc 5b4c c53c a54e 13bd
000002e0: 4e84 a73c 19ee 92bd d688 96bd 0c31 343d
000002f0: 612a 3c3d ecc5 543d 0ca6 22bd 5eb3 5abc
00000300: e8cf 53bd 1f94 44bd 56d5 9dba 91e6 88bc
00000310: bbe9 463d 57bb 873d 1d61 883d a70f d8bc
00000320: 815b b03a fa2f f6bc 47bc 7c3c d390 a3bd
00000330: 4474 83bc c5ec fcbb 086c 993c 6d76 323d
00000340: 6a82 eabb 3bac 20bd dd07 9a3d 19cd 92bc
00000350: a950 79bc 5fe6 41bd 754b 233d ba35 423d
00000360: 5fb2 373d c3f1 383c 3004 70bd b743 9c3d
00000370: 6953 643d 22cb 503d 302b 103d 66ba 513c
00000380: 1557 303d 01b3 a9bc cebf a6bd 22ff 99ba
00000390: cf35 7dbd 3c37 883d 32d9 94bd d1d7 05bd
000003a0: 92f2 ba3c 3bd8 183d 9d20 a93d 4a87 8a3d
000003b0: e486 5f3c 7af4 853d 6d55 563b 7d9e 1bbd
000003c0: d612 db39 cb1a 363c 5029 823a 1abf 45bb
000003d0: 5933 48bd 7a7b 043d 3814 023d 62a4 2d3d
000003e0: ac33 fcbc 8330 b03c 652d 5f3d 264e 1dbd
000003f0: b65a cbbc acb1 3f3d 8c69 44bd c598 6a3c
-0.03438019 0.07192577 -0.037161853 -0.06994371 0.078653365 0.026627252 0.04686793 0.020754363
0.012542807 0.028211053 0.03148136 -0.055074606 0.05485735 0.006016006 0.03667579 -0.07247125
-0.05153086 -0.037282985 -0.06855144 0.064657524 0.012747633 -0.061121058 -0.05155548 -0.019234557
0.07012896 -0.034574345 0.07504367 0.045342807 -0.06028357 -0.07528199 0.023524405 0.056672737
-0.016875995 -0.073307 0.030786602 -0.02794264 -0.03896425 0.0076418123 0.06278105 -0.074535795
0.019220306 -0.003529511 -0.05704874 0.07000493 -0.012518127 0.07939096 -0.059622638 0.004770594
-0.022333046 0.017277723 -0.080565356 0.024533726 -0.04460698 0.04642507 -0.035658807 -0.00045928478
-0.06426999 -0.053388827 0.039845873 0.07460156 0.069531664 -0.06840212 -0.027342083 0.057658404
0.0331543 0.046695158 0.075864844 -0.022603104 -0.027900001 0.006727807 -0.07559833 -0.01800489
0.0796112 -0.0061787027 -0.029957337 -0.031924985 -0.015995625 0.00024542675 -0.072812274 0.06399852
-0.07989198 -0.04075276 -0.06813977 -0.048332006 0.025111722 -0.051425505 -0.032475926 -0.05876557
-0.0038316937 0.07441125 0.03492416 0.05050299 -0.0663905 -0.028627437 0.03770226 -0.008133985
0.064548194 -0.058918737 -0.080143556 -0.06401678 -0.041202456 0.05898968 -0.028597334 -0.04029624
-0.0026568624 0.046164896 -0.08268479 -0.018965025 -0.030539708 -0.053221833 -0.024838021 -0.007573772
-0.07371261 0.0657181 0.026710493 0.0032527745 -6.965381e-05 0.013550599 0.076939255 0.016001407
0.003144196 -0.0018858707 -0.05663669 -0.081759445 -0.015727554 -0.07546879 0.03382818 -0.047160752
0.010011914 0.034588415 -0.04674004 -0.01833111 -0.06811311 -0.016900813 0.06720705 0.03290892
0.056930717 -0.045727145 -0.07422752 -0.038011536 -0.034522884 0.049602706 -0.042961378 0.053663872
-0.0637547 0.023722786 0.011315155 0.056181457 0.05479147 -0.06430109 0.073809385 0.020387229
0.080730036 0.03498128 -0.07077355 0.02143675 -0.0033478756 0.040288154 -0.03267694 -0.0017034234
-0.066325806 -0.013651132 -0.044729326 0.024539607 -0.066977 0.0006156343 0.010115397 0.001873352
0.0805912 -0.07207542 0.058137953 -0.083653785 -0.035320546 -0.03787763 -0.043753378 0.026182892
-0.03488261 -0.02549443 0.0659231 0.024336778 0.024491355 -0.022669485 0.02408426 -0.035963673
0.02044883 -0.0717432 -0.07350318 0.043992087 0.045938853 0.051946566 -0.039709136 -0.0133484285
-0.051711947 -0.04799282 -0.0012041728 -0.016711505 0.048562746 0.06627529 0.06659148 -0.026374651
0.0013455005 -0.030052174 0.015425748 -0.079866074 -0.01604665 -0.007718655 0.018728271 0.04356997
-0.00715666 -0.03922675 0.07521031 -0.017920064 -0.015216985 -0.04733884 0.039866883 0.04741452
0.044847842 0.011288109 -0.058597744 0.07630103 0.05574361 0.050974973 0.035197437 0.0128007885
0.043051798 -0.020715239 -0.081420526 -0.0011749009 -0.061818894 0.0665116 -0.07267989 -0.03267652
0.022820745 0.03731559 0.082581736 0.067640856 0.013643 0.06540771 0.0032704726 -0.037992943
0.0004178497 0.011114786 0.0009930525 -0.003017372 -0.048877094 0.03234432 0.031757563 0.042393096
-0.030786358 0.021507507 0.05448665 -0.038404606 -0.024823528 0.0468003 -0.04795222 0.01431865

base_model.conv2.bias f4 [32]
00000000: 08f8 6bbb f1ab 803d 5dd6 9a3c a654 593d
00000010: 192a 563d aaa4 393d bc3d 463d 6503 92bd
00000020: 1fb1 a53c ba82 6dbc 6611 b63c 0dd7 28bd
00000030: 863a a93d 8e99 c9bc eb7a 163d 8e40 923d
00000040: 941c 8fbd c955 00bd 6fe5 88bd c60e 953d
00000050: 5baf 4cbd 7662 7d3d 8c66 a0bc 3109 a3bd
00000060: 76ab 3bbd 1504 42bc bd4a 973d f87f a0bd
00000070: ff1a 33bd cfa9 703d ab50 f9bc c2cb 15bd
-0.0036005992 0.06282795 0.018901045 0.053059243 0.05228624 0.04532305 0.04839872 -0.07129554
0.02022606 -0.0144965 0.022225093 -0.041220713 0.082631156 -0.024609353 0.036738317 0.07141219
-0.06987873 -0.03133181 -0.06684386 0.072782084 -0.04997192 0.061861478 -0.019580148 -0.079607375
-0.045817815 -0.011841794 0.07387302 -0.07836908 -0.043726917 0.058755692 -0.030433973 -0.03657127

base_model.bn2.weight f4 [32]
00000000: e610 803f 28e2 7f3f ae0f 803f 61dc 7f3f
00000010: 461a 803f 31c2 7f3f 5012 803f 1907 803f
00000020: 9800 803f aa17 803f d212 803f 40df 7f3f
00000030: d8d9 7f3f 00ef 7f3f b01b 803f 0c11 803f
00000040: 030d 803f a5db 7f3f 890c 803f 5617 803f
00000050: 83e0 7f3f b5da 7f3f 590f 803f 03fa 7f3f
00000060: 6508 803f b40f 803f edda 7f3f 09d4 7f3f
00000070: d1fa 7f3f f2d5 7f3f ad08 803f 1d07 803f
1.0005157 0.9995446 1.0004785 0.99945647 1.0008018 0.9990569 1.0005589 1.0002166
1.0000181 1.0007222 1.0005744 0.9995003 0.9994178 0.9997406 1.000845 1.0005202
1.0003971 0.99944526 1.0003825 1.0007122 0.9995195 0.99943095 1.0004684 0.9999086
1.0002562 1.0004792 0.9994343 0.99932915 0.9999209 0.9993583 1.0002648 1.0002171

base_model.bn2.bias f4 [32]
00000000: dc85 0a39 78fa 1a39 789e d038 a1bd 01ba
00000010: 8976 443a 5deb 81b9 3127 1c3a 6a8f cd39
00000020: a14f 2b39 c5ec a039 02c6 413a c2bf ffb9
00000030: 8f09 b2b9 a22a 6d38 f151 4d38 40bc 6437
00000040: 4476 393a 19cf 0db9 80e7 3e3a 1736 443a
00000050: 441b f6b9 86d7 31ba 7a0c 0b3a 760b 9b39
00000060: 020b 073a 41c7 183a 1b16 d239 72d5 76b8
00000070: 58ef cb39 2692 46ba f392 2b3a 8121 c438
0.00013210572 0.00014779891 9.94773e-05 -0.00049492164 0.000749447 -0.00024780157 0.0005956768 0.000392075
0.00016337495 0.00030693985 0.0007391871 -0.0004878026 -0.00033957927 5.6544908e-05 4.8952123e-05 1.3633689e-05
0.0007074813 -0.00013523958 0.0007282421 0.00074848667 -0.0004694109 -0.00067841297 0.00053042884 0.00029572443
0.00051514816 0.0005828031 0.0004007079 -5.8849757e-05 0.00038897502 -0.00075748784 0.00065450295 9.352249e-05

base_model.bn2.running_mean f4 [32]
00000000: 49ed d9be 1e83 67bc d0b4 883e f496 b3be
00000010: 8600 dc3d b3cc f43e 0212 f2bc 6fba 413e
00000020: b3fa 3fbe 65d3 c5be 53b0 e1bd f21a 1d3e
00000030: 9d76 0d3e 11a4 b93d a9bc 383c a655 933d
00000040: cc7f 833d e6e7 ebbd 2dcd 193e ddd8 a93e
00000050: 2065 35be 4fcf 96be 39fc 81be 1e4c ee3d
00000060: 6180 93bd ccdb f6bd 286a a03e 2be6 90be
00000070: c79a 0d3d ebbe 29be 66ca 603e 3d62 8fbe
-0.42563847 -0.014130382 0.2670045 -0.35076106 0.10742287 0.47812423 -0.029549602 0.18918775
-0.18747978 -0.38637844 -0.11019959 0.1534231 0.13814779 0.09064496 0.011275449 0.071940705
0.0642086 -0.115188405 0.15019675 0.33173266 -0.17714357 -0.2945504 -0.25387743 0.11635612
-0.07202221 -0.12053642 0.3133099 -0.28300604 0.034571435 -0.16576736 0.21952209 -0.28004637

base_model.bn2.running_var f4 [32]
00000000: 8e4a 923d a02f ff3d 0060 b23d 17e8 483e
00000010: d82e 553d eaad 833d 4062 4d3d d6a7 2f3e
00000020: 6ca6 bc3d ac77 be3e 0129 263e 62c9 8d3d
00000030: da66 043d 1760 033d 0f90 623d dd92 303d
00000040: b3c9 a93d c11e 973d e1f3 273d 9e70 013e
00000050: f7f6 a93e 7002 9d3d cfed fb3d da46 d33d
00000060: aa55 983d 1a85 243d 4b9b 883d 1cb0 813d
00000070: da66 7f3d 6a75 503e 9b35 753d c814 083e
0.071431264 0.124602556 0.08709717 0.19619785 0.052046627 0.06429656 0.050142527 0.17153868
0.0921143 0.37200677 0.16226579 0.06923176 0.03232465 0.03207406 0.055313166 0.04310881
0.08290424 0.07378913 0.041004065 0.12640616 0.33196232 0.076664805 0.12301218 0.10316248
0.07438214 0.040165998 0.06670245 0.06332418 0.062353946 0.2035729 0.059865575 0.13289177

base_model.conv3.weight f4 [64, 32, 3, 3]
00000000: 17e8 a33c 2db0 f7bc 2d41 06bd 96f3 5a3d
00000010: 6cdd 7ebc 9736 36bc a9b6 4fbd 5f7d 2f3c
00000020: 656f 35bc d7b0 013d ccde f73b 0686 253d
00000030: 123c 403d 1041 32bd 17d8 00bc 1387 fa3c
00000040: 9631 463d be03 2c3d a08a 683d c52c 68bd
00000050: a339 afbc a5b2 edbb e360 3d3d d00e 523d
00000060: f167 69bd fd94 49bc 083b 00bd dc29 24bd
00000070: a18c 23bd 99ef 4cbd 2e29 313d 838d 3abb
00000080: 7b3b 233d 1342 35bd cad9 163d 1bcb 60bb
00000090: 854a 323d aacb db3c 6d8d a4bb 9b02 0b3d
000000a0: 2444 9fbc b4cc 153c c48d fa3b ff46 193a
000000b0: 1f0d cfbb cce4 463d 196c f83b 684d 22bd
000000c0: 1fa1 093d 5ec0 21bd cd31 203d 03e8 5f3d
000000d0: 0012 aebc 45ac 3e3c f372 d13c 3f57 8e3c
000000e0: 0e8a 44bd b911 533d a11f 10bd bb04 993c
000000f0: ab26 8abc 455f 31bd 7cee 8f3c 3431 99bc
00000100: 28f3 de3c 2317 2a3c 7b6c bdbc 264d 0f3c
00000110: d81a 513d 5044 5d3c f6c2 50bd be19 29bd
00000120: 82bf 103d db0e 2dbd 3a75 8c3c 4199 b23c
00000130: 07ce 403d ac84 383d cdcf 943c 19f2 dd3c
00000140: 6a51 a439 734e 0c3b ca81 203d a2af 1fbd
00000150: 093a f4bc 5ee8 163c cb7e 30bd 7680 073d
00000160: f927 263d 1436 0fbd ff55 fabc 51f2 0ebd
00000170: 62c7 173d babc eebc 80c8 64bc af22 21bd
00000180: 044a 723c 57eb 8ebb 8079 913c e79c 0dbc
00000190: 6987 c33c abe5 1dbc 0f22 453d 009e 8fbc
000001a0: eeea 403d a6d1 24bb 85c8 b73b a996 d2bc
000001b0: c916 22bd 9db0 0abd c789 36bd 4b48 0d3d
000001c0: 0e93 e43c 1af6 92bb 8761 e63c 9e89 b83c
000001d0: feb5 4b3d c325 533d 4af3 653d 24de c5bc
000001e0: b23a 503d c007 6dbd 2c97 b43c 7fc8 0fbd
000001f0: b4bc 263d d41c 653c 4e91 4fbd 8bc9 663c
00000200: 173b 0fbd d9dc 573d 81ff 89bc cd47 41bd
00000210: d9ae d7bc a671 5f3d 0ca9 693c 6589 853c
00000220: 6c16 393d 1da5 8cbc ac8d 283d 1f9e e83c
00000230: 58f3 cc3a 892a 553d da6f 50bb 8a3c 0ebd
00000240: 739c 6ebd 9e9a 24bd b6cb 17bd edec ae3c
00000250: 070a ce3c abf4 72bc 7e0b b63b def0 553d
00000260: 709f d8ba ccdd 083d da5b aa3c bcc9 623d
00000270: 5358 5e3d 39b1 26bd e414 e3bc 8c01 03bd
00000280: 6a2a c4bc 7a5b 34bd 12b6 4bbd 8d3e 1f3d
00000290: 8284 d83c 4e75 383d 14cb 23bc 1dd1 ef3c
000002a0: 2ac3 6abd 5ab4 5d3c 9f92 e4bb 5cb8 5b3c
000002b0: 5545 64bc 3630 c13c dc69 81bc 9da9 a7bc
000002c0: dc7e d0bb 3b51 23bc 9315 15bd 8cb4 623d
000002d0: 8401 2d3d 8f2c 1c3d a0fa dabc 6e02 2b3d
000002e0: e9e5 27bd 3361 303d 6fb9 c0bb 51dd 14bc
000002f0: 74b8 fbbc a349 023b b188 343a 06f5 cbba
00000300: 7429 0e3d 789a 46bd f129 19bd 54e5 d4bc
00000310: 3d62 4cbd bd19 febc 078a 203d 1d40 743c
00000320: 55e7 1abd 1240 5abd 1691 1d3d 9e53 6ebd
00000330: 7e7f 133d 7cb1 233d a63e 40bd 7854 7e3c
00000340: 8d41 a2bc d808 92bc 8e35 213c 3820 59bd
00000350: b762 2cbd e365 a93c 624a 6abc 10cb 38bd
00000360: b4f6 f0ba 72cf 4e3a 8055 b53c 561c 0e3d
00000370: 5d15 40bd d123 b9bc 35af 683d 16f9 44bd
00000380: 9e78 603d c464 50bd 56bc 233d 17f1 ef3b
00000390: ff4f bfbc 6dae 65bc bc3e a73c 8c84 12bb
000003a0: f85a d93c f542 663d af94 34bd 64b5 4cbc
000003b0: 7fea 23bd 7111 e9bc b941 513c 5bcc 00bc
000003c0: 816f c93a 5a9f a1bc ed06 c0bb 5808 ed3c
000003d0: 0ff2 5d3c 97f2 de3c a9ad 09bd 414c 8b3c
000003e0: c546 1cbd a1b0 353c b7a6 97bc 124c b4bc
000003f0: 6ca9 c6bb 8302 c93c 9f91 6e3d 632e d4bc
0.02000813 -0.030235374 -0.032777 0.053454958 -0.015555721 -0.011121414 -0.050711308 0.010711043
-0.011073922 0.03166279 0.0075644013 0.040411018 0.046932288 -0.04351908 -0.00786402 0.030581987
0.048387133 0.041995756 0.056772828 -0.05668332 -0.021389788 -0.007253962 0.046234977 0.051283658
-0.056983892 -0.012303588 -0.031306297 -0.040078983 -0.039929036 -0.050033186 0.043252163 -0.0028465695
0.039851647 -0.044252466 0.036828794 -0.0034300748 0.0435281 0.026830513 -0.005021742 0.03393803
-0.019441672 0.009143043 0.0076462943 0.0005847066 -0.006318703 0.04855804 0.0075812456 -0.0396246
0.033600923 -0.039490096 0.039109994 0.054664623 -0.021248817 0.011637752 0.025567507 0.017375587
-0.04798322 0.051530574 -0.035186414 0.018679013 -0.016864141 -0.043303747 0.017569773 -0.01870022
0.027215555 0.010381493 -0.023123017 0.008746421 0.05105099 0.0135050565 -0.05096718 -0.041284315
0.035338886 -0.042250495 0.017145742 0.021801593 0.047071483 0.0450484 0.018165493 0.02709298
0.00031341176 0.0021409064 0.039186276 -0.038985856 -0.02981283 0.009210674 -0.04308967 0.033081494
0.040565465 -0.034963682 -0.030558584 -0.03489906 0.03705538 -0.029142726 -0.013963819 -0.039339717
0.0147881545 -0.004361551 0.017758131 -0.008643365 0.02386828 -0.009637277 0.048128184 -0.017531395
0.047099046 -0.0025149374 0.0056086206 -0.025706606 -0.03957251 -0.033859838 -0.04456499 0.034492772
0.027902152 -0.004484904 0.028122677 0.022526558 0.04973411 0.051549684 0.05614022 -0.024153776
0.050837226 -0.05786872 0.02204474 -0.035103317 0.040707305 0.013983924 -0.050675683 0.0140861375
-0.03496846 0.05270085 -0.016845467 -0.047187615 -0.026328491 0.054551743 0.014261495 0.016300866
0.0451874 -0.017168576 0.041150734 0.02839571 0.0015636487 0.052042518 -0.003180495 -0.034725703
-0.05825467 -0.040186517 -0.03705951 0.02135321 0.025151266 -0.014828841 0.005555569 0.052231662
-0.0016527008 0.033414647 0.020795751 0.05536817 0.05428345 -0.040696356 -0.027719922 -0.031983897
-0.023946006 -0.04403255 -0.049734183 0.038878012 0.026430372 0.045033745 -0.009997148 0.029274518
-0.05731503 0.013531769 -0.0069754864 0.013410654 -0.013932546 0.02358256 -0.015797548 -0.02046662
-0.006362779 -0.009968097 -0.036397528 0.055347964 0.042237774 0.038128432 -0.026730835 0.041750364
-0.040990744 0.043061446 -0.0058814804 -0.009085969 -0.030727603 0.0019880317 0.00068868237 -0.0015560694
0.0347075 -0.048487157 -0.037393514 -0.025988258 -0.049898375 -0.031018132 0.039194133 0.014907864
-0.03781827 -0.05328376 0.038468443 -0.058185212 0.036010258 0.039964184 -0.046934746 0.015523069
-0.019806648 -0.017826483 0.009839429 -0.05300924 -0.04208633 0.020678466 -0.014299961 -0.04511553
-0.001838407 0.0007889188 0.022135496 0.034694992 -0.046895374 -0.022600086 0.056807715 -0.04808911
0.05480253 -0.050877348 0.039974533 0.0073224413 -0.023353575 -0.014018637 0.020415656 -0.0022356836
0.026532635 0.0562162 -0.04408711 -0.012494419 -0.040018555 -0.0284507 0.012772017 -0.007861222
0.0015368314 -0.019729305 -0.0058602006 0.028934643 0.013546481 0.027215285 -0.03361288 0.017004134
-0.03815343 0.011089475 -0.018512113 -0.02200893 -0.006062677 0.02453733 0.058244344 -0.025901025

base_model.conv3.bias f4 [64]
00000000: 1d95 38bd fcf0 c7bc 8e0b 5cbd 1387 113c
00000010: 0fa5 743c 55d0 373d 4b6f 0a3d b8c0 963c
00000020: 28c6 113d ab3f 33bc 5de7 493c 9a59 013d
00000030: 2795 88bc 164d 523d d466 a83c 708e fdbc
00000040: 4ed3 5e3d e14c 773c 7c8e 1bbd 0704 ef3c
00000050: 5e81 123c d6c2 b7bc 33a9 b83b a774 19bd
00000060: e510 40bd 2ef6 efbc 8bc7 323d 0480 943c
00000070: 6ae6 dabc 9bc3 53bd 9710 42bd 1e80 70bd
00000080: ede4 fdbc 2208 3d3d 34d5 fb3c f27d 65bd
00000090: 5677 bebc 454a 2dbd 6dce 123d 76a7 a2bc
000000a0: 1c2a e93c eb50 05bd 75b7 c0b8 5189 693d
000000b0: d723 16bd 6afd 6cbd 7492 393b 8631 d13c
000000c0: f3fb 693d b7c7 88bc f38e 943c 768b 18bd
000000d0: 6187 b63c 43c0 d0bc 2c3c 10bd 847c c6bc
000000e0: 9e5a 45bd bbc9 363d ea71 01bc d3db 86bc
000000f0: c416 db3a 308b 12bc 7b5d 093d f611 1abd
-0.04506408 -0.024406902 -0.053721957 0.008882302 0.014931931 0.044876415 0.033797543 0.018402442
0.035589367 -0.010940473 0.012323228 0.03157959 -0.016672684 0.051343046 0.020556845 -0.030951709
0.054400735 0.015094013 -0.03797768 0.029176725 0.008941976 -0.022431772 0.0056354045 -0.037464764
-0.046891112 -0.029292192 0.04364733 0.018127449 -0.026721198 -0.051700216 -0.047379103 -0.058715932
-0.03099295 0.046150334 0.030741312 -0.056028314 -0.023250263 -0.042307157 0.035841394 -0.019855242
0.028462462 -0.032547873 -9.189445e-05 0.05701572 -0.036655273 -0.057858862 0.0028316053 0.02553631
0.057125043 -0.016696794 0.01813457 -0.037242375 0.02228135 -0.025482303 -0.035213634 -0.024229296
-0.048182122 0.04462598 -0.007900694 -0.016462242 0.0016715159 -0.008944318 0.033536416 -0.037614785

base_model.bn3.weight f4 [64]
00000000: e514 803f f117 803f 981e 803f 671c 803f
00000010: f41d 803f 4111 803f 221a 803f e907 803f
00000020: d214 803f f320 803f c522 803f 9d13 803f
00000030: cb20 803f dc1e 803f c517 803f c520 803f
00000040: 7c14 803f 611d 803f 9619 803f c71d 803f
00000050: 4e19 803f 6316 803f b923 803f 9220 803f
00000060: 0122 803f 6315 803f af1a 803f 4215 803f
00000070: 251e 803f ea15 803f 5c1f 803f 4223 803f
00000080: b711 803f 6224 803f 271a 803f bb0d 803f
00000090: 6c1f 803f e41a 803f 8d18 803f 7c13 803f
000000a0: 6816 803f 6212 803f ad1a 803f 9317 803f
000000b0: ae16 803f fd1d 803f 131b 803f d618 803f
000000c0: ef1d 803f 711b 803f f30f 803f f31e 803f
000000d0: 5121 803f 7213 803f ab18 803f 2018 803f
000000e0: 2c1f 803f 9813 803f 6412 803f a51a 803f
000000f0: a51a 803f 510a 803f 1e19 803f 5414 803f
1.0006377 1.0007306 1.0009336 1.0008668 1.0009141 1.0005265 1.0007975 1.0002414
1.0006354 1.0010055 1.0010611 1.0005985 1.0010008 1.0009418 1.0007254 1.001
1.0006251 1.0008966 1.0007808 1.0009087 1.0007722 1.0006832 1.0010902 1.000994
1.0010377 1.0006527 1.0008143 1.0006487 1.0009199 1.0006688 1.000957 1.001076
1.0005406 1.0011103 1.0007981 1.000419 1.0009589 1.0008206 1.0007492 1.0005946
1.0006838 1.000561 1.0008141 1.0007194 1.0006921 1.0009152 1.0008262 1.0007579
1.0009135 1.0008374 1.0004867 1.0009445 1.0010167 1.0005934 1.0007528 1.0007362
1.0009513 1.000598 1.0005612 1.0008131 1.0008131 1.0003148 1.0007665 1.0006204

base_model.bn3.bias f4 [64]
00000000: 3a75 2fb9 e703 f539 0d09 2b3a 211c 2d3a
00000010: 4b01 fb39 0fcf b039 b313 043a 36d5 13b8
00000020: c3af 3239 c30e 173a 0978 bd39 7cf2 283a
00000030: 7f32 6d3a 7514 6e3a a03b 143a 32b5 523a
00000040: 60e7 533a 0246 453a 6e04 553a 01b8 163a
00000050: ad93 083a 1d79 8239 1002 6a3a 1bb5 593a
00000060: 7d61 3e3a 65b8 123a efec 183a 5eb8 8d39
00000070: fef6 723a 125a ee39 3734 043a effb 673a
00000080: 7973 b239 3065 403a a98a 1b3a 5a72 d039
00000090: a02f 5e3a 6f51 243a a6f6 3f3a 90f1 ba39
000000a0: 433a 2f3a 5be9 263a 34da 9539 080c 473a
000000b0: 0ad8 a439 7341 4f3a 8c10 303a 7287 ec39
000000c0: 7975 3f3a 2c3e 283a 69b3 cb39 0291 9f39
000000d0: 12c6 1d3a cde5 ab39 3746 c639 2da2 073a
000000e0: f3a6 0f3a 91eb 153a 8141 473a ba6b 3c3a
000000f0: 7865 fa39 35e9 b539 84c5 ac39 7404 0f3a
-0.00016732971 0.0004673295 0.0006524481 0.0006603618 0.00047875414 0.00033723607 0.0005038336 -3.52461e-05
0.00017040879 0.00057623925 0.00036138322 0.00064448244 0.0009048357 0.0009082028 0.0005654637 0.00080378645
0.0008083489 0.00075253856 0.0008125965 0.00057494646 0.00052099937 0.0002488577 0.0008926699 0.000830488
0.00072624517 0.0005596935 0.00058336457 0.0002703098 0.0009268372 0.00045462005 0.0005043181 0.0008849492
0.0003403684 0.0007339297 0.0005933443 0.0003975805 0.00084757246 0.0006268238 0.0007322825 0.00035656663
0.0006684402 0.000636717 0.0002858207 0.00075930404 0.0003144148 0.0007906176 0.0006716333 0.00045114342
0.00073035766 0.0006417956 0.00038852848 0.00030434883 0.00060185895 0.00032786877 0.00037817817 0.00051740074
0.00054798945 0.0005719001 0.00076010084 0.00071876834 0.00047759316 0.00034696763 0.00032953557 0.00054556807

base_model.bn3.running_mean f4 [64]
00000000: da15 b33d ce66 ed3d aafb b63e d985 463c
00000010: 18c8 683e c41a 2c3e 5ce8 3ebe 4c4a aabe
00000020: b0cf ff3e 3e64 763d 1028 fb3d 6960 c93e
00000030: 23a1 153e 56bd 563e 9807 b93e 83b9 03be
00000040: a9ed b93e f690 153f dbd2 aabd 204b a43d
00000050: 57d4 1dbe b413 66bd ebd5 423e c37a 27bd
00000060: ee63 01be d73f c13d 87d1 8bbd fe02 0e3e
00000070: ee57 65be 9f86 9b3e acf6 c8be 1db7 cdbd
00000080: 2df0 a5be ff51 ff3e d892 f43e ac52 84be
00000090: a80b 363c d67a a9be d39a a23e b0df fbbd
000000a0: 0b48 09bf 965c a3be 5651 323d de43 2f3e
000000b0: 8f1d 40be 8578 a3bd ea99 153c 5dd3 14bf
000000c0: 9800 b13e f2ac a5be 26ed db3e 5db4 193d
000000d0: f88a 2ebe d454 0a3e 038b a63d 8be2 3cbe
000000e0: ac48 453e 457b 4c3e 88a3 9d3e 8cdb afbe
000000f0: 7621 9b3e 263d 8dbd 0046 a9be 5d71 86be
0.08744402 0.11591874 0.3573888 0.012116873 0.2273258 0.16807085 -0.18643326 -0.3325981
0.4996314 0.060154192 0.12263501 0.39331368 0.1461225 0.20970663 0.36138606 -0.12863736
0.36314133 0.5842432 -0.08340999 0.080221415 -0.15413032 -0.056171134 0.19026916 -0.04088856
-0.12635776 0.094360046 -0.068270735 0.13868329 -0.22396824 0.30376145 -0.39250696 -0.10044692
-0.32409802 0.49867246 0.47768283 -0.25844324 0.0111111775 -0.3310153 0.31758747 -0.122985244
-0.53625554 -0.31906575 0.0435346 0.17115733 -0.18761276 -0.07981972 0.009130934 -0.58135015
0.34570765 -0.3235851 0.42954367 0.037525523 -0.170452 0.13508922 0.08131983 -0.18445794
0.19266003 0.19968899 0.30788827 -0.34347188 0.30298966 -0.06896429 -0.33061218 -0.26258364

base_model.bn3.running_var f4 [64]
00000000: 8350 ad3d 2f19 a53d 508e c13d 1c7d 123e
00000010: 7609 323e c7f2 4e3e 4533 fe3d 6f54 e03d
00000020: 350c 0b3e 7f19 b23d e5e8 3f3e 5196 983e
00000030: 7ce4 e03d eef8 8c3d 9bd9 d83d 0f2d 0e3e
00000040: cb33 913e 9bd4 5c3e 8150 043e d40d fd3d
00000050: 6555 ce3d 0c14 c73d b1db f53d 42e0 ab3d
00000060: 8595 bb3d ff1d 583e b0fa af3d e7ac 043e
00000070: 85bd 113e a175 213e 4ede b63d d92b 933d
00000080: 7458 973d 6f9e 423e b547 f63d a608 993e
00000090: bc88 963d 9c76 e03d 996a 5b3e 7510 013e
000000a0: 190a 723e 0f8d db3d a6e3 d23d 9c48 bb3e
000000b0: 4129 1b3e 57d9 443e c199 313e 852f 383e
000000c0: cf59 b03d f942 1b3e 8da2 183e 8978 9b3d
000000d0: 3ece 833d 9c76 0e3e 4d88 ad3d ad1f 263e
000000e0: ff52 db3d cae6 473e 9a85 903d 077b 0f3e
000000f0: 97db 803d 039c a53d b66c a93d a987 d23d
0.08462622 0.08061444 0.09450972 0.14305538 0.17386422 0.202098 0.12412123 0.109536044
0.13578875 0.08696269 0.18741186 0.29802182 0.1098108 0.06883417 0.1058838 0.13884376
0.28359827 0.21565478 0.12921335 0.12356153 0.100748815 0.097206205 0.120047934 0.08392383
0.09159378 0.21105193 0.08592737 0.12956582 0.14232452 0.15767528 0.0892912 0.07186098
0.07389918 0.1900575 0.12025396 0.2988941 0.07350299 0.10960123 0.21427383 0.12603934
0.23636664 0.10720264 0.10297327 0.36578834 0.15152456 0.19223534 0.17343809 0.17986877
0.0861088 0.15162267 0.14905758 0.0759135 0.06435822 0.13912433 0.08473263 0.16223021
0.107091896 0.19521633 0.070567325 0.14011775 0.062918834 0.080863975 0.08272688 0.10279781

base_model.fc.weight f4 [3, 50176]
00000000: 9e33 54bb 7a59 d439 c0e0 59ba 2a3a 403b
00000010: 58cf 5bba 46a6 363b 5f38 0dbb ade9 28bb
00000020: d004 24ba a087 feba 54f1 9cbb e63b 86ba
00000030: 2202 69bb 09dd 0abb 29ed 83bb 2b90 223b
00000040: 406f 9dba d5b4 23ba 749e 81bb 966b feba
00000050: 6bfe 78bb a7bc 1bbb 5e90 86bb 051b 98b9
00000060: 4f3a 94ba b8be 04bb 0504 51ba 733d 3ebb
00000070: bdd0 883b 7d21 baba a4a7 7db8 ac94 08bb
00000080: a674 10bb d66b 293b 14b6 35b9 9b17 42bb
00000090: 6113 90ba 84bb bf3a c2c8 aaba afc0 9dba
000000a0: 30e3 07bb 9f94 0dbb 4d87 30bb 1e09 103b
000000b0: 4b6a 693a f4ed 143a a7c2 033b 929b 06ba
000000c0: 656b bcba 8bbc 9e3a 5517 b435 46eb 763b
000000d0: 1cd8 81bb 6724 6e3b 2ac9 ecb8 9e5d 86b9
000000e0: ba86 063a f591 023a 2956 84b9 b1e0 0c3b
000000f0: 720e 043a 20b6 22bb 7a37 8aba f03b e23a
00000100: ea11 9cbb 064f 5f3b a373 b13a 64ad 763b
00000110: 581b 84bb e6c8 8739 c497 503b 0c2f 203a
00000120: 5353 2cbb 85b7 91bb 285b 883a fd56 2f3b
00000130: ff52 053b cb84 4f39 b247 7d3b 965d ec3a
00000140: ae12 ea3a d5a7 ad3a 5eca 30bb 911b e239
00000150: e42b 02bb 667b 153b 2bbd bbb9 43c8 2ebb
00000160: 661c 71bb c9d5 373b 319e 393a dc17 09bb
00000170: 798d 333b e614 ffb8 6378 8abb 473e 7f3b
00000180: e6b0 063b b70f 8dbb 5e73 01bb 5ada 6bbb
00000190: 588b 5f3b 3a56 eaba a59e 683b 7d15 5aba
000001a0: 4ef1 6c3b b71d c33a d075 823b e29b 413b
000001b0: 4769 86bb 06cf f63a c2a0 d1ba 3065 673b
000001c0: eeb5 53bb 68ce 83bb dd17 06bb 215f 02bb
000001d0: e208 bc3a 1080 edba 0ed0 113a e3fd 6f3b
000001e0: e1f7 cf39 db9b 653b e388 4ebb df91 703a
000001f0: fe15 73bb 747a b93a 6947 533b c690 a0bb
00000200: 6532 31bb d815 8cba 0194 103b 2dbc 4abb
00000210: ecd7 37bb 5455 3fbb e07b aeb9 29e1 b437
00000220: c8b8 613a 30dd 9b3a 0785 13bb 53d5 bfba
00000230: 367d 48bb 74c8 0ebb 7240 93bb 4a4f f2ba
00000240: b4ec 723b 9e6b 5c3b 793f 8ebb 0379 823a
00000250: 5bbb 9cbb 0bce 7d3b 5682 1d3b 2efb a2ba
00000260: 0ea8 13bb a705 7c3a b4e3 5abb 8096 613b
00000270: 1d73 b039 3a0a 033a f3a0 91bb e7d7 77bb
00000280: bc8c d8ba e0d1 453a 14a0 203b 7605 3c3b
00000290: 42f0 743b b269 163a eedb ce3a 872a 173b
000002a0: 53c2 bf3a ebe7 71bb 32af 953a 2954 113a
000002b0: 8f67 13bb 68f5 8e38 bccb c839 7654 49bb
000002c0: 5d38 88ba f214 593a 6ca4 dd3a 08c4 d93a
000002d0: b3fd 44bb 8660 7a3b 8863 70ba 2dc3 42bb
000002e0: 527f a339 6dbd 3d3b 972d 8ebb 125d 483a
000002f0: ec66 7a3b aac6 2fba e7b1 163b e78f 47bb
00000300: bc97 8e3b 755c d83a 25f1 783b 94ad 8b3b
00000310: 9055 81ba 0940 75bb 00f8 5c39 d903 8cbb
00000320: 7a24 ccba cf43 fe3a 48e6 0abb 0a34 d7ba
00000330: 804e 0cbb a34d bdba e2c6 393b 605b deba
00000340: 391d 263a eb8f 3139 76f8 82bb c836 6fba
00000350: 5bdf 8e3b c945 393b 6fb2 6bb9 feaa 2d3b
00000360: 4707 783b 856e cab9 1147 d5ba 6a22 c43a
00000370: 5dc4 6fba b8a2 b43a 5464 83ba 2df8 bd3a
00000380: 2c51 43bb 455c 603b 00b2 7bbb 0c6c 123b
00000390: 6d9b 9638 760c 693b 1bf5 68bb 12bc 823b
000003a0: 443c fbba 9de3 a5ba 84f1 20bb 1a04 54bb
000003b0: dd65 2dbb 4ffe 873b b022 183b 2ae7 beba
000003c0: e745 7cbb acce 80bb 6c17 8bbb 0ed1 133a
000003d0: f13a bbba 6f7b 703b 2528 bd3a bfbb 343a
000003e0: ef02 eeba 9b7a 5c3b 6e80 063a 7356 49ba
000003f0: e150 633b 0546 433b f4ec 433b 88af 263b
-0.00323794 0.00040502456 -0.00083113834 0.0029331543 -0.00083850836 0.0027870103 -0.0021548492 -0.0025774047
-0.00062568206 -0.0019419082 -0.0047895107 -0.001024124 -0.003555425 -0.0021188876 -0.0040260744 0.002480517
-0.0012011304 -0.00062449026 -0.0039556567 -0.0019410725 -0.0037993442 -0.0023763569 -0.0041065654 -0.0002901183
-0.0011308881 -0.0020255279 -0.0007973316 -0.0029028326 0.004175274 -0.0014200654 -6.0476028e-05 -0.0020840568
-0.0022042184 0.0025851629 -0.00017329335 -0.002961612 -0.0010992103 0.0014628028 -0.0013029801 -0.0012035574
-0.002073478 -0.0021603478 -0.0026936114 0.002197809 0.00089040835 0.000568121 0.0020105036 -0.0005134876
-0.0014375268 0.0012110634 1.3417836e-06 0.0037676855 -0.00396253 0.0036337615 -0.00011290827 -0.00025628222
0.000513177 0.0004980856 -0.00025241196 0.0021496231 0.0005037553 -0.0024827793 -0.0010545098 0.0017260294
-0.0047628777 0.0034074201 0.0013538491 0.003763997 -0.00403158 0.00025898888 0.003182874 0.0006110526
-0.0026294782 -0.004446926 0.0010403143 0.002675473 0.002034366 0.00019790528 0.003864747 0.0018033262
0.001785835 0.001324887 -0.002697609 0.00043126618 -0.0019862587 0.0022809147 -0.0003580836 -0.0026669658
-0.0036790608 0.002805101 0.00070807623 -0.0020918762 0.0027397557 -0.0001216324 -0.004225777 0.0038947032
0.0020552217 -0.004304852 -0.0019752602 -0.0035988302 0.0034110155 -0.0017878481 0.003549495 -0.0008319242
0.003615457 0.0014886175 0.0039813295 0.0029542376 -0.0041019055 0.0018830008 -0.0015993344 0.0035308115
-0.0032304483 -0.0040224083 -0.0020461 -0.0019893127 0.0014345909 -0.0018119831 0.00055623136 0.0036619834
0.000396668 0.0035035524 -0.0031514696 0.000917701 -0.0037091966 0.0014150874 0.0032238609 -0.004900071
-0.0027038094 -0.0010687662 0.0022060873 -0.0030934915 -0.0028052283 -0.0029195147 -0.0003328016 2.156252e-05
0.00086106034 0.001189148 -0.002250971 -0.0014635719 -0.003059221 -0.002178696 -0.0044937665 -0.0018486765
0.0037067356 0.003363348 -0.0043410626 0.0009954277 -0.0047830767 0.0038727548 0.0024033985 -0.0012434477
-0.0022530588 0.00096138794 -0.0033399882 0.003442198 0.00033655102 0.00049987773 -0.0044442355 -0.0037817897
-0.0016521434 0.00075462274 0.0024509476 0.0028689778 0.003737465 0.0005737796 0.0015782097 0.002306612
0.0014630057 -0.0036911916 0.001142001 0.0005543852 -0.0022492146 6.816798e-05 0.00038298767 -0.0030720509
-0.0010392774 0.0008281014 0.0016909963 0.0016614208 -0.0030058443 0.0038204505 -0.0009170105 -0.0029718385
0.00031184644 0.0028952018 -0.004338931 0.0007643263 0.003820832 -0.00067053235 0.0022994222 -0.0030450763
0.0043515842 0.0016507047 0.003798553 0.0042626355 -0.0009867419 -0.00374222 0.00021073222 -0.0042729196
-0.0015574836 0.0019398871 -0.0021194387 -0.0016418707 -0.0021409094 -0.0014442693 0.0028347303 -0.0016964488
0.0006336752 0.00016933649 -0.003996904 -0.00091252895 0.004360122 0.0028270355 -0.00022477818 0.0026499624
0.0037846135 -0.00038610786 -0.001627179 0.001496387 -0.0009146387 0.0013781404 -0.0010024407 0.0014493518
-0.002980302 0.0034234684 -0.0038405657 0.0022342233 7.181508e-05 0.0035560406 -0.0035546485 0.003989705
-0.0019167741 -0.0012656335 -0.0024558017 -0.0032351078 -0.002645842 0.004150189 0.0023214035 -0.0014564742
-0.0038493813 -0.003930887 -0.0042447355 0.00056387566 -0.0014284534 0.0036694666 0.001443152 0.00068944314
-0.0018158833 0.0033642414 0.0005130832 -0.00076804234 0.0034685659 0.0029796374 0.0029895874 0.0025434215

base_model.fc.bias f4 [3]
00000000: d270 123b 7a0b 043b bedf 6fb7
0.0022345078 0.0020148442 -1.4297604e-05
