face_recognition_custom_model_dict.pt (torch, 699677 bytes, 8 tensors)

base_model.conv1.weight f4 [16, 3, 3, 3]
000000 66 f9 24 3d 66 13 e9 bd 55 55 1c be 11 d9 c0 3c
       0.040276907 -0.11380653 -0.15266927 0.023541005
000010 c6 79 04 be be 69 79 bc 1e 76 c9 3c fa 25 3c be
       -0.12937078 -0.015222965 0.024592455 -0.18373862
000020 6d be 10 bd 21 9f 48 ba 12 b0 5a bc 3f 37 f9 bd
       -0.035337854 -0.00076531066 -0.0133476425 -0.121687405
000030 c4 7e 6a be 26 6a e6 bd 04 b8 f3 bc 1b e9 0f be
       -0.2289992 -0.11250715 -0.029750831 -0.14053766
000040 09 54 3e bc 1f 4e f3 3c 29 e7 3d be 9b 9c b9 bd
       -0.011616715 0.029700337 -0.18545212 -0.09063073
000050 91 d9 b3 bc 5a 0f 6b bd 57 7d 8c bd ba f1 9b bd
       -0.02195433 -0.057387687 -0.06859844 -0.07614465
000060 37 1c 63 be 58 27 90 bd 7b f9 00 3d 42 03 8a 3d
       -0.22178732 -0.07038754 0.031487923 0.06738903
000070 91 ed e4 3b 86 30 a5 bd 8b a3 86 bc fc d0 4c be
       0.006986328 -0.08065896 -0.016435405 -0.20001596
000080 17 27 88 be c8 20 8b be 24 eb ae 3d 1f 67 7a 3c
       -0.26592323 -0.27173448 0.08540943 0.015283375
000090 7a 07 6f be 3d 1f d3 bc 0c 50 33 3d 24 a5 bb 3d
       -0.23342696 -0.025771732 0.04377751 0.091623574
0000a0 7d f9 88 3d 80 ac 42 3d 89 f7 13 be 3f 0e 2d be
       0.06688211 0.04752779 -0.14449896 -0.16899966
0000b0 0c 16 65 3d ff fd 88 3c f1 78 55 be 57 a8 a2 3d
       0.05592923 0.016722677 -0.20846917 0.079422645
0000c0 6e 93 be 3a 58 17 42 3c be 34 5b be bc 0f 10 bd
       0.0014539787 0.011846386 -0.21406838 -0.035171255
0000d0 8d 3c 24 be b4 54 65 3d 7c b1 02 3d d1 e5 10 3e
       -0.16038723 0.055988982 0.031907544 0.14150168
0000e0 62 84 ce 3d ec 4a 18 3e f8 7d bc 3a 2a 92 24 3e
       0.10083844 0.1487233 0.0014380803 0.16071382
0000f0 20 4b 8a bd 5b d9 e1 3d 0c c0 81 bd 74 b1 fe bd
       -0.0675261 0.110277854 -0.06335458 -0.1243619
000100 c5 8a b6 bd e3 7d 5e 3e 62 d5 2d 3e 08 fa 7b 3e
       -0.08913187 0.2172771 0.1697593 0.24607098
000110 9e dd 60 3e 63 97 d9 bd fb e7 86 bd 63 6f 0c 3d
       0.2195954 -0.10624578 -0.065872155 0.034285914
000120 96 16 78 bd 7d b6 4a 3e dc 5d a6 bd a8 ac f0 bc
       -0.060568415 0.19796176 -0.08123371 -0.029379204
000130 c1 de f8 bd 83 19 38 bd 74 1e 64 3e 0e 3a 63 3e
       -0.12151862 -0.044946205 0.22277242 0.22190115
000140 3c df 4e 3e 66 a8 e2 3d 5c fc 07 3e c0 65 b1 bd
       0.20202345 0.11067276 0.13279861 -0.086619854
000150 9e 54 3e 3d e3 b5 07 3e 27 c0 d3 3c fb 09 1e 3e
       0.046467416 0.13252978 0.025848461 0.15433495
000160 51 c6 7a 3d 2b ed a7 3d e6 c4 0b be 0b 70 b1 3c
       0.061224286 0.08199533 -0.1364933 0.021659872
000170 0c e3 32 bd 03 b7 ec bd e7 fb 37 be 16 5a 1d be
       -0.04367356 -0.11558344 -0.17967187 -0.15366396
000180 26 4d 49 be 97 cb 71 3d d0 32 bb 3d c7 e3 13 bd
       -0.19658336 0.05903205 0.09140551 -0.036105897
000190 4f 0d 05 be 42 1e 0d 3e dc 5f d4 3d c2 32 09 bc
       -0.12993358 0.13781074 0.10369846 -0.008373918
0001a0 aa b7 d2 bd 69 92 20 3e e1 02 62 3d 53 4d 23 be
       -0.102889374 0.15680851 0.055178527 -0.15947466
0001b0 85 0b f8 3d 72 0a ac 3d 36 61 06 be 25 71 3a 3d
       0.12111572 0.0840043 -0.1312302 0.04551806
0001c0 6e a8 2f be 43 24 bb bd f0 07 ce 3d 04 b8 5f bd
       -0.17154095 -0.09137776 0.10060108 -0.05461885
0001d0 c2 84 4a be aa d8 08 be 9b 59 f6 bd 0e 63 d4 bd
       -0.19777206 -0.13363901 -0.1202881 -0.10370456
0001e0 a1 4f 4d bd da 85 df 3d d8 fd 6a bd 5e da 40 be
       -0.05012477 0.10914202 -0.05737099 -0.188333
0001f0 60 1c 78 bd 71 39 ba 3c 60 db 26 3d d6 90 6b be
       -0.060573936 0.022732468 0.040736556 -0.2300447
000200 74 ae b4 bd c0 90 49 be d3 7c 0c be 8f ff 69 3c
       -0.08822337 -0.19684124 -0.13719492 0.014282121
000210 ad 84 44 be 0b 9d 6a 3c 76 3b d9 3d 73 50 04 3b
       -0.19191237 0.0143196685 0.106070444 0.0020189553
000220 32 46 0d be c4 4d 9f bd a4 1a 08 3d 37 b4 1e be
       -0.13796309 -0.077785045 0.03322853 -0.15498434
000230 12 23 b6 3d 50 61 3a be f6 ad 44 be 6c 1d 45 be
       0.08893408 -0.18201184 -0.19206986 -0.19249505
000240 d5 73 50 bd 61 e1 f1 3d 61 93 45 be 3c 57 19 3e
       -0.050891716 0.11810566 -0.19294502 0.14974684
000250 05 5c b2 bd 07 60 42 3d 42 10 13 38 4e dc 3a be
       -0.087089576 0.04745486 3.5062672e-05 -0.18248102
000260 d4 7f 1b 3e ba ca c4 3d 48 c0 3c 3e 96 4a ba 3d
       0.15185481 0.096089795 0.18432724 0.090962574
000270 52 d9 07 be 9c e6 1e 3e e3 cc cd 3b 71 45 b4 3d
       -0.13266495 0.15517658 0.006280528 0.088023074
000280 48 87 21 be 60 25 6b bd dd c3 fb bd 81 7e 06 bc
       -0.15774262 -0.05740869 -0.12293217 -0.008208872
000290 0c e1 de 3d 90 8b ad bd 0f 55 03 3e 73 f8 2e 3e
       0.10882768 -0.08473885 0.12825416 0.17086963
0002a0 6b f0 be 3d 03 a5 7d bd 82 88 a7 bd b7 aa 8b 3b
       0.093232 -0.061924946 -0.08180334 0.004262294
0002b0 ca 29 18 3e da 29 82 3e 73 c3 32 3e f7 6a 2e 3d
       0.14859691 0.25422555 0.1745737 0.04258248
0002c0 ee 38 07 3e c0 ba ff bd 56 24 cd bd 49 fa 1d 3e
       0.1320531 -0.124867916 -0.10016696 0.15427507
0002d0 d8 99 41 bd ba 73 1e 3e 2c 85 96 bd 99 82 08 bd
       -0.047265857 0.15473834 -0.07349619 -0.033327673
0002e0 5e 17 c5 bd 2c dd 26 3e 54 a3 2d 3d 96 61 57 3e
       -0.096235976 0.16295308 0.04239209 0.2103332
0002f0 01 e5 39 3e ba ec f7 3d ac 78 ad 3c 3a 68 33 bd
       0.18153764 0.12105699 0.021175705 -0.04380057
000300 cd 8a ce bc f6 0a 30 3d 09 4d e8 3d 63 f8 ef bd
       -0.02521267 0.042979203 0.11342818 -0.11717298
000310 0e eb 37 3e d4 d7 00 bb 8d b5 3e be 81 20 04 be
       0.1796076 -0.0019659894 -0.18623944 -0.12903024
000320 d3 02 16 3e 50 3a 1e 3e 34 d6 4c be 41 04 eb 3d
       0.14649515 0.15451932 -0.20003587 0.11475421
000330 f2 2a 9b 3d b6 0f be 3d cd 20 11 3e 64 63 09 be
       0.075765505 0.092803404 0.14172669 -0.13416821
000340 d5 63 f4 3c 1e 33 47 3d b6 68 ac bd b3 0e 14 3d
       0.02983276 0.048632734 -0.084184095 0.03614683
000350 b0 5b aa bd 96 2f bc 3d 70 0d a7 bd b8 e4 cd bd
       -0.08318269 0.09188764 -0.0815686 -0.1005339
000360 e9 b3 bc bc 4b 3d 93 bb 3e 06 2e be 28 07 5c bd
       -0.023035007 -0.0044933907 -0.16994569 -0.053717762
000370 be 33 23 3d e0 27 bf bd c9 ae 44 bc 31 de ee bd
       0.039844267 -0.093337774 -0.012004563 -0.116634734
000380 d0 06 80 bb 11 f6 a0 bd 80 38 52 bd 00 f9 13 bd
       -0.003907062 -0.078594334 -0.051323414 -0.036126137
000390 89 2d 71 3e 0f 7b f2 3b cf 9d 70 3d 44 bf 14 bd
       0.23552527 0.0073999236 0.058744248 -0.036315218
0003a0 f9 48 7e 3e 5c 46 7a 3e 9a a3 a5 bd d4 32 ba bd
       0.24832524 0.24440902 -0.08087845 -0.09091726
0003b0 88 47 a6 bd e5 96 7d 3d a1 fd 69 3c 87 89 80 bd
       -0.08119112 0.061911482 0.014281661 -0.06276231
0003c0 dc 82 f7 bb 1e e3 c7 3d 6b e9 20 bd c4 5d c1 3d
       -0.0075534414 0.09760116 -0.039285105 0.094417125
0003d0 8c ff cb 3b 92 2f 5f bd 65 a3 93 3d 46 e2 49 3e
       0.006225532 -0.054488726 0.072088994 0.19715223
0003e0 85 35 c9 bd ac d5 19 3d a8 a6 44 bd 10 71 4d 3e
       -0.09824661 0.03755729 -0.0480105 0.20062661
0003f0 80 86 dd bd a3 8f e1 bd 22 af 86 3e 00 34 41 bd
       -0.108166695 -0.11013725 0.2630549 -0.04716873

base_model.conv1.bias f4 [16]
000000 3e 94 ba 3c f3 e9 41 3d 88 21 e2 bd fa 87 08 bd
       0.022775766 0.047342252 -0.11041552 -0.033332802
000010 30 2b 3b be ae 6d 6c 3e 43 1c b2 bd e0 40 01 be
       -0.18278193 0.23088714 -0.08696797 -0.12622404
000020 79 b8 e6 bb aa 68 62 be ad 08 42 be 61 9f 8e bd
       -0.007041034 -0.22110239 -0.18948622 -0.06963993
000030 32 b2 b5 3d 13 c5 02 be 62 c3 01 3c f7 a1 d5 3d
       0.08871879 -0.1277049 0.007920118 0.10431283

base_model.conv2.weight f4 [32, 16, 3, 3]
000000 8a 19 0b 3b 93 55 c6 bd 2b 99 7e bd db f2 a2 bd
       0.002122494 -0.09684291 -0.06215779 -0.07956477
000010 a7 65 f6 bd e0 65 59 bd db 72 17 3c a3 a8 89 3c
       -0.120311074 -0.05307567 0.009243692 0.016804045
000020 a4 d7 85 bd 59 2c 09 bd 61 4a b5 bd 40 61 17 3c
       -0.06535271 -0.03348956 -0.08852077 0.009239495
000030 ca a8 b0 bd 52 09 e1 bd 3b 24 26 bd b0 5b 63 ba
       -0.08625944 -0.10988106 -0.040561896 -0.00086730253
000040 89 a8 01 be 74 b3 b7 3c b3 6d 01 bd 1c 82 f6 bd
       -0.12661947 0.022424437 -0.031598758 -0.12036535
000050 54 94 a3 bd 7d 06 2c 3c f0 25 01 be a5 06 b1 bd
       -0.07987276 0.010499594 -0.12612128 -0.086438455
000060 78 e0 0d bd 82 6d 0a be 3f 07 87 bc c0 3f ee bc
       -0.0346379 -0.13518336 -0.016482947 -0.029083133
000070 55 2b a9 bc 37 db 00 be 69 aa 39 3c 34 32 f8 bd
       -0.020650545 -0.12583624 0.011332133 -0.121189505
000080 4d ed 2f 3c 7c 84 1a be bb ef 14 be 24 e6 aa bc
       0.010737729 -0.15089601 -0.14544575 -0.020861693
000090 05 ae 30 bd 56 e7 40 bd ec 13 c8 bd b3 f4 b1 bd
       -0.043134708 -0.04709562 -0.09769425 -0.08689251
0000a0 28 f0 9b bd 4c 3b 1c be b6 13 42 bd df dd 68 bd
       -0.076141655 -0.15256995 -0.04738208 -0.056852218
0000b0 99 c8 91 bd 1b 7c 46 bd ac 27 8e 3b 57 b7 56 bd
       -0.07118339 -0.0484582 0.0043382253 -0.05242094
0000c0 f1 69 b1 bd 0c d2 b7 bd ab 5d de bd 8e e8 e9 bd
       -0.08662785 -0.0897561 -0.108577095 -0.114213094
0000d0 56 df 8d bd 13 32 90 bd 92 fd b7 bc aa 9c ec bd
       -0.069273636 -0.07040801 -0.022459779 -0.11553319
0000e0 64 51 dc 3b ae 3a f2 bd 7d 54 75 bd 82 0a 76 3c
       0.0067235697 -0.118275985 -0.059895027 0.015017154
0000f0 fe e3 bb 3c e6 fb dd bd 3c 0e 39 bd 37 fd b4 bc
       0.022935864 -0.108390614 -0.04517959 -0.022093398
000100 30 2e bb bd ae 12 a9 bd 60 82 1f bc c6 b3 b9 bd
       -0.09139669 -0.08255516 -0.009735674 -0.09067492
000110 6a 96 25 bd 7f 7e 81 3b fc e4 85 bd 34 4f 7b 3c
       -0.04042665 0.003951847 -0.06537816 0.015338708
000120 2e 14 83 bd d3 4c aa bc 5f 84 c3 3c 63 d3 ac bd
       -0.06400333 -0.020788586 0.02386683 -0.08438756
000130 b5 d7 5f bc f8 b9 a9 bd 37 cd 91 bd 95 cf 95 bd
       -0.013662268 -0.08287424 -0.0711922 -0.07314984
000140 4f b4 73 bd 91 5f ca bd b7 30 44 bd ae fe 83 bd
       -0.059498128 -0.09881509 -0.04789802 -0.06445061
000150 69 4f 71 bc a8 2a ad bd 54 ca 74 bd 53 46 c8 bd
       -0.0147284055 -0.08455402 -0.059763268 -0.09779038
000160 ed 8c 0c be 95 5b 0c bd 06 5a 21 bd 70 db 8a bd
       -0.13725634 -0.034267027 -0.039392494 -0.06780136
000170 a3 55 ca bd 26 fb 3d bc 10 b1 8c bd 0e b1 94 3b
       -0.09879615 -0.011595523 -0.068697095 0.004537708
000180 a2 d6 de bc 97 09 9b ba 0c bc eb 3a 65 6d 95 bd
       -0.027201954 -0.001182842 0.001798512 -0.07296256
000190 37 c8 8b bc 59 86 e2 3b 23 75 e4 bc 7b bf 15 bd
       -0.017063243 0.006912988 -0.027887886 -0.036559563
0001a0 1b c2 51 bd bc 94 db 3c 5c 3f b3 bd 81 2e c8 bd
       -0.051210504 0.02680432 -0.08752319 -0.09774495
0001b0 b4 80 ba bc 16 fb 06 be 76 53 6d bd 7b de c7 bd
       -0.022766449 -0.13181719 -0.057940923 -0.09759232
0001c0 f4 6b 8f bb d0 40 0c be 52 39 10 bc 5b cc bc 3c
       -0.0043768827 -0.13696599 -0.008802729 0.023046663
0001d0 a0 7e 2e bd bc 2f 08 bd 94 47 5e 3d 57 7c ae bd
       -0.042601228 -0.033248648 0.05426748 -0.0851981
0001e0 85 ec 59 bd b0 29 ab bd a8 23 26 bd 26 5a 01 bc
       -0.05320408 -0.08357561 -0.04056135 -0.007895028
0001f0 19 c6 7f bc 3c 62 35 bd 83 1a f2 bd 4a a5 51 bd
       -0.015611195 -0.044283137 -0.11821463 -0.051183023
000200 b6 79 96 bd 8d d1 b6 bc b4 2d 0c 3c e9 37 23 3c
       -0.07347433 -0.022316718 0.008555818 0.0099620605
000210 0e 1a d5 bd c3 dc 77 bd 25 c6 b7 bd 84 74 e3 bd
       -0.1040536 -0.06051327 -0.0897334 -0.11106208
000220 a7 19 c3 bd 64 f2 e0 3c e7 81 f2 bb 26 e5 d4 bc
       -0.09526377 0.02745933 -0.0074007395 -0.025988173
000230 53 c6 cd bc 17 b4 0b be 6c 08 2c bd 66 4f c8 3b
       -0.025118982 -0.13642918 -0.04200022 0.0061129807
000240 72 51 cc bd b7 1e a3 3c 4c c6 48 bc 06 dc cf 3c
       -0.09976472 0.019912107 -0.012254309 0.02537347
000250 87 2c b8 bd c0 a0 89 3b 97 a9 e1 bd 98 9f 80 bd
       -0.08992868 0.004200071 -0.11018675 -0.0628044
000260 33 2e f8 bc 7f 5f f5 bc e7 42 7d 3c 95 10 e8 3c
       -0.030295467 -0.029952763 0.015457845 0.02832822
000270 a8 24 a2 3c 73 16 e8 39 78 ad 8d 3b 3e 25 91 bd
       0.01979287 0.00044267214 0.0043236576 -0.070871815
000280 83 d4 ff bd 97 0c b5 bd 36 c7 29 bd b7 d3 c6 bd
       -0.12491705 -0.08840292 -0.041449748 -0.0970835
000290 48 5c 2a 3c 2f fe 47 bb 19 f6 99 bc d1 a6 46 bc
       0.010397978 -0.0030516495 -0.018794106 -0.012124733
0002a0 65 b3 25 3d 6e e5 14 bb ae 41 d8 bd 55 f1 ea bd
       0.040454287 -0.0022719759 -0.105594024 -0.11471812
0002b0 98 16 8c bc b2 d0 2c bd 7f 44 5a bc 04 33 0c be
       -0.017100617 -0.042191215 -0.013321995 -0.13691336
0002c0 6c a3 05 be bf b7 50 bb d0 0c 1a ba fc 58 04 be
       -0.13050622 -0.0031847802 -0.0005876543 -0.1292457
0002d0 57 c6 aa bc 97 f0 c8 bd 13 63 f8 3c 06 5f d8 bc
       -0.020846529 -0.09811514 0.03032068 -0.026412498
0002e0 77 8a 4a 3d 52 00 eb bd 55 7d 0d be a1 b9 93 3c
       0.049448457 -0.114746705 -0.13817342 0.01803285
0002f0 18 ac 0f 3d 12 5b 8f 3c 48 bf b4 3c d7 9d d3 bd
       0.03507623 0.01749948 0.022063866 -0.1033284
000300 de 05 e6 3c af c9 e1 bd 37 c8 61 bc 16 83 bb bd
       0.02807897 -0.11024796 -0.013780645 -0.09155862
000310 81 3f 90 bd 1b f4 2d bd 17 d6 b1 bd c5 32 8a bd
       -0.070433624 -0.042469125 -0.086834125 -0.06747965
000320 cd 49 e8 bd 0b fb 07 be c6 e8 b4 bc 45 de 8e bd
       -0.113422014 -0.13279359 -0.022083651 -0.06975988
000330 0e 37 ae bd 74 6b b3 bd 23 b7 fb bd cb 84 02 be
       -0.085065946 -0.087607294 -0.1229079 -0.12745969
000340 0b 9b 11 bc 84 07 6e bc 41 42 4f bd 20 c0 d5 bd
       -0.008887063 -0.014528159 -0.050600294 -0.104370356
000350 b9 b6 ef bc e6 f0 76 bd 4b 74 fb bd 2d 26 25 bd
       -0.029261934 -0.060288332 -0.122780405 -0.04031961
000360 2a 24 2f 3d d7 7a eb bd 23 74 ed bd ca 5f b1 bc
       0.042759098 -0.11498039 -0.11594417 -0.021652121
000370 10 d2 f9 3c be 94 a9 bd ed 3f 76 bc 32 20 cf 3c
       0.030495673 -0.082803234 -0.0150298895 0.025283907
000380 be 17 fa bb 61 5c 8a 3a ea 6f 89 3d 15 e6 15 3d
       -0.007632225 0.0010556096 0.06710799 0.036596376
000390 20 fa 84 bd 9b c1 2f bc f6 3d d8 3c 83 a3 4c 3d
       -0.0649302 -0.0107273115 0.026396733 0.049960624
0003a0 5b 01 d7 bd 37 7b c3 3c 8f ed 8d bd 7c 0e fc bd
       -0.104983054 0.023862464 -0.06930076 -0.1230745
0003b0 47 7e c9 bc 68 f4 bc bd 3c 46 08 bd 78 c2 cd bd
       -0.024596347 -0.09226304 -0.033270106 -0.100468576
0003c0 03 ce f0 bd c6 ab 80 bd 0b 72 a6 bd 96 0b 6a bb
       -0.117580436 -0.06282763 -0.08127221 -0.0035712472
0003d0 56 22 37 bd f8 6c 62 3c b5 ff 19 bd 7d a8 a3 bd
       -0.04471048 0.0138199255 -0.037597377 -0.07991121
0003e0 c4 0f 9b 3b 73 57 54 bd 4e f4 25 bd a3 70 a5 bd
       0.004732104 -0.05184121 -0.04051619 -0.080781244
0003f0 2d 17 09 bd a3 08 4d bd 86 c8 28 bd 1d 43 ca bd
       -0.033469368 -0.050057065 -0.04120686 -0.09876082

base_model.conv2.bias f4 [32]
000000 b8 9b 8c bd 69 3d b8 bd 84 43 71 bd 57 fb 03 bd
       -0.068656385 -0.08996088 -0.05890228 -0.03222212
000010 9e b4 80 3d 62 54 56 bc 6b 07 8d bd cc d7 fc bd
       0.0628445 -0.013081642 -0.068861805 -0.123458475
000020 5f 3e ab 3c fd bb d1 bd 46 46 82 bc 6e d5 3b 3c
       0.020903764 -0.10240934 -0.01590265 0.01146446
000030 37 b1 56 bd 31 d6 f7 bd 3e fa 0d be bf 0d e5 bc
       -0.0524151 -0.12101401 -0.13864991 -0.027960656
000040 81 f1 40 bd df 6c 94 3b 50 bd db bd cb f7 8f bd
       -0.047105316 0.00452958 -0.10729468 -0.07029685
000050 b5 e8 de 3b a8 13 0f bd 28 74 6e 3b 60 96 0c 3d
       0.006802643 -0.034930855 0.0036385152 0.034323096
000060 3b 04 95 bd ac ab fe bd c7 c1 cd bd f9 ce 58 bd
       -0.072761975 -0.124350876 -0.10046726 -0.05293176
000070 e8 e7 9e bd 8d 48 70 bd 55 ef af bd c0 db 6c bc
       -0.07759076 -0.05866294 -0.08590571 -0.014456689

base_model.conv3.weight f4 [64, 32, 3, 3]
000000 f2 fe c2 bc c1 e6 98 bc 78 bb 8c bd cf be bf bc
       -0.023803208 -0.01866472 -0.06871694 -0.023406414
000010 fa 13 cd bd 9b d6 c0 bd f9 e3 8c bd b9 75 df bd
       -0.10013576 -0.09415933 -0.0687942 -0.10911126
000020 47 d3 c1 3a a8 33 3f bd 9a ef cc bc 2d 77 3a bd
       0.0014787697 -0.046680123 -0.025016595 -0.04552381
000030 dd f4 20 bd 46 30 a1 bd 11 76 64 bd 65 97 c9 bd
       -0.03929602 -0.078705356 -0.05577666 -0.09843329
000040 0e 1b 98 bd 9b 47 af bb 8b ce 73 3b 70 a7 8c 3d
       -0.07427035 -0.005349112 0.0037201967 0.06867874
000050 c5 21 4b bd 0f 9e 29 3b c9 38 90 3d 34 7d 01 bd
       -0.049592752 0.0025881564 0.07042081 -0.031613544
000060 cf 36 d0 3d 0c 64 8f 3d 1f b8 53 bc 5a 10 81 bd
       0.10166704 0.07001504 -0.012922316 -0.06301947
000070 c3 b2 2f bd ef 9d 43 bd 67 80 de bd 5f 50 a0 bd
       -0.04289509 -0.04775804 -0.108643346 -0.078278296
000080 26 5c da bd 60 6f 9f bc 21 6b 18 bd 1b 6b b8 bd
       -0.10662107 -0.019462287 -0.03721154 -0.09004804
000090 fa 92 89 bd 1d cd 6e bd 92 f2 04 be 0e 53 66 bd
       -0.06717487 -0.05830108 -0.12983158 -0.05623155
0000a0 d2 8c 4b bd 50 a7 96 bd a7 1c 79 bd f3 89 25 bd
       -0.049694844 -0.07356131 -0.06081834 -0.04041476
0000b0 b7 41 65 bd bf e8 c0 bd d2 5b d5 bb b6 5c b5 bd
       -0.055970874 -0.09419393 -0.00651119 -0.08855574
0000c0 fd 95 22 bc b4 87 e1 3b d1 0a 19 bd ba eb af bd
       -0.009923455 0.006882632 -0.03736383 -0.08589883
0000d0 a3 ce c3 bd e3 7f 8f bd 03 1b 27 3c ec 8d 4d bd
       -0.09560897 -0.07006814 0.010199311 -0.050184175
0000e0 6e ea cd bc 5c 72 b7 bc 91 4b 4c 3c 49 19 0b be
       -0.025136199 -0.022393398 0.012469188 -0.13583864
0000f0 55 21 27 3d d2 59 34 3d 21 ea ab bd bf 1d a3 bd
       0.040803272 0.04403097 -0.08394266 -0.07964658
000100 d0 c4 4d bd 07 8e f6 bd 14 ae d1 bd 44 6b 34 bd
       -0.050236523 -0.12038808 -0.10238281 -0.04404761
000110 58 df 0d bc 80 19 ac bd 1a ed 85 bd 90 2a f8 bd
       -0.008659206 -0.08403301 -0.06539364 -0.12117493
000120 c5 69 fc bd 18 ee 81 bc 05 e7 86 bc 52 96 ac bd
       -0.123248614 -0.015860602 -0.01646758 -0.08427109
000130 04 c7 b8 bd 63 52 90 bd 5c 07 23 bd 16 f1 fd bd
       -0.09022334 -0.07046964 -0.03980194 -0.12399499
000140 93 cb c9 bd c8 57 02 3d 05 d8 03 3d c6 e5 2d 3d
       -0.09853282 0.031821996 0.032188434 0.042455457
000150 9e e2 a3 3b d5 78 d6 bc 70 5e c3 bd 3e 8b 8a 3d
       0.00500138 -0.026180664 -0.09539497 0.067648396
000160 77 b3 8c 3d dc f3 cf bb 9c 14 be bc b6 42 4d bd
       0.06870168 -0.006346209 -0.023203187 -0.05011245
000170 3f 5a 30 bb 74 f3 dd bd 01 8e de bd fa b6 6f bd
       -0.002690926 -0.108374506 -0.10866929 -0.05852411
000180 76 62 80 bd 95 f9 e3 bd 6f b3 02 be 3c ce d8 bd
       -0.0626878 -0.11131588 -0.12763761 -0.10586211
000190 6b c9 90 bd 04 21 1b bc b5 45 b0 bc ec 7c 35 bd
       -0.070696674 -0.009468321 -0.021517614 -0.044308588
0001a0 04 b8 c3 bd 43 25 ac bd 11 1d 64 bd b3 59 ea bd
       -0.095565826 -0.084055446 -0.055691782 -0.1144289
0001b0 a9 08 8a bd aa 52 04 bd 18 95 16 3c 5e df a5 bd
       -0.06739933 -0.032305397 0.00919082 -0.080992445
0001c0 4e 22 50 3c 37 63 24 bd d2 ae dd bd 10 81 1a 3c
       0.012703491 -0.04013368 -0.1082436 0.009430185
0001d0 33 25 bb 3b 68 c8 87 bd e8 68 1a bd 5b f0 e0 3d
       0.0057112216 -0.06630021 -0.037697703 0.10983344
0001e0 32 d9 60 bd 13 0d ee 3c 04 92 fb 3c ca 9c 11 bd
       -0.054894634 0.029058969 0.030709274 -0.035549916
0001f0 3f 15 15 bd b7 99 0d 3e 00 cd 1a 3d ba 66 42 3d
       -0.036397215 0.13828169 0.03779316 0.04746125
000200 de 2c be 3d 1a 00 99 3c 10 79 70 3d cd ce 5c 3c
       0.092859015 0.018676806 0.058709204 0.0134770395
000210 7a f0 96 3b c1 87 3a 3d 3b 28 86 3d 38 b6 75 bc
       0.0046063038 0.04553962 0.06550642 -0.014997058
000220 ae 19 f7 bd 9b ef a5 bd ab 29 4f bd 8c 7f 2e bd
       -0.12065445 -0.08102342 -0.050576847 -0.042602107
000230 06 62 f6 bc 51 ba ed bd 60 e7 a4 bd f7 31 54 bd
       -0.030076038 -0.11607803 -0.08051944 -0.051805463
000240 be 2d b7 bd 80 46 4e bc 17 4e cb bd 90 0a ac bb
       -0.089442715 -0.012590051 -0.09927004 -0.0052502826
000250 4f 90 c3 bc f2 17 75 bd a3 7f bf bc b5 47 d8 3b
       -0.023872523 -0.05983729 -0.023376292 0.006600345
000260 a4 73 44 39 e2 35 66 bc 4c 7c ab bd 9c 67 00 bd
       0.00018735096 -0.014050933 -0.08373317 -0.03134881
000270 32 27 b6 bb 68 c6 1f bd ae 58 19 bc b6 01 b1 bd
       -0.0055588717 -0.039007574 -0.009359522 -0.086429045
000280 41 04 07 bc ca 84 90 bd 7a 46 c1 bd 10 a8 61 bd
       -0.00824076 -0.070565775 -0.094372705 -0.055091918
000290 93 5e 6c 3c 58 a4 aa bd c4 61 99 bd a5 cf 88 bd
       0.014426845 -0.08332127 -0.074893504 -0.0668023
0002a0 5b 17 e6 bd 8c 22 98 bd fa b8 dc bc 6e be 78 3d
       -0.112349235 -0.07428464 -0.026943672 0.060728483
0002b0 e0 2e 6e bb b3 8f 3e bd 29 fe 34 bd 02 81 b4 bd
       -0.0036343858 -0.04652376 -0.0441877 -0.08813669
0002c0 24 49 58 bd 4a d8 d5 bd 6a 17 ef 3c d4 26 13 3c
       -0.052804127 -0.104416445 0.02918597 0.008981425
0002d0 5b 4b 97 bd 9f 1c 9d bd 64 51 a2 bc 4e 0b ac bc
       -0.0738742 -0.07671475 -0.0198142 -0.021001484
0002e0 9a c9 34 bd 59 a0 22 bd 32 de d6 bd 5d dd 4a bd
       -0.044137575 -0.0397037 -0.10491599 -0.049527515
0002f0 a5 52 db bd 75 ba 20 bd bf 23 db bd 7c 63 35 bd
       -0.107091226 -0.03924032 -0.107001774 -0.04428433
000300 5f e9 b1 bc d1 f6 d2 bc 08 0d 3e bc 65 28 35 bd
       -0.021717725 -0.025752457 -0.011599787 -0.044227976
000310 02 ea 2b bd 9b 7f e4 bc 6a c0 a7 ba 25 0b 5d bc
       -0.041971214 -0.027892878 -0.0012798433 -0.013491427
000320 99 61 dd bc fa f3 84 bd 50 2f 95 bd 3a 81 71 bd
       -0.027024077 -0.06491847 -0.07284415 -0.05896113
000330 81 e0 84 bc 42 a6 9c bd 9e 85 e7 bc 43 ef f2 bc
       -0.016220333 -0.07648899 -0.028261956 -0.029655105
000340 be 50 a6 bc 9b fc e0 bd 30 bd 84 bd 75 56 02 bd
       -0.020302173 -0.10985681 -0.06481397 -0.031820733
000350 97 5a f4 bd 08 22 40 bd 96 62 e2 bd 16 af b7 bd
       -0.11931341 -0.046907455 -0.1105396 -0.08968942
000360 5c 0a 8f bd 65 77 8a bd 77 e0 8c bd d9 1b 45 bd
       -0.06984398 -0.06761054 -0.06878751 -0.04812226
000370 22 47 b7 bc 87 b5 ac bc 05 a2 af bb ed f6 a9 bd
       -0.022372786 -0.021082653 -0.0053598904 -0.082990505
000380 42 68 f6 bd c9 c4 e4 bd fd 33 c6 bd 07 2d 92 bd
       -0.12031604 -0.11170346 -0.09677885 -0.071374945
000390 5f 68 1d bd 1a 2b db bd fc 14 dc bd f0 6f 06 bd
       -0.038429614 -0.1070158 -0.1074619 -0.032821596
0003a0 3f b1 d0 bd 4c 78 5a bd 0c aa d4 bd 8a 12 17 bd
       -0.10190057 -0.05333738 -0.10383996 -0.036882915
0003b0 9b b3 a7 bc 29 85 dd bd 83 05 20 bd 15 72 b4 bd
       -0.020471385 -0.10816414 -0.039067756 -0.08810822
0003c0 15 7c ac bc 7e 8c cc bb c0 68 db bd cf 97 a1 3d
       -0.02105526 -0.006242334 -0.10713339 0.07890283
0003d0 d6 71 c7 3d 92 01 e6 3d 3b 3b c3 3d b4 df 86 3d
       0.09738509 0.11230768 0.09532782 0.06585637
0003e0 ef 22 77 3d a5 ed 8d 3d d4 be b6 3c 75 35 25 3d
       0.06033605 0.06930093 0.02230779 0.040334184
0003f0 73 ac 39 bd c9 45 d0 bd 23 41 89 bd 83 00 56 bd
       -0.045330476 -0.101695605 -0.06701877 -0.05224658

base_model.conv3.bias f4 [64]
000000 ff a8 94 bd 0f 73 3d bd 84 cf 8d bc 73 99 7a bd
       -0.07258796 -0.046252307 -0.017310865 -0.061181497
000010 07 25 43 bc 60 e6 7b bd bf 70 32 bd 67 be 8c bd
       -0.0119106835 -0.061499 -0.043564554 -0.06872254
000020 ef 11 a0 bd 98 32 e8 bc 2b e1 58 bd bb 4a 5a bd
       -0.078159206 -0.028344437 -0.052949112 -0.053293925
000030 62 ea cd bd f5 5b 99 bd 41 51 8a bd 8e 81 a8 3d
       -0.100544706 -0.074882425 -0.06753779 0.082278356
000040 ef 9f 91 bd f0 4c 9b bd d0 f1 83 bd 86 68 65 bd
       -0.07110583 -0.07583034 -0.064426064 -0.056007884
000050 56 31 8f bd 9e af b3 bd 30 34 d5 bd 5a 98 62 bd
       -0.06991832 -0.08773731 -0.104103446 -0.055321075
000060 46 1a 98 bd 05 fc 4c bd a4 64 7a bd 23 29 53 3d
       -0.07426886 -0.050045032 -0.061131135 0.051552903
000070 5f 68 89 bd 3f 97 40 bd e9 8b 16 bd ee 20 57 bd
       -0.0670936 -0.04701924 -0.036754522 -0.05252164
000080 01 d4 68 bd ae 3e 67 bd 06 8e 3e bd 34 79 64 bd
       -0.056842808 -0.05645626 -0.046522163 -0.05577965
000090 15 41 81 bd 97 3f 89 bd 7c 9b 3e bc 02 6e c7 bd
       -0.063112415 -0.06701582 -0.01163375 -0.09737779
0000a0 ac 86 b1 bd 34 6f 70 bd 7c b3 86 bd 93 38 0d be
       -0.08668265 -0.0586998 -0.06577203 -0.13791113
0000b0 8b e2 a0 bd 0a cc ba bd 7e b8 72 bd 1b 32 c0 bd
       -0.0785571 -0.091209486 -0.059257977 -0.09384557
0000c0 ea 4a 98 3c 2d d5 95 bd 0c cb ac bd b8 b3 81 bd
       0.01859041 -0.07316051 -0.084371656 -0.06333107
0000d0 29 85 4a bd 46 90 d7 3c 7b 2c 2e bd 00 bc 2c bd
       -0.049443398 0.026313912 -0.04252289 -0.04217148
0000e0 7f a4 89 bd d0 de c0 bd 70 ae 7c bd e4 99 8a bd
       -0.06720828 -0.09417498 -0.061689794 -0.067676336
0000f0 fb e2 8c bd 2c df a0 bd 95 ff 92 bd 05 bd f4 bc
       -0.068792306 -0.07855067 -0.07177655 -0.029875288

base_model.fc.weight f4 [3, 50176]
000000 4b d7 3c 3d 82 ff 30 3d 4a 2c 22 3d bf 34 34 3d
       0.046103757 0.04321242 0.03959302 0.043995615
000010 8d cb 34 3d 9e a0 3f 3d 5b 3a 3a 3d 8a 21 25 3d
       0.044139434 0.046784036 0.04546581 0.04031519
000020 59 3e 39 3d 3d 7d 50 3d 6c f0 39 3d 89 f6 4f 3d
       0.045225475 0.050900687 0.0453953 0.050772224
000030 e5 7a 4a 3d 72 55 50 3d 15 14 53 3d f0 20 89 3d
       0.049433608 0.050862737 0.051532824 0.066957355
000040 8a 05 92 3d c2 dc 4e 3d e6 8e 34 3d ee af 4c 3d
       0.07129963 0.0505035 0.04408159 0.049972467
000050 c3 30 46 3d 62 33 2f 3d 04 20 31 3d ff 62 3a 3d
       0.048386347 0.04277361 0.043243423 0.045504566
000060 53 01 2a 3d ea 0d 2f 3d 38 db 39 3d 2a 0f 89 3d
       0.04150517 0.04273788 0.04537508 0.066923454
000070 40 40 4c 3d 3d 6a 4a 3d 50 72 2b 3d 21 76 3d 3d
       0.04986596 0.049417723 0.041857064 0.046255235
000080 af b4 21 3d 90 90 37 3d f9 30 49 3d 38 c4 36 3d
       0.039478954 0.0448156 0.04911897 0.044620723
000090 5d b7 3a 3d 91 81 4a 3d e4 5e 8f 3d 87 f3 94 3d
       0.045585025 0.04943997 0.07000521 0.07273012
0000a0 99 92 91 3d 40 1c 98 3d 07 de 95 3d 6b 51 8c 3d
       0.071080394 0.07427263 0.07317739 0.06851467
0000b0 03 bd 8b 3d 1e 54 99 3d 32 51 96 3d ef 27 8f 3d
       0.068231605 0.07486747 0.073397055 0.069900386
0000c0 cd 2e 3c 3d aa 73 49 3d 49 5d 3a 3d 57 f5 4b 3d
       0.04594307 0.04918257 0.04549912 0.04979452
0000d0 0e 86 49 3d 9b 3b 92 3d 55 e4 8e 3d 03 49 9a 3d
       0.04920011 0.07140275 0.06977145 0.07533457
0000e0 1b 4d 43 3d 1b a8 34 3d 16 cf 2b 3d a9 db 2c 3d
       0.047680955 0.04410563 0.04194554 0.04220167
0000f0 3b 89 42 3d 75 13 48 3d b8 3c 37 3d 0e 70 39 3d
       0.047494154 0.04884668 0.04473564 0.04527288
000100 95 0d 5b 3d 6c 5a 44 3d e3 18 46 3d 92 da 54 3d
       0.05347975 0.047937796 0.048363578 0.051966257
000110 45 65 50 3d c2 19 4b 3d 07 21 5d 3d 41 6f 88 3d
       0.05087783 0.04958511 0.053986575 0.06661845
000120 d7 9c 8d 3d 2e 9a 90 3d a4 84 92 3d 48 a8 9e 3d
       0.069146805 0.070606574 0.071542054 0.07746941
000130 49 46 91 3d 35 ab 8b 3d 93 35 88 3d 50 94 47 3d
       0.07093484 0.068197645 0.066508435 0.048725426
000140 94 7d 82 3d e5 19 42 3d 33 17 3b 3d b4 70 91 3d
       0.063716084 0.047387976 0.04567642 0.071015745
000150 a0 d7 61 3d 97 b5 3c 3d e1 62 3c 3d 90 b9 30 3d
       0.055137277 0.046071615 0.045992736 0.043145716
000160 26 f8 3d 3d 89 87 30 3d 11 2a 48 3d 55 6a 4a 3d
       0.04637923 0.043098006 0.048868243 0.049417812
000170 b9 67 45 3d 63 f9 51 3d 47 5e 40 3d 7b f2 55 3d
       0.04819462 0.051263224 0.04696491 0.0522332
000180 e7 ae 53 3d cb 14 4d 3d 87 ac 93 3d 0a 69 8a 3d
       0.05168047 0.050068658 0.07210641 0.06758316
000190 22 11 9c 3d bd 2d 91 3d 38 9e 8c 3d c5 41 93 3d
       0.07620455 0.07088802 0.06866115 0.07190279
0001a0 72 91 95 3d 01 75 8f 3d df 38 3e 3d 18 50 8d 3d
       0.07303132 0.070047386 0.046440955 0.06900042
0001b0 8f 55 8d 3d 86 24 3e 3d c3 d1 2f 3d 3d ba 8d 3d
       0.06901085 0.04642155 0.042924654 0.06920288
0001c0 74 9c 5f 3d e2 6e 2e 3d f7 fe 32 3d 8e f5 42 3d
       0.054592565 0.042586215 0.043700185 0.04759746
0001d0 f3 43 33 3d 45 ae 3a 3d 27 0c 48 3d d2 a2 45 3d
       0.043765973 0.045576353 0.048839714 0.04825098
0001e0 47 96 5a 3d 10 8e 39 3d 18 4e 4b 3d 4f 7a 3f 3d
       0.053365972 0.045301497 0.049635023 0.046747502
0001f0 6e 78 5b 3d ca 05 8b 3d 44 87 95 3d f9 c1 88 3d
       0.053581648 0.067882136 0.073011905 0.06677622
000200 a7 24 9a 3d 6e 42 8c 3d b1 b8 90 3d 24 d5 8d 3d
       0.07526522 0.06848608 0.07066477 0.06925419
000210 c3 5b 92 3d 7b c8 94 3d ff 0a 84 3d 9d d7 45 3d
       0.071464084 0.07264801 0.0644741 0.048301328
000220 57 ea 4c 3d de 77 8f 3d 2f 14 37 3d 97 7a 98 3d
       0.05002817 0.07005285 0.044696983 0.07445257
000230 f4 c5 3e 3d af 07 27 3d 29 d3 29 3d b0 01 46 3d
       0.0465755 0.040778812 0.041461144 0.048341453
000240 70 83 52 3d 11 00 42 3d 05 e2 52 3d 1d c3 49 3d
       0.05139488 0.047363345 0.05148508 0.04925834
000250 87 a7 90 3d f6 92 89 3d 50 69 49 3d 7d 2c 8f 3d
       0.07063203 0.06717484 0.0491727 0.06990907
000260 2b fa 8f 3d 13 51 9a 3d 23 d4 97 3d e3 29 95 3d
       0.07030138 0.07534995 0.07413509 0.0728338
000270 2c 7a 92 3d 9e ec 91 3d 34 52 8f 3d c3 02 95 3d
       0.07152209 0.07125209 0.06998101 0.072759174
000280 68 db 3e 3d 89 66 8a 3d cf fb 84 3d fd de 39 3d
       0.04659596 0.06757838 0.06493341 0.045378674
000290 fb e1 35 3d 9d 6c 80 3d 1f 02 48 3d ce 89 9d 3d
       0.044404965 0.06270716 0.048830148 0.076923
0002a0 38 9b 47 3d 32 35 25 3d f9 8b 37 3d 56 79 51 3d
       0.048732013 0.040333934 0.044811223 0.051141106
0002b0 30 d1 48 3d 92 4f 38 3d 9b 4f 47 3d 2a 78 99 3d
       0.04902762 0.04499776 0.048659902 0.074936226
0002c0 a5 49 9a 3d 64 df 8f 3d 86 fc 8e 3d 16 08 90 3d
       0.07533578 0.0702503 0.06981759 0.07032792
0002d0 8e 2f 92 3d ae fd 5f 3d 19 ea 42 3d 13 1c 8a 3d
       0.071379766 0.054685287 0.047586534 0.06743636
0002e0 5f ef 90 3d c1 93 87 3d e4 1f 98 3d a4 df 8c 3d
       0.070769064 0.06619979 0.07427958 0.068785936
0002f0 01 aa 8f 3d b3 2b 3c 3d dd 97 86 3d 71 65 90 3d
       0.070148475 0.045940112 0.06571934 0.070505984
000300 a1 55 35 3d a8 cf 30 3d 1f d1 2f 3d a4 72 46 3d
       0.044271115 0.043166786 0.042924043 0.048449174
000310 6f c8 5a 3d 5e bb 44 3d fa a2 41 3d 42 5b 4a 3d
       0.053413805 0.04803025 0.047274567 0.049403436
000320 94 fc 50 3d 5a 3e 4b 3d 9c a1 4d 3d 01 d3 93 3d
       0.051022127 0.04962001 0.05020295 0.0721798
000330 8d 0a 5d 3d fa 11 50 3d 23 1b 43 3d f5 00 5b 3d
       0.05396514 0.050798394 0.0476333 0.05346771
000340 26 21 4d 3d 9c aa 50 3d 62 79 4b 3d 50 de 58 3d
       0.05008044 0.050943956 0.049676307 0.05294639
000350 fa 6e 5b 3d 3d be 5c 3d 56 eb 40 3d a6 cf 86 3d
       0.053572632 0.053892363 0.047099434 0.065825745
000360 56 b3 87 3d 28 55 51 3d 2e 72 51 3d 2d 42 33 3d
       0.066260025 0.051106602 0.05113428 0.043764282
000370 c2 ad 33 3d 78 82 3c 3d 5d f3 29 3d 0c 3c 5c 3d
       0.04386688 0.046022862 0.041491855 0.053768203
000380 37 65 96 3d e8 60 4b 3d 3e 5d 3c 3d 17 8b 31 3d
       0.07343524 0.049652964 0.04598736 0.043345537
000390 9d 85 36 3d 94 a2 3a 3d e7 de 3c 3d 21 b4 55 3d
       0.044561017 0.045565203 0.046111014 0.052173737
0003a0 d8 ca 3f 3d 19 9f 3e 3d 60 ad 3e 3d e1 f8 3d 3d
       0.046824306 0.046538446 0.046552062 0.046379928
0003b0 fa ef 3d 3d 77 07 8a 3d eb fc 9b 3d 1e 86 9f 3d
       0.046371438 0.06739705 0.076166 0.07789253
0003c0 dd 73 8e 3d 2d 10 82 3d d5 e7 8a 3d 27 1e 91 3d
       0.06955693 0.063507415 0.067825 0.07085829
0003d0 c9 22 89 3d 57 24 4c 3d 8e 3e 3d 3d bf 3e 37 3d
       0.06696088 0.049839344 0.046202235 0.044737574
0003e0 3e a6 31 3d 7d 27 48 3d be 03 41 3d fa 90 4d 3d
       0.04337143 0.048865784 0.04712271 0.05018709
0003f0 5b dc 94 3d a7 d6 85 3d e0 1c 46 3d 81 31 2e 3d
       0.07268592 0.06535082 0.04836738 0.04252768

base_model.fc.bias f4 [3]
000000 ce 01 c7 bc 7f f2 72 bd e1 1f 92 3d
       -0.024292853 -0.059313294 0.07134987
