face_recognition_custom_model_dict.pt (torch, 498973 bytes, 8 tensors)

base_model.conv1.weight f4 [16, 3, 3, 3]
00000000: 2e1d 56be 3efe 48be d4bb 0c3c e565 59be
00000010: 1814 1cbe be72 89be c80c 01be 6de7 6cbe
00000020: 5009 4fbd 407a 6a3d c4f9 eb3b f7be 72be
00000030: f753 9d3d dbd0 87be c774 2abe 3bf6 ec3c
00000040: 9989 773c fc2a db3c b27a 11be 7382 78be
00000050: 2881 85be ebec 9fbd 816a 82be 462c 46be
00000060: 4e77 4d3d e5d8 c8bd d311 82bb ab11 4fbe
00000070: e6d3 aabc f67d f93d 2611 75bc d355 8abc
00000080: 114e 2ebe 1341 42be 08a7 793d 3c6a 64be
00000090: 8735 80bd db7f 52be a8ea 1bbd e73f 74be
000000a0: 5b00 533c 776d 51bd 7559 35be fdb2 fbbd
000000b0: 51bc 02be a27e 0cbe 9977 cbbd f62a 84bc
000000c0: 0f88 24be 4748 14bb ad14 57be 0fd3 053e
000000d0: 2996 2abe 2385 fe3c 70e4 06be b982 06be
000000e0: 586a e7bc 2187 e0bd 008c 5cbd d270 abbd
000000f0: f474 5cbd dc57 18be 2b33 403e ae4b de3d
00000100: d2cc 8cbd 371b 0f3e d199 afbd 6bfc 20be
00000110: 647c 7c3d b0a0 87bd 2536 143e d41e 54bd
00000120: 1674 20be 6f2c 263e a4f0 303d ec3c 6f3d
00000130: 4878 98bc d4b2 1cbe 74c4 7d3d 0041 083a
00000140: 2e7a 02be 05a4 953d 6f8f 73be a8aa 11be
00000150: 1ad0 adbd f706 46be 76d6 53be eecb c3bd
00000160: 3e3b a3bd 3fa9 ff3d 4ce5 713d 70b3 0c3e
00000170: a7c8 363d 11ff 763b 8323 edbc f022 dbbd
00000180: 589e 4ebe a5d1 45be 9dc6 913d 8975 18be
00000190: d394 e3bd bc43 9f3d 9513 0dbe 6df7 a43d
000001a0: 8fa6 06bd 2005 c03c 6927 c9bd 699e 073e
000001b0: 6978 33be ae0c 4abe 3b4a 053e c16e 1bbe
000001c0: 9c95 253e 5d26 823d d2c3 563d b7b1 3ebd
000001d0: 97e3 6c3c 096e a63c 9580 f3bd 9a14 e23d
000001e0: 4ea7 ab3d 2e38 c8bc 42ed ac3c 6f2c 6fbd
000001f0: b300 d8bd 4e4a 3bbe fd1d dabd 7e39 5dbe
00000200: 4bc0 c3bd 0fee 7b3d 60b2 153e 32e7 5bbe
00000210: 4c58 4dbe 1e3c f03d 1ef7 dcbd 1d90 c0bd
00000220: 9162 d83c b14a 9d3d 92f8 aebc 9daa 3ebd
00000230: 5146 c9bd 88d2 b6bd d13d 87bc 0691 8cbe
00000240: 2f8f 86be 2801 5a3d e644 87be 37a1 ca3c
00000250: 92e5 803d 2482 543d 2434 90bc 562d 61bd
00000260: 6ba4 583c 72fe 173d c98e 92bd 0c8b 5cbe
00000270: 242e 2d3d a453 65bd d82d 203d 0255 53be
00000280: db99 00be 513c 4dbe f673 8ebd 8fbc a93d
00000290: fce2 33bd 62e9 a93d 9a45 793d c885 59be
000002a0: 03a1 d53d 4735 8ebd daeb a53d 98fe 1fbd
000002b0: 30c4 dfbd 4d7a b23d 0ced 5fbe 76fc 92bd
000002c0: 42b5 d1bd 4795 89bd 0cb2 05be 4f93 9e3d
000002d0: 940a abbd 2e5b c43b 5fa4 1c3c 03fe d03d
000002e0: f922 78bb 1d28 87be d3bb 6dbe a8e1 81be
000002f0: f866 85be eaaa 82be 52d6 c8bd 5e15 b23d
00000300: 089a 60be 5601 68bc c43a 3bbe 6e1f 5d3d
00000310: 35a8 f63c 3ebc b4bb a3c3 973d f085 76be
00000320: 1393 84be b20e 46be 090f 67bd b04e 993d
00000330: 3761 013d db1f 10bd 886e 04be 7025 51be
00000340: 1605 c53d 7df6 86be 7eda 68be 435f 953c
00000350: 4449 623d 6a43 36bd b94c c9bd acdb f0bd
00000360: 347e 14bd 744e 22be 9c4c dd3d 85d2 053e
00000370: c797 0abe 70a3 933d e0aa dbbd 562b 4dbe
00000380: 619a e6bc ee0f f6bd 48e5 9b3d 5c26 92bd
00000390: 67ff 00be d077 71be 5140 2c3d 1165 843d
000003a0: c961 12bd 6959 cdbd 5000 17be 4bf8 1fbd
000003b0: f7f2 cc3d 94e5 ebbd 33f8 84bd 14b1 88be
000003c0: f2f9 0cbd 73c5 28be 5cd3 03be c7c0 1dbe
000003d0: c18b f53d e026 973d 05cb 20be a63e d5bd
000003e0: 24ca e239 82b8 82bb 063b 02be bb96 a33c
000003f0: bc07 2dbd 7c81 5b3d 83cc 23be 6108 46be
-0.20909569 -0.19628236 0.008589704 -0.21230276 -0.1524204 -0.26845354 -0.12602532 -0.23135157
-0.05054599 0.057245493 0.0072014052 -0.2370566 0.07682031 -0.26526532 -0.1664611 0.028926006
0.015108489 0.026753895 -0.14206961 -0.24268512 -0.260751 -0.078088604 -0.2547188 -0.19352826
0.050162606 -0.09806994 -0.00396941 -0.20221584 -0.020852994 0.12182228 -0.014957702 -0.016886627
-0.17021967 -0.18970136 0.06095031 -0.2230615 -0.062602095 -0.20556585 -0.038065583 -0.23852502
0.012878503 -0.051129784 -0.17709906 -0.12289999 -0.1276715 -0.13720182 -0.09934921 -0.016133767
-0.16067527 -0.0022626088 -0.21003981 0.13068794 -0.16658844 0.031069344 -0.1317308 -0.13135804
-0.02824895 -0.10963274 -0.053844452 -0.08371128 -0.053822473 -0.14877266 0.18769519 0.108542785
-0.06875004 0.13975225 -0.0857426 -0.1572129 0.061642066 -0.066224456 0.1447378 -0.051787212
-0.15669283 0.16227888 0.043198243 0.05840771 -0.018612042 -0.15302593 0.06195493 0.0005197674
-0.1274192 0.07306675 -0.23785184 -0.14225256 -0.08486958 -0.19338594 -0.20687279 -0.09560381
-0.07970284 0.12483453 0.059056565 0.13740325 0.04462495 0.0037688653 -0.028947597 -0.10700023
-0.20177591 -0.19318254 0.071179606 -0.14888586 -0.1111237 0.07776591 -0.13777001 0.08055005
-0.032873686 0.023439944 -0.0982197 0.13244022 -0.17526402 -0.197314 0.13016598 -0.15178968
0.16170353 0.063549735 0.052432843 -0.0465562 0.0144585585 0.02031614 -0.118897595 0.11039086
0.0838152 -0.024440851 0.021109227 -0.058391985 -0.10547008 -0.18290064 -0.10650251 -0.21603963
-0.09558161 0.061506327 0.14618826 -0.21474913 -0.20053214 0.117302164 -0.10789321 -0.094024874
0.026414188 0.07680262 -0.021358762 -0.04654943 -0.09827865 -0.089268744 -0.016508969 -0.27454394
-0.26281115 0.05322376 -0.26419753 0.024735076 0.06293787 0.051881924 -0.017602988 -0.054974876
0.013222794 0.037107892 -0.0715614 -0.21537417 0.04228033 -0.05598797 0.03910622 -0.20637897
-0.12558691 -0.2004254 -0.069557115 0.08287918 -0.04391764 0.08296467 0.060857393 -0.2124244
0.10431101 -0.069437556 0.08101626 -0.03906116 -0.10926092 0.08714733 -0.2186777 -0.07177059
-0.1023965 -0.067179255 -0.130562 0.07742941 -0.08351627 0.005992315 0.0095606735 0.10204699
-0.0037862642 -0.26397792 -0.2321618 -0.25367475 -0.2605512 -0.25521022 -0.09806503 0.08695482
-0.21933758 -0.014160475 -0.18284136 0.05398505 0.030109504 -0.0055156043 0.074103616 -0.2407453
-0.2589346 -0.19341543 -0.056410823 0.074857116 0.031586852 -0.03518663 -0.1293279 -0.20424438
0.09620111 -0.2635993 -0.22739598 0.0182339 0.055245653 -0.044497885 -0.09829087 -0.11760649
-0.03625317 -0.1585024 0.10805628 0.13068588 -0.13534461 0.072089076 -0.10725951 -0.20036063
-0.028149785 -0.12014757 0.07612091 -0.07136223 -0.12597428 -0.23580861 0.042053524 0.064645894
-0.035737786 -0.10026819 -0.14746213 -0.03905515 0.10007279 -0.11518398 -0.06492653 -0.266976
-0.034418054 -0.16481571 -0.12873596 -0.1540557 0.119895466 0.07380462 -0.15702446 -0.1041234
0.00043256686 -0.00398928 -0.12717828 0.019969335 -0.042243704 0.053590283 -0.15995984 -0.19339134

base_model.conv1.bias f4 [16]
00000000: 566d 6bbd 23de 24be f3ce 1ebe 2acc 17be
00000010: 074b c63c e6ba 3bbe 219e 8abe ebe1 cd3d
00000020: cad9 af3c e776 f5bd 3914 e5bc d80d 20be
00000030: 0d94 52be b091 5fbe 87d6 473e 1469 74be
-0.057477318 -0.16100363 -0.15508632 -0.14823976 0.024205698 -0.18333015 -0.27073768 0.10052856
0.021466155 -0.119855694 -0.027963744 -0.15630281 -0.2056429 -0.21832919 0.1951543 -0.23868209

base_model.conv2.weight f4 [32, 16, 3, 3]
00000000: 9cf7 3dbb e4c8 ef3c 71c9 bebd d876 fa3c
00000010: 2704 30bd 8788 febd fe54 09be d74a debd
00000020: 38d2 51bd 4611 f7bc 0280 7d3d 9e91 5b3d
00000030: eb0a a63d 6ead 93bd 1ba3 22bd 3685 683d
00000040: 10a8 ec3c 0b58 5ebd 56ea 7f3d 3855 2ebd
00000050: eb0d a23d e036 88bd 4aec 303d b03c 9bbb
00000060: 9fb9 93bd 5a9d 303d b68b fabc c013 be3a
00000070: ec6a d0bc 749a 98bc ecb7 aebc c23c 193d
00000080: 408c dcbb aa36 693d f0e0 093d 000e 01ba
00000090: 428b 21bd cc09 cdbd ed7c 12be fac8 fbbd
000000a0: d127 00be 2660 0cbe 6fac 61bd f9ba 9cbd
000000b0: 788e 13be 9e4a c7bc 28c3 87bc b042 fcba
000000c0: 53d1 82bd 96d4 97bd d504 d1bc aa3d 0fbe
000000d0: d17e 81bd 3342 c3bc bbf5 38bc e19e 73bd
000000e0: 2edb a4bd afae 20bd 30bf 53bd 68d2 9fbd
000000f0: 0c24 54bb eba7 d33a 3b65 00be dadb 633a
00000100: d889 c6bd e204 84bd 2472 ec3a 9d34 e8bd
00000110: 4361 2bbd ab32 aebd bb62 fabd 6cc1 afbd
00000120: 1354 a3b8 c044 ccbc 3483 f5bd 7988 8e3b
00000130: 5d39 60bd 8be0 babb 1ede 0c3c 568f c5bd
00000140: 292a 2abc b4c0 a9bd 4317 40bd f7db 6abd
00000150: ce81 8dbd c13a 88bd 25c8 0bbe e45c 7ebd
00000160: c375 863c 114a 30bd 4367 24be a17d 8abd
00000170: 18c8 c4bd ef8f 5abd 2779 1cbe f35b 7cbd
00000180: cdc8 0dbe d653 84bd d084 ddbc a398 19bb
00000190: 930d a7bd de0b 1fbc 5d4e 87bd 5666 03be
000001a0: 6b0e 34bd 7d6d 67bd 5626 1abe ab47 02bd
000001b0: 04f3 a53c 4447 6cbc 9829 96bd 0c16 05be
000001c0: 90cd 393c a7e1 d5bd cd8f 42bd 79b4 0abe
000001d0: 6ca5 0dbc 0ac2 eabc 9cc8 5e3c ae47 76bb
000001e0: a7ad 14be 178d 4db9 9359 e3bd 5250 d9bd
000001f0: 3825 bcbc 38ba b5bd bdb7 a73d aec7 3a3d
00000200: cc69 fc3c 4203 bc3c 8197 e63d 5639 20bc
00000210: 2918 de3d 4e99 8b3d 77ef 8fbd ff39 c8bd
00000220: c00f 3bbc 2c04 15be 722c c2bd 0014 13be
00000230: 48f2 ffbd 0b11 62bd f2ee b0bd 41bf 3dbd
00000240: 8366 963c c546 46bd fceb 0a3d 79d4 3abd
00000250: 85c1 123d 9168 02bd 2af4 3fbd 526d b0bc
00000260: d59a e2bd 4d2c 8b3d 8528 9c3d 6c18 96bd
00000270: de25 4bbd 8be2 863d 7c97 ab3c b6cc f6bc
00000280: 3811 2abd 806a 9cbc 7c7d 80bc 2370 9d3d
00000290: 9689 4fbd f803 403c 347f c13c 7b4f 29bd
000002a0: 4042 aabb 88d4 76bc 9f37 823d f637 743d
000002b0: 70bd 83bb 46eb 2ebd 23f6 43bd 4852 11bd
000002c0: 0f0e 943d 69bc 8a3d 40be 873c ba03 9fbd
000002d0: 3d2d 20bd 1e3a a6bd 0ee2 893a b34d 1abb
000002e0: 19c9 c73c fda3 21bd c0b8 72bd f833 38bd
000002f0: 768b 443c 64ed 80bb dab2 e1bc 903f a9bd
00000300: f273 babd 6ea4 2d3c 334a dfbd b0e7 57bd
00000310: 0a01 27bd 376e bbbc 2931 f0bd 723e a9bd
00000320: 5c35 8cbd a70c 98bd e83c 0dbe 9e10 f4bc
00000330: b39c 05be 3d8e b3bd 8c9b 25bd 269f 3dba
00000340: fd06 a5bd ede7 bbbd b8be d3bd 37f5 88bd
00000350: b9d4 e3bd 24f8 3abd b07a e8bc d651 073d
00000360: 448f 7f3b 711a aabd 6058 f8bc e70b 62bd
00000370: 8058 d8bc 8cfd aabd 1536 473c b22d 86bd
00000380: dd19 53bc 6e13 adbc 3d77 0ebd fd24 323d
00000390: 8342 d7bd b69a 203c 4451 2bbd 4f18 17be
000003a0: 8654 65bd c9ee 363c 4901 083a ef60 09be
000003b0: 2c25 eabd e956 b6bc 3108 debd 17b7 7bbd
000003c0: 7b5e d4bd 0589 77bd a661 d9bd a78b 79bd
000003d0: 7c0c 4abd 818d 7abd 61e8 11be fb91 8abc
000003e0: 64d6 813b aa69 14be 4358 cabb ffa3 1ebe
000003f0: 4c03 a13d 3d2a 463d e13f aebd 3bb7 43bc
-0.0028986698 0.029270597 -0.09315766 0.030574247 -0.04297271 -0.12428384 -0.13411328 -0.10854118
-0.05122587 -0.030159604 0.061889656 0.05360567 0.08107551 -0.072108135 -0.03970633 0.056767665
0.028888732 -0.054283183 0.06247934 -0.04256174 0.07912811 -0.066510916 0.043194093 -0.004737459
-0.07213139 0.043118812 -0.030584197 0.0014501736 -0.02544161 -0.018628336 -0.021327935 0.03741146
-0.0067305863 0.056936897 0.033661783 -0.00049230456 -0.039439447 -0.10011634 -0.14305468 -0.122941926
-0.12515189 -0.13708553 -0.055096086 -0.0765285 -0.14409816 -0.024327572 -0.01657255 -0.0019245949
-0.06387582 -0.074135944 -0.025515 -0.13988367 -0.063230164 -0.023835277 -0.011289055 -0.05947769
-0.08049618 -0.03922909 -0.051696002 -0.07803804 -0.0032370118 0.0016148066 -0.12538616 0.0008692123
-0.0969426 -0.06446244 0.0018039388 -0.1133816 -0.041840803 -0.08505758 -0.122258626 -0.08581814
-7.788106e-05 -0.024935126 -0.11987916 0.004349765 -0.054742206 -0.005703037 0.008597879 -0.0964648
-0.010386028 -0.08288708 -0.046897184 -0.05733868 -0.06909524 -0.066518314 -0.13650568 -0.062100306
0.016413575 -0.043039385 -0.16055016 -0.06762243 -0.09608477 -0.053359922 -0.15280591 -0.061611127
-0.1384613 -0.06461303 -0.027040869 -0.0023436926 -0.08156886 -0.009707419 -0.066067435 -0.12832007
-0.043959063 -0.0565009 -0.15053686 -0.03180663 0.02025748 -0.014421288 -0.07332152 -0.12996691
0.011340514 -0.104434304 -0.04750042 -0.13545407 -0.008645397 -0.028656978 0.013597634 -0.0037579346
-0.14519368 -0.00019602884 -0.11101069 -0.10611023 -0.022966966 -0.08873409 0.08189342 0.045600586
0.030812167 0.022950772 0.11259366 -0.009779295 0.10844452 0.0681635 -0.07028096 -0.09776687
-0.011417329 -0.14552373 -0.094811335 -0.14363098 -0.12497383 -0.055192035 -0.08639325 -0.046324972
0.018359428 -0.048407335 0.03391646 -0.045612786 0.035829086 -0.031838004 -0.046863712 -0.021536503
-0.11064688 0.06795559 0.07624916 -0.07328877 -0.04959666 0.065861784 0.020946257 -0.03012691
-0.041520327 -0.019093752 -0.015684836 0.07687404 -0.05066832 0.011719696 0.023620225 -0.041335564
-0.005195886 -0.01506532 0.06358265 0.05962368 -0.0040203854 -0.042704843 -0.047842156 -0.03547886
0.07229244 0.06774218 0.01657021 -0.07764383 -0.039105643 -0.08116554 0.001051964 -0.0023544847
0.024387883 -0.039463032 -0.059258223 -0.044971436 0.011996141 -0.003934549 -0.027551103 -0.08264077
-0.09104146 0.010598285 -0.10902824 -0.05271119 -0.040772475 -0.022879703 -0.117281266 -0.082638636
-0.06846115 -0.07424288 -0.13792765 -0.02979308 -0.13048057 -0.08767364 -0.040431544 -0.0007233493
-0.080579735 -0.09175096 -0.10339111 -0.06687396 -0.11124558 -0.0456468 -0.028378814 0.03303703
0.0038995305 -0.083058245 -0.030315578 -0.055187132 -0.026409388 -0.083491415 0.01215889 -0.065516844
-0.012884584 -0.021127429 -0.034781683 0.043492306 -0.10510733 0.009802511 -0.041825548 -0.14755367
-0.05598881 0.011165329 0.000518818 -0.13415883 -0.11432871 -0.022258239 -0.10841406 -0.061453905
-0.10369583 -0.060433406 -0.10614328 -0.0609242 -0.049328312 -0.061170105 -0.14248802 -0.016915312
0.003962325 -0.14493433 -0.0061750724 -0.15492247 0.07861957 0.048380125 -0.08508278 -0.011945541

base_model.conv2.bias f4 [32]
00000000: 14ec 0fbe 3ce3 8ebd 5527 f9bd 8396 8abd
00000010: 2eed 89bd 20bd 8abd f5e8 f0bc c01e fbba
00000020: 4a12 dabd c5ae 10be 47e4 d5bd 5f0a 10bd
00000030: 1439 ecbd c952 adbd 4f5a 01bd 4379 2ebd
00000040: dfa7 39bd ad3d eabd 15ed 1bb9 3b44 8cbd
00000050: 9f7c a1bb bf5d edbc 1292 23bd 290c fcbc
00000060: c6b9 62bd 92f3 70bd 92de cbbd 46bd eebd
00000070: 717a 35bd 0286 57bd 6bd7 f2bb 4661 34bd
-0.140549 -0.06976935 -0.12165705 -0.06766989 -0.067346916 -0.06774354 -0.029407958 -0.0019158944
-0.106480196 -0.1412917 -0.10443931 -0.03516614 -0.11534324 -0.08463056 -0.031580266 -0.042596113
-0.04532611 -0.11437545 -0.00014870272 -0.068489514 -0.004928186 -0.028975366 -0.039934225 -0.030767517
-0.05535295 -0.058826037 -0.09954561 -0.11657195 -0.044306222 -0.052618034 -0.0074109337 -0.04403808

base_model.conv3.weight f4 [64, 32, 3, 3]
00000000: 938a 403c 6b2b 673d 3cd1 8bbc 9262 dd3d
00000010: cfe1 8f3d 316a 70bc 3c4a e43d 610f cb3d
00000020: b067 3b3c 9343 e33d bc06 a83d 4944 9e3d
00000030: 742c cd3d f1c4 5e3d 6e6f 783d d677 bd3d
00000040: ea85 703d 007c e33d cfa1 3239 4f44 adbd
00000050: af6c 21bd fce2 303c d26b ef3c 8088 c63a
00000060: b0e4 0c3b 7c27 743c 9ec1 47bd 2d9e 9bbd
00000070: b705 f2bd a81a 89bd 80a1 4fbd a96f b6bd
00000080: 16cf 8cbd aa33 15bd 5135 2fbd 1814 74bd
00000090: 4dcb 76bd f692 bebd c6d4 69bd 0dbd 97bc
000000a0: 281b 35bd 315b fcbb e96f 07bd 385e 9dbd
000000b0: bdba 98bd 09ec 1dbd 7ca7 84bd 8b85 4bbd
000000c0: 9d8d f9bd ef59 62bd 62b0 73bd d681 05be
000000d0: 8dd4 88bd 893e 41bd 3dab 40bd 8cc2 ccbd
000000e0: fe86 c13b a92a c2bd b305 2ebc 499e 30bd
000000f0: 1f62 7bbd 7f10 b3bd f066 cb3b cbd7 a0bc
00000100: 0ee8 aabd 4cb6 97bd 2dc4 acbd 827b 9abd
00000110: 34a1 51bd d4f0 c83d 6b29 863d 6757 d33d
00000120: 1ab1 fdbd 37f2 6bbd 54f3 17bd d52a bebd
00000130: d025 33bd 62ed 3bbd 9f76 c8bc c3bd 95bd
00000140: a4be 60bd 3deb 40bc f3ed 88bd 06aa e3bb
00000150: 6f78 8c3b 3cec a3bd 7a66 1bbd 125c 77bd
00000160: 0661 143a 6aff 57bd f998 90bd f8c8 d8bc
00000170: c5e3 8c3d ed08 a7bc 474e d7bd 0a0c f2bd
00000180: 9a97 4c3d b55b 2ebc a7b7 e7bc f99c d1bd
00000190: e406 e7bc 1bb4 f0bd cd3e e4bc 8a23 b2bd
000001a0: 8dd4 eabd c5ff 8fbd 1520 14bd a945 06bd
000001b0: 809f 9bbd edcb 50bd 1bda 2ebd 38fe 74bd
000001c0: 086d 71bd dde0 233c 224f a6bd 1a92 a3bc
000001d0: e92a c4bd e25e b3bd ca6b 01bd 5500 85bd
000001e0: 3bc6 b6bd e6cd 5abd 260e 8dbd 5a3a 2dbd
000001f0: 03e0 8bbc 59bb a5bd a9be 55bc 6582 28bc
00000200: fe1b e4bb fe70 aabd 76cc bcbd 847d 40bd
00000210: 346c 39bd 83e7 1ebd 0908 b9bd 96ed aebc
00000220: 9b0b 703c 617f 513c 045a 6ebd fa28 fdbc
00000230: 2e3e 7cbd 9258 a7bc df28 d33d 24f9 ee3d
00000240: 811a 8abd c78c efbd a374 81bd 45c1 d5bd
00000250: b83f 3abd 0e81 40bc f4ee e5bb 25c1 8cbc
00000260: 63ac 55bd 5141 f23d 044d 98bd c7d5 5a3d
00000270: f530 903c 0c80 19bd b7a8 8e3d 3e75 ad3d
00000280: 8ee5 b2bc 2812 d73d 0b8c f8bd 2bb2 a8bd
00000290: 4808 e7bd 07f7 aabc 6d38 8abd 62d6 f1bd
000002a0: 1880 26bd c47c d0bd 96d2 88bd 6055 18bc
000002b0: fe95 06bc da39 20bb 8e00 3fbd 27c1 52bd
000002c0: e944 49bd 3b65 adbd f0c5 0d3d d70b f73d
000002d0: 4ddd 7bbc 2d87 cbbd d24c fabc f2bb 0c3c
000002e0: d220 bdbd 67b9 51bd 1849 c7bd 6429 88bd
000002f0: ac83 91bd 81c1 c73b caad 74bc 20e9 68bd
00000300: 3eb7 c5bd 3b6a 9dbd bd88 53bd 9715 f3bc
00000310: 1f05 8ebd b8f2 a6bd 881d 95bd bd01 e8bd
00000320: 3525 05bd 8405 cabd 80e9 a2bd 25c3 eabd
00000330: 11a2 8cbd 4605 a9bd 25b9 c0bd 3e54 a0bd
00000340: 4b81 83bd c26a 8fbd ff7f fbbc 9298 77bd
00000350: b072 39bd 12f5 afbd 12eb c0bd 99a8 40bd
00000360: e5db 34bd 673d dcbd d8af 2dbc ee20 21bd
00000370: 9c31 5abd 0579 54bd 4d4f 92bd 2dc2 42bd
00000380: ccab c6bc 533e 5bbd 3cf2 4dbc d7be 12bd
00000390: 9f36 da3d e7bc a33c 00ee c73b 1277 d13c
000003a0: 32ea 083d 112b d0bd acea 18bd f915 13bd
000003b0: 66e8 cfbd 658d fabc 4bda b0bd f8bf 84bc
000003c0: f1a8 6abd 22d4 f5bc d46d bbbd aa54 b13d
000003d0: b1cc b4bc 300b a63d 76ee 9d3d 5fb0 c0bd
000003e0: 7de9 e63d 8498 32bd 42ae ecbd 94f0 6e3d
000003f0: 83d7 33bd c712 3abd e8ab 0dbd 1c6a 213a
0.011751789 0.05643789 -0.017067544 0.108098164 0.070254914 -0.0146737555 0.111469716 0.09915043
0.011438295 0.11096873 0.082044095 0.07727868 0.100182444 0.054387037 0.060653143 0.092513725
0.05872146 0.111076355 0.00017035681 -0.084602945 -0.03941029 0.010796305 0.029226217 0.0015146881
0.0021498613 0.014901992 -0.048768632 -0.07598529 -0.11817496 -0.066945374 -0.050691128 -0.08908016
-0.06875436 -0.036426224 -0.042775456 -0.059589475 -0.060252476 -0.09305374 -0.057087682 -0.018522764
-0.04421535 -0.0077013006 -0.03306571 -0.076839864 -0.074574925 -0.03855518 -0.064772576 -0.049687903
-0.12185214 -0.05526155 -0.059494384 -0.1303781 -0.06681166 -0.04717878 -0.047038306 -0.09998044
0.005905985 -0.09480793 -0.010621476 -0.043119702 -0.061372872 -0.08743381 0.0062073395 -0.019634148
-0.08345042 -0.07407817 -0.08435855 -0.075430885 -0.051179126 0.09811559 0.065508686 0.10319405
-0.12387295 -0.05760404 -0.03709729 -0.09285513 -0.043737233 -0.045880683 -0.024470625 -0.07311585
-0.05486931 -0.011774835 -0.0668601 -0.0069477586 0.0042868177 -0.080040425 -0.037939526 -0.06039054
0.00056602096 -0.052733816 -0.07060427 -0.026463017 0.06879381 -0.020389998 -0.10512977 -0.118187025
0.049949266 -0.010641982 -0.028285814 -0.10235018 -0.028201528 -0.117531024 -0.027861977 -0.08698185
-0.11466322 -0.07031206 -0.03616341 -0.032781277 -0.075987816 -0.05097573 -0.04268847 -0.059812754
-0.05894187 0.010002342 -0.08120562 -0.019967128 -0.09578497 -0.08758332 -0.031596936 -0.06494204
-0.08924528 -0.053419016 -0.06887464 -0.042291977 -0.01707459 -0.08092374 -0.013045945 -0.010284995
-0.0069613447 -0.08322333 -0.09218685 -0.0469947 -0.045269206 -0.038795006 -0.09034736 -0.021353524
0.014651204 0.012786717 -0.058191314 -0.030903328 -0.061582737 -0.020427976 0.1031053 0.116686136
-0.067433365 -0.11696773 -0.06321075 -0.10437254 -0.045470923 -0.011749519 -0.007017011 -0.017181942
-0.052166354 0.11828864 -0.074365646 0.05342653 0.01760147 -0.03747563 0.069657736 0.08469628
-0.021837976 0.1050151 -0.12136086 -0.08237108 -0.112808764 -0.020869745 -0.067490436 -0.118084684
-0.040649503 -0.10180047 -0.06680791 -0.009297699 -0.008214472 -0.0024448545 -0.04663139 -0.051453736
-0.049137983 -0.08466574 0.034612596 0.12062805 -0.015372586 -0.09937892 -0.030554209 0.0085897315
-0.092347756 -0.051202204 -0.097307384 -0.0664852 -0.071051925 0.0060960655 -0.014934013 -0.05686295
-0.09654091 -0.076862775 -0.051644076 -0.02967338 -0.069345705 -0.08151764 -0.07281023 -0.113284566
-0.032506187 -0.09864333 -0.07954693 -0.11463002 -0.06866849 -0.08252959 -0.094103135 -0.07828568
-0.06421145 -0.07002784 -0.030700682 -0.060448237 -0.04527539 -0.08591665 -0.09419836 -0.047035787
-0.04415502 -0.10753899 -0.010601006 -0.039338045 -0.053269967 -0.051873226 -0.07144032 -0.04754846
-0.024251841 -0.053526234 -0.01256996 -0.03582653 0.106549494 0.019987537 0.00610137 0.025569472
0.03342647 -0.10164464 -0.037333176 -0.035909627 -0.10151748 -0.030585 -0.08635386 -0.01620482
-0.05729002 -0.03000838 -0.091518074 0.086587265 -0.02207026 0.081076026 0.077114984 -0.0940864
0.11275003 -0.04360248 -0.115566745 0.058334902 -0.0439067 -0.045428064 -0.03458777 0.0006157474

base_model.conv3.bias f4 [64]
00000000: 55a6 1abd 4c2c fcbc 0079 3ebd 659c 82bd
00000010: 2be3 bcba 72af 6cbe 336c b0bd 9b5c b2bd
00000020: 2c1a a0bd 414f 29bd 6466 a0bd 7fa0 89bd
00000030: 18f9 85bd e950 bfbd baca 1dbc 34b4 d2bc
00000040: 26b7 f2bc b847 20bd 7332 12bc 7e34 04bd
00000050: f622 d8bd deaa 90bd 4d1b 54bc 9c31 aebb
00000060: 618f 9fbc 9560 debd 7365 82bd a57c cebd
00000070: df6a e2bd c013 08bd 9897 a1bd 650c 8e3d
00000080: 9045 55bb 0e6c b5bd acc0 d7bd c3fc bfbd
00000090: 79c7 9ebb 6502 83bb 220c 69bd 3f51 d23d
000000a0: 509c 49bd a016 103e 909a a9bc c42d 6fbe
000000b0: bcba a1bd f149 57bd 00fd cabb 13de 95bd
000000c0: 65fc 0dbd 3d64 8dbd c213 fcbc ac68 1ebd
000000d0: d388 56bd e934 64bc 5c85 23bd 3a0a ecbd
000000e0: d817 c0bd d53c 76bd cc3f b9bb 6c61 89bd
000000f0: 29f3 cfbd f0ca b9bd 3a79 c0bd 91d5 3dbd
-0.037756283 -0.030782841 -0.046502113 -0.06377486 -0.0014410963 -0.23113802 -0.08614387 -0.08709069
-0.07817492 -0.041335348 -0.078320295 -0.06720065 -0.065416515 -0.09341604 -0.009630853 -0.025720693
-0.029628348 -0.039130896 -0.008923161 -0.032276623 -0.10553543 -0.0706384 -0.012945962 -0.0053159725
-0.019477548 -0.10858265 -0.06367006 -0.10082368 -0.1105554 -0.03322196 -0.07890242 0.06935958
-0.0032542683 -0.088585004 -0.10534796 -0.09374382 -0.0048455563 -0.003998088 -0.056896336 0.10269403
-0.049221337 0.14071131 -0.020703584 -0.23357302 -0.07896945 -0.05256075 -0.0061947107 -0.07317748
-0.03466453 -0.069038846 -0.03077114 -0.03867404 -0.05237658 -0.01392863 -0.039922103 -0.11525388
-0.09379548 -0.060116608 -0.005653357 -0.06708035 -0.10153801 -0.090719104 -0.09398122 -0.04634625

base_model.fc.weight f4 [2, 50176]
00000000: 73a5 21bd 8d01 1fbd ad03 1ebd 25f1 32bd
00000010: 283c 29bd e051 2cbd ac4a 19bd 6ec4 31bd
00000020: 2c2b 31bd efa3 23bd 2c33 2abd fe90 24bd
00000030: 7d78 2ebd 5cdf 27bd 8aea 23bd 535d 16bd
00000040: dbce 15bd ecdb 2fbd c277 20bd 201e 28bd
00000050: 5fed 34bd eb42 12bd d63b 16bd 6308 0cbd
00000060: 94cd 08bd b071 2cbd 0164 1fbd 39ce 58bc
00000070: c886 2abd 2ec2 8dbd f692 86bd 3934 92bd
00000080: 5453 91bd 7387 90bd ac59 84bd c383 92bd
00000090: 193e 92bd a0c9 8cbd 22a2 8dbd dbae 81bd
000000a0: 2b9b 8bbd 7bca 2bbd 1583 3cbd 78e1 89bd
000000b0: cfb9 89bd b66c 8fbd 9865 8ebd becf 92bd
000000c0: d632 8bbd b8ff 8bbd 4fb9 86bd f36b 93bd
000000d0: e077 91bd 8df8 85bd 9964 8fbd 4ea5 a9bc
000000e0: da7c 46bd dc72 94bd 9655 87bd 9471 91bd
000000f0: a9a9 95bd cd7a 94bd e9fa 84bd 8e97 85bd
00000100: 339b 81bd 8447 3ebd f118 34bd 9014 4abd
00000110: 9619 3bbd ee29 39bd e17b 44bd dc62 2dbd
00000120: 91d0 34bd 7c94 30bd 79ee 42bd 3c05 8bbd
00000130: f4a0 88bd 0143 8ebd 3005 8fbd 4435 8abd
00000140: 7d6f 8bbd 930c 85bd bd6e 85bd 812a c1bc
00000150: d987 45bd 0adf 91bd e5a0 86bd 7bbc 8fbd
00000160: 91d7 8bbd db53 96bd d94b 81bd b970 83bd
00000170: abfc 36bd eb65 45bd b208 32bd c2c5 48bd
00000180: 17a7 42bd 571e 40bd 749e 34bd 4606 28bd
00000190: 3591 39bd 6862 2ebd d910 37bd 3dd1 29bd
000001a0: 1bb0 8cbd 6f7b 83bd 06e4 90bd 3b47 8ebd
000001b0: 9154 89bd 8c75 84bd 6fa0 8ebd ce97 c0bc
000001c0: a956 31bd e801 91bd 77e0 97bd 57c0 93bd
000001d0: 7faa 8ebd 93f9 8abd 06cb 90bd b738 8bbd
000001e0: 2e3f 37bd d4b6 27bd 23fe 38bd 197a 2fbd
000001f0: 7112 82bd 0371 30bd 844a 35bd dd79 3dbd
00000200: 9458 2fbd 0958 33bd d90d 37bd 1dc2 32bd
00000210: bcdb 86bd 6922 89bd 1ea3 8abd 7469 88bd
00000220: 2a99 84bd fd91 90bd 60e2 94bd b170 a7bc
00000230: 9d5a 32bd fc67 87bd 6542 86bd 49ba 8dbd
00000240: b31e 99bd 81f6 87bd 7bfa 85bd 4fad 88bd
00000250: dcbc 3ebd 7359 33bd fa37 34bd 10b3 35bd
00000260: 0417 33bd d71a 32bd de3d 2dbd d1d8 40bd
00000270: 6a7b 32bd a641 34bd 641e 26bd 6210 39bd
00000280: d1e8 2cbd 0100 8fbd 6d04 85bd 2b2f 97bd
00000290: 8e20 90bd 341d 83bd 9536 8fbd aa5b dbbc
000002a0: 0ad7 38bd 84a5 90bd 8271 95bd 9a82 96bd
000002b0: 1667 8abd b64a 93bd 5a90 8dbd 1246 8dbd
000002c0: 73e5 8ebd 2733 3abd 0270 33bd db4b 2abd
000002d0: b89d 27bd eb36 2cbd 731f 45bd aab9 39bd
000002e0: 7923 3bbd 96c9 3ebd dda1 7cbd 5f76 3ebd
000002f0: 87d8 84bd 874b 81bd 1318 8abd 15d7 89bd
00000300: e463 8cbd a38e 8cbd b7b8 85bd b2b9 93bc
00000310: 2269 18bd 624d 93bd eca8 8dbd 7e20 85bd
00000320: c227 87bd c827 96bd 3804 8fbd bc8e 82bd
00000330: cd4b 84bd cbaf 85bd 0df0 47bd ab73 30bd
00000340: b5ee 37bd 9fa3 23bd c8f9 33bd 6129 2bbd
00000350: d252 3ebd b805 8dbd e74c 84bd e208 91bd
00000360: 51f1 86bd ffa0 8bbd 751f 87bd a81b 90bd
00000370: 9b81 98bd 25a6 86bd a6a6 93bd f91a b1bc
00000380: 017e 3cbd d719 86bd 73c0 88bd 5954 84bd
00000390: e763 93bd f35f 92bd 8198 84bd 33e5 8fbd
000003a0: 120d 38bd 89b4 86bd 3759 8abd 34d7 2bbd
000003b0: 2e2f 3bbd fa4b 23bd 5a74 2bbd 4c49 26bd
000003c0: 6bf3 88bd 080a 80bd f00c 83bd 10c7 90bd
000003d0: 042a 91bd 4cef 86bd 0fdc 94bd b12d 8cbd
000003e0: fd62 90bd 1f2f 8cbd 6a74 87bd fb3d bdbc
000003f0: fb90 37bd 3346 8ebd a174 95bd 6450 8abd
-0.039464425 -0.03881984 -0.038577724 -0.043687005 -0.041317135 -0.04207027 -0.03742473 -0.04340022
-0.043254063 -0.03995126 -0.041552708 -0.040177338 -0.042595375 -0.040984496 -0.040018596 -0.036710095
-0.036574226 -0.042934343 -0.03917671 -0.041044354 -0.044171687 -0.03570835 -0.036678158 -0.034187686
-0.03339918 -0.04210061 -0.03891373 -0.013232761 -0.041632444 -0.069218025 -0.06570999 -0.07138867
-0.07095972 -0.07057085 -0.06462416 -0.07154038 -0.071407504 -0.068743944 -0.0691569 -0.06332179
-0.06816705 -0.041941147 -0.046023447 -0.06732458 -0.06724893 -0.07003157 -0.06952971 -0.0716853
-0.067968056 -0.06835884 -0.065783136 -0.07198324 -0.071029425 -0.06541548 -0.07001609 -0.020708706
-0.04845891 -0.0724847 -0.06608121 -0.071017414 -0.07307751 -0.07249985 -0.0649317 -0.065230474
-0.0632843 -0.04645492 -0.0439691 -0.049336016 -0.045678698 -0.045206003 -0.047969703 -0.042330608
-0.044144217 -0.043110356 -0.047590706 -0.06788108 -0.06671324 -0.06946374 -0.06983411 -0.06748441
-0.06808374 -0.06496539 -0.06515262 -0.023579838 -0.048225258 -0.071226195 -0.06573657 -0.07018372
-0.068282254 -0.07340213 -0.06313295 -0.064179845 -0.044674557 -0.0481929 -0.043465324 -0.04901672
-0.04752263 -0.046903934 -0.044096425 -0.041021608 -0.045304496 -0.042574316 -0.0446938 -0.04145931
-0.06869527 -0.064200275 -0.07074742 -0.0694718 -0.06705583 -0.06467733 -0.06964194 -0.023509886
-0.043295536 -0.07080442 -0.0741586 -0.0721442 -0.06966113 -0.06785884 -0.07069974 -0.06797927
-0.044737987 -0.040945843 -0.04516424 -0.04284105 -0.06351174 -0.043076526 -0.044260517 -0.046258796
-0.042809084 -0.04378513 -0.04469094 -0.043642152 -0.0658488 -0.06696016 -0.067693934 -0.066607386
-0.06474526 -0.07059095 -0.0726974 -0.020439478 -0.043543447 -0.0661163 -0.065556325 -0.06920297
-0.074765585 -0.06638814 -0.06541916 -0.06673681 -0.04656683 -0.043786477 -0.043998696 -0.04436022
-0.04372312 -0.043482628 -0.04229533 -0.047081772 -0.043574728 -0.04400792 -0.040556327 -0.04518164
-0.04221422 -0.069824226 -0.06494985 -0.073820435 -0.07037459 -0.064020544 -0.069928326 -0.026777107
-0.045126952 -0.070628196 -0.072970405 -0.07349129 -0.06757943 -0.07191984 -0.069122985 -0.068981305
-0.06977358 -0.04545894 -0.04380799 -0.041576248 -0.040921897 -0.04204456 -0.048125695 -0.04534308
-0.045688126 -0.046578966 -0.061677802 -0.046499606 -0.06486612 -0.06313234 -0.06742873 -0.06730477
-0.0685499 -0.06863143 -0.06529372 -0.018032882 -0.037209637 -0.07192494 -0.06916985 -0.06500338
-0.0659938 -0.073318064 -0.069832265 -0.06374881 -0.0645977 -0.065276705 -0.048812915 -0.04307906
-0.044905383 -0.039950963 -0.04393938 -0.04178751 -0.046465702 -0.068858564 -0.064599805 -0.070817724
-0.06588996 -0.06817817 -0.06597797 -0.07036525 -0.07446595 -0.06574658 -0.0720952 -0.021619307
-0.046018604 -0.06547897 -0.06677332 -0.064614005 -0.07196789 -0.07147207 -0.064744 -0.07026138
-0.04493434 -0.06577403 -0.06755298 -0.04195328 -0.04569929 -0.03986738 -0.04185901 -0.040597245
-0.06687053 -0.06251913 -0.06398952 -0.07069218 -0.07088092 -0.06588611 -0.07268535 -0.068446524
-0.070501305 -0.06844925 -0.06614001 -0.023100844 -0.044816 -0.06946983 -0.07297636 -0.067536145

base_model.fc.bias f4 [2]
00000000: f207 4bbe eba8 493e
-0.1982725 0.19693343
