face_recognition_custom_full_model.pt (torch, 708483 bytes, 20 tensors)

weight f4 [16, 3, 3, 3]
0.064326555 0.03913828 0.08198269 -0.03901896 -0.015491078 -0.14495784 -0.16365407 -0.08538011
0.05456322 -0.09690367 -0.10397154 -0.13362882 -0.1754435 -0.19184044 -0.09953049 0.13445216
-0.10759616 -0.07485336 -0.0852843 -0.103058234 -0.13265276 -0.13022196 -0.07699641 -0.02349153
-0.11388803 -0.006654945 0.17853121 -0.22691315 0.040299375 -0.2178868 -0.09768407 -0.13604349
-0.27576476 -0.1708882 -0.19389379 -0.22419088 -0.0036424275 -0.16677807 0.16266388 -0.015455111
-0.16870777 -0.098114334 0.15568312 -0.025356133 0.07829632 0.1592931 -0.065914154 0.1941618
-0.077901796 -0.13352613 0.1442367 -0.11355088 -0.101501964 -0.11172493 0.11566174 0.035104286
0.21186015 -0.104123734 -0.0029339537 0.08626214 -0.053041823 -0.043465074 -0.1520478 0.1234892
0.081113964 -0.02216768 -0.12882341 0.09149597 -0.20647764 0.03611218 0.08523603 -0.11267816
0.11162805 0.08833497 0.069771744 -0.10333382 -0.035936046 -0.03224239 0.0602604 -0.20786104
-0.020703632 0.03854675 0.027779097 -0.11844578 -0.07582036 0.08781074 0.025354017 0.15828131
-0.11463072 0.058905814 -0.027141003 0.017187105 0.0005155813 -0.15653445 0.07536027 0.055921152
-0.17201915 -0.029350815 0.008738348 0.2803805 0.30113456 0.08916548 0.12441607 0.08998232
-0.010230087 0.22971684 0.3000113 0.2686757 -0.25624755 -0.28510153 -0.16412777 -0.2341044
-0.2607624 -0.32693696 -0.24314864 -0.26688224 -0.14194256 0.0051157568 0.18309018 -0.1650809
0.09733406 -0.10191256 0.18167609 -0.15823849 -0.1735567 -0.029552255 0.158628 -0.07779311
0.051755775 -0.091687016 0.1681618 -0.019786026 -0.021741759 -0.09531268 0.13028729 0.29379395
0.18068615 0.18668544 0.27420208 0.119527146 0.1338828 0.28361315 0.051505886 -0.056082245
-0.035449576 0.032928582 0.020221395 0.0775736 0.10630138 -0.039644077 0.05017839 -0.22168748
-0.025304012 0.11559497 0.12734163 -0.16715099 0.16264756 0.0068492102 0.03079241 0.001228266
-0.006079718 -0.11538461 0.17700979 0.07072134 -0.12379673 -0.13573883 0.11870381 0.16002555
0.03916592 0.1775372 -0.0074460623 -0.041488625 0.12274186 0.034037817 0.055736694 0.04566015
0.17280115 0.111205965 0.12607436 0.045748144 -0.080311425 -0.15719649 -0.04682288 -0.19664912
-0.13498391 -0.07525209 0.10940255 -0.22211727 0.08119236 -0.068506375 -0.13395141 -0.07022721
-0.093009494 0.22849956 0.19807577 0.31495658 0.022119112 -0.048087575 -0.09335888 0.10417925
0.058468338 -0.19965094 -0.09016468 -0.022565166 0.22726595 -0.09792605 0.16762786 0.107165225
-0.10495069 -0.12518832 -0.12704456 0.13265426 -0.16342148 0.20329468 0.2493068 -0.09461952
-0.055819817 0.09422845 -0.08262685 0.02094702 -0.06761249 -0.14856945 0.13207978 0.022857666
-0.04264298 0.04398768 -0.14007357 -0.06740555 -0.1823019 -0.18770449 -0.18054307 0.008804297
-0.1193425 -0.012922147 -0.08400374 -0.06836591 -0.115789466 -0.16432357 0.13080207 0.030047342
0.15188305 -0.017792668 0.1300001 -0.035345376 -0.03709584 -0.21434736 0.03614963 0.07442265
-0.063329495 -0.2034226 -0.16868241 0.1305493 -0.10085669 0.05053721 -0.008752817 0.122406356
00000000: a4bd 833d 764f 203d 8ae6 a73d 58d2 1fbd
00000010: 4ace 7dbc d46f 14be ef94 27be c4db aebd
00000020: af7d 5f3d 6e75 c6bd 08ef d4bd fed5 08be
00000030: 76a7 33be d271 44be a4d6 cbbd d4ad 093e
00000040: 605b dcbd b84c 99bd 89a9 aebd 3210 d3bd
00000050: 20d6 07be e858 05be 4bb0 9dbd 4f71 c0bc
00000060: 213e e9bd ba11 dabb e3d0 363e ec5b 68be
00000070: f510 253d b81d 5fbe 960e c8bd fc4e 0bbe
00000080: 0a31 8dbe 51fd 2ebe 188c 46be 4b92 65be
00000090: cbb5 6ebb dfc7 2abe 5c91 263e 6f37 7dbc
000000a0: bbc1 2cbe 2bf0 c8bd 656b 1f3e aab7 cfbc
000000b0: d259 a03d bb1d 233e 00fe 86bd 5ad2 463e
000000c0: fa8a 9fbd 13bb 08be c9b2 133e 5d8d e8bd
000000d0: 43e0 cfbd 0ad0 e4bd 10e0 ec3d 83c9 0f3d
000000e0: def1 583e d33e d5bd 9347 40bb 34aa b03d
000000f0: 6242 59bd 6f08 32bd 6bb2 1bbe e8e7 fc3d
00000100: 141f a63d ff98 b5bc 49ea 03be 3d62 bb3d
00000110: e06e 53be 5eea 133d 3a90 ae3d cfc3 e6bd
00000120: 3f9d e43d f7e8 b43d 7de4 8e3d afa0 d3bd
00000130: ad31 13bd 9910 04bd 9cd3 763d 86d9 54be
00000140: aa9a a9bc 32e3 1d3d fd90 e33c b393 f2bd
00000150: b447 9bbd 1ed6 b33d 3ab3 cf3c 7f14 223e
00000160: 83c3 eabd 3947 713d cf56 debc f9cb 8c3c
00000170: 1328 073a 914a 20be 7c56 9a3d 940d 653d
00000180: ca25 30be 1f71 f0bc 4a2b 0f3c 088e 8f3e
00000190: 4f2e 9a3e 649c b63d dacd fe3d a748 b83d
000001a0: 189c 27bc e43a 6b3e 159b 993e dd8f 893e
000001b0: e132 83be d4f8 91be 1c11 28be 10b9 6fbe
000001c0: a682 85be 4864 a7be f5fb 78be caa4 88be
000001d0: 6459 11be 14a2 a73b fe7b 3b3e f80a 29be
000001e0: 1457 c73d 88b7 d0bd 4c09 3a3e 4509 22be
000001f0: d9b8 31be 9217 f2bc 616f 223e fe51 9fbd
00000200: ddfd 533d 67c6 bbbd 9b32 2c3e 4e16 a2bc
00000210: c61b b2bc 4b33 c3bd 086a 053e 296c 963e
00000220: ca05 393e 782a 3f3e 3764 8c3e a6ca f43d
00000230: 9318 093e be35 913e d6f7 523d 7fb6 65bd
00000240: 9333 11bd 1fe0 063d 57a7 a53c e8de 9e3d
00000250: 8ab4 d93d d461 22bd db87 4d3d 0b02 63be
00000260: 5c4a cfbc 0ebd ec3d d865 023e a129 2bbe
00000270: 158d 263e 576f e03b 5d40 fc3c c5fd a03a
00000280: 5f38 c7bb c44e ecbd 0e42 353e 5ad6 903d
00000290: 2489 fdbd 1fff 0abe fc1a f33d bddd 233e
000002a0: 726c 203d 50cc 353e 19fe f3bb faef 29bd
000002b0: 1660 fb3d 3d6b 0b3d 294c 643d 2306 3b3d
000002c0: c9f2 303e f4bf e33d a319 013e 6862 3b3d
000002d0: 517a a4bd 1ef8 20be 59c9 3fbd 635e 49be
000002e0: 3939 0abe c51d 9abd 720e e03d b672 63be
000002f0: 2e48 a63d 124d 8cbd 8f2a 09be 49d3 8fbd
00000300: c37b bebd cafb 693e 60d4 4a3e fd41 a13e
00000310: 2433 b53c 7af7 44bd f132 bfbd ee5b d53d
00000320: 7f7c 6f3d 4c71 4cbe 42a8 b8bd 95da b8bc
00000330: 68b8 683e 748d c8bd a3a6 2b3e 7179 db3d
00000340: 63f0 d6bd 5e31 00be f817 02be 85d6 073e
00000350: f657 27be 7b2c 503e 484a 7f3e e1c7 c1bd
00000360: 52a3 64bd d8fa c03d 4438 a9bd 1699 ab3c
00000370: 6b78 8abd 9722 18be ec3f 073e 0040 bb3c
00000380: 68aa 2ebd 6d2c 343d 726f 0fbe ec0b 8abd
00000390: 59ad 3abe 9b35 40be 48e0 38be e63f 103c
000003a0: d769 f4bd 6ab7 53bc 270a acbd 6d03 8cbd
000003b0: 0723 edbd 7044 28be faf0 053e d825 f63c
000003c0: 3b87 1b3e eec1 91bc bf1e 053e 50c6 10bd
000003d0: cff1 17bd e07d 5bbe a211 143d e76a 983d
000003e0: e5b2 81bd 044e 50be 15bb 2cbe b7ae 053e
000003f0: f48d cebd 1b00 4f3d fa67 0fbc 2fb0 fa3d

bias f4 [16]
-0.021884128 0.04587835 -0.07672699 0.037258327 0.13640897 0.06639791 -0.11015401 0.21817516
-0.10334346 0.06946292 0.13077721 -0.00314581 0.23566368 -0.19208169 0.119719304 0.11232534
00000000: 5846 b3bc f0ea 3b3d 0a23 9dbd 309c 183d
00000010: cbae 0b3e a1fb 873d 6d98 e1bd 4f69 5f3e
00000020: bca5 d3bd 9342 8e3d 76ea 053e ef29 4ebb
00000030: d251 713e 10b1 44be 652f f53d d40a e63d

weight f4 [16]
0.9919993 1.0632695 1.0869746 1.0060258 1.1123006 0.8447219 0.8968668 0.99023604
1.0207934 0.95800334 0.8904564 0.9978392 0.9311523 1.1213481 1.0216621 0.9116671
00000000: abf3 7d3f 3719 883f fc21 8b3f 74c5 803f
00000010: de5f 8e3f b23f 583f 1099 653f 1c80 7d3f
00000020: 5ca9 823f b53f 753f f3f4 633f 6472 7f3f
00000030: ff5f 6e3f 5688 8f3f d3c5 823f 0463 693f

bias f4 [16]
0.028377242 0.06686496 0.068286546 -0.13742457 0.04559715 -0.052145805 -0.1439281 0.06304593
0.017949713 0.038868297 -0.06224071 0.028830918 0.069358155 0.13565227 -0.04386685 -0.0456715
00000000: 6477 e83c 7ff0 883d d1d9 8b3d 07b9 0cbe
00000010: 14c4 3a3d d796 55bd e361 13be 391e 813d
00000020: 470b 933c 5d34 1f3d 1df0 7ebd d12e ec3c
00000030: a60b 8e3d 6ee8 0a3e baad 33bd 0a12 3bbd

running_mean f4 [16]
-0.6948675 -0.83093 -0.07700355 0.6213231 -1.0164721 0.89166296 0.1629974 0.4568069
-0.5427494 -0.3330961 0.56102 -0.6496428 0.11070213 -0.23553966 0.25325826 0.8679688
00000000: d6e2 31bf d4b7 54bf 0ab4 9dbd 080f 1f3f
00000010: c21b 82bf 0644 643f cae8 263e 98e2 e93e
00000020: a0f1 0abf 928b aabe 029f 0f3f fe4e 26bf
00000030: ccb7 e23d 4f31 71be 11ab 813e 3433 5e3f

running_var f4 [16]
0.13226452 0.1686173 0.0023197052 0.13580653 0.28213337 0.15188782 0.017289627 0.015160735
0.053704996 0.03911186 0.040232223 0.14508285 0.012218008 0.0035995145 0.021284437 0.12251693
00000000: 5a70 073e 03aa 2c3e 3206 183b de10 0b3e
00000010: c973 903e 7b88 1b3e faa2 8d3c bb64 783c
00000020: c5f9 5b3d c233 203d 8bca 243d 9990 143e
00000030: 0a2e 483c d5e5 6b3b b35c ae3c 28ea fa3d

weight f4 [32, 16, 3, 3]
0.018893603 0.11989807 -0.0073894793 -0.12849398 0.013841648 -0.042123195 -0.02613107 -0.05074655
-0.053224742 0.09236546 0.086860724 -0.017612997 0.0070069376 -0.038782638 -0.010532852 -0.09328297
-0.06979145 -0.054989956 -0.13778548 -0.02252136 -0.07002267 -0.17527145 -0.15598206 -0.09420409
0.10070268 -0.014585644 0.09390223 0.027719278 -0.06765979 -0.07070885 0.012524824 0.049371798
-0.014421542 -0.086508304 0.022382805 -0.03381907 0.00865518 0.045850005 0.085205816 -0.1214573
-0.029357746 -0.055465613 -0.0967765 0.034163527 -0.04603124 0.055672772 -0.08543798 -0.016059203
-0.015028854 0.0292837 -0.06384297 0.0532285 -0.012077757 0.07206347 -0.036592685 -0.0022929043
-0.07679516 -0.04169447 0.044496864 0.0672768 0.055481274 -0.091636896 -0.05735861 0.1377991
0.10759849 0.11636157 0.17731288 0.072171174 0.03721368 0.002671635 -0.08430368 -0.030822614
0.142165 0.054098062 0.01798544 -0.048872042 -0.033309594 -0.024559911 -0.14817479 -0.007370407
-0.14113264 -0.013798359 -0.038690567 -0.028508184 0.036237657 -0.058307465 -0.048585292 -0.08330107
-0.031249342 0.05216359 0.0009157957 0.016157268 -0.09917279 -0.026110742 0.045491636 0.002981956
0.09820509 -0.03160269 -0.05742304 -0.039038967 -0.03311262 0.051401433 -0.09662655 -0.11006197
-0.06367151 -0.009222852 -0.13469456 -0.06555032 -0.0749644 -0.089649715 -0.060243893 -0.0012361602
-0.079941645 0.058658116 0.051756226 0.01835743 -0.0031575828 0.066837914 0.1431062 0.08699727
0.13361633 0.092732 -0.003998994 -0.17504828 -0.11284118 -0.16074297 -0.0038910275 -0.074093215
-0.010084718 0.0013816312 -0.07429365 -0.039974615 -0.10523212 -0.04791409 0.038880754 0.00687548
0.032603994 -0.06731848 -0.060498573 -0.023995664 -0.02622694 0.074318096 -0.02339981 0.0649171
-0.09692669 0.0008093564 -0.01845587 0.044831812 0.063553974 -0.0591445 0.09888639 0.077245384
0.13531572 0.04489288 -0.053399548 0.025463674 0.03855769 0.09719171 0.016334983 0.06665061
0.023256266 0.068295 0.043645475 0.10507932 0.017412571 0.0965397 0.101489566 0.085081495
0.14904854 -0.012698532 0.08835804 0.00042341012 0.042927183 0.04176519 0.026328659 0.079363905
0.020334784 0.04068748 0.117682345 0.07734502 0.043324478 0.0070537035 0.046105973 0.009242375
0.08463736 -0.012571618 0.004475318 0.14827894 0.14482822 0.16262335 0.06699827 0.07818599
0.031165846 0.019648626 0.053632423 0.039430927 0.09094783 0.09416754 0.107312724 0.0029574821
0.018816272 -0.030924244 -0.00024126109 -0.099486284 -0.023722643 -0.03331229 -0.0024282513 0.11358871
0.056696083 0.016729737 0.12883382 0.035240408 0.006194486 0.03185367 0.11872159 0.10894538
0.031260826 -0.0038838899 -0.08708683 0.077323794 0.061438426 0.036866445 0.0736951 0.07029225
0.08182389 -0.026729839 -0.08169984 -0.004470582 -0.06371113 0.07252988 -0.05805765 -0.0036890924
0.0701245 0.09194102 0.20854259 0.1865953 0.12150574 0.15157354 0.07491473 0.02729184
0.054965835 0.056130677 0.03924493 -0.036755405 -0.08084859 -0.020961266 0.02165884 0.03984867
-0.058348943 0.051299147 0.08707672 -0.03076183 0.05786568 0.1306248 0.049203057 0.055035733
00000000: c2c6 9a3c 1f8d f53d 7223 f2bb ed93 03be
00000010: 14c8 623c 5f89 2cbd d310 d6bc 9ddb 4fbd
00000020: 3002 5abd 1a2a bd3d 09e4 b13d 2249 90bc
00000030: 749a e53b 8bda 1ebd fc91 2cbc 240b bfbd
00000040: d2ee 8ebd 263d 61bd a317 0dbe b77e b8bc
00000050: 0c68 8fbd 5c7a 33be c3b9 1fbe 13ee c0bd
00000060: 353d ce3d a0f8 6ebc d04f c03d 8a13 e33c
00000070: 3791 8abd cdcf 90bd eb34 4d3c 153a 4a3d
00000080: 5548 6cbc 442b b1bd 255c b73c dd85 0abd
00000090: 75ce 0d3c 37cd 3b3d 6380 ae3d 9bbe f8bd
000000a0: a87f f0bc e92f 63bd c232 c6bd 0eef 0b3d
000000b0: 418b 3cbd 2209 643d 1cfa aebd 978e 83bc
000000c0: 953b 76bc 5fe4 ef3c 1ac0 82bd 2106 5a3d
000000d0: c9e1 45bc 0396 933d 36e2 15bd 8d44 16bb
000000e0: c846 9dbd d2c7 2abd 5842 363d 6bc8 893d
000000f0: 5540 633d 20ac bbbd ddf0 6abd 351b 0d3e
00000100: 995c dc3d fa4e ee3d 8291 353e 7bce 933d
00000110: 5f6d 183d 9916 2f3b 68a7 acbd b57f fcbc
00000120: b493 113e ee95 5d3d 3456 933c 0d2e 48bd
00000130: a46f 08bd de31 c9bc 22bb 17be 7583 f1bb
00000140: 1385 10be 8312 62bc 007a 1ebd ff89 e9bc
00000150: f06d 143d cfd3 6ebd 5f01 47bd c099 aabd
00000160: 9ffe ffbc 7da9 553d 0212 703a 3f5c 843c
00000170: 1b1b cbbd 32e6 d5bc 7055 3a3d eb6c 433b
00000180: c01f c93d d371 01bd 6c34 6bbd 53e7 1fbd
00000190: 19a1 07bd 4f8a 523d 24e4 c5bd 2c68 e1bd
000001a0: 3566 82bd 721b 17bc 5fed 09be 3f3f 86bd
000001b0: ef86 99bd 459a b7bd 4dc2 76bd a706 a2ba
000001c0: 72b8 a3bd 7e43 703d 56fe 533d 5262 963c
000001d0: 73ef 4ebb 51e2 883d 6f8a 123e a02b b23d
000001e0: b8d2 083e 46ea bd3d fe09 83bb db3f 33be
000001f0: 4719 e7bd ce99 24be 9c00 7fbb 2fbe 97bd
00000200: 5f3a 25bc da17 b53a 4527 98bd 6cbc 23bd
00000210: f083 d7bd 9141 44bd 6d41 1f3d b54b e13b
00000220: c48b 053d 45de 89bd 5acd 77bd 8e92 c4bc
00000230: e1d9 d6bc 1634 983d f5b0 bfbc 42f3 843d
00000240: 8081 c6bd fd2a 543a c430 97bc 90a1 373d
00000250: 9628 823d 8141 72bd f384 ca3d d432 9e3d
00000260: 3490 0a3e 99e1 373d 7cb9 5abd 3299 d03c
00000270: abee 1d3d 720c c73d f1d0 853c 1d80 883d
00000280: ed83 be3c 40de 8b3d 99c5 323d d433 d73d
00000290: cfa4 8e3c 9bb6 c53d c3d9 cf3d 353f ae3d
000002a0: 2ea0 183e 810d 50bc 0ff5 b43d 25fd dd39
000002b0: 6ad4 2f3d fa11 2b3d 33af d73c 8b89 a23d
000002c0: 2295 a63c eaa7 263d 7103 f13d 1167 9e3d
000002d0: 0275 313d c122 e73b 9ed9 3c3d 556d 173c
000002e0: 5a56 ad3d 30f9 4dbc b0a5 923b 6fd6 173e
000002f0: d94d 143e bc86 263e 6436 893d fa1f a03d
00000300: 844f ff3c 28f6 a03c acad 5b3d 5382 213d
00000310: db42 ba3d e9da c03d c6c6 db3d 51d2 413b
00000320: 9524 9a3c d754 fdbc 08fb 7cb9 77bf cbbd
00000330: fd55 c2bc 7872 08bd 4c23 1fbb 33a1 e83d
00000340: 273a 683d cd0c 893c 03ed 033e 3f58 103d
00000350: 1dfb ca3b fe78 023d 4e24 f33d c11e df3d
00000360: 5a0b 003d dc88 7ebb 945a b2bd f05b 9e3d
00000370: dca6 7b3d 4501 173d 75ed 963d 62f5 8f3d
00000380: 4993 a73d 89f8 dabc 3f52 a7bd f67d 92bb
00000390: fb7a 82bd 8c8a 943d dccd 6dbd b3c4 71bb
000003a0: 6f9d 8f3d 934b bc3d 308c 553e d712 3f3e
000003b0: 00d8 f83d 1836 1b3e e56c 993d 2393 df3c
000003c0: db23 613d 48e9 653d 4bbf 203d d68c 16bd
000003d0: f293 a5bd f6b6 abbc e16d b13c 5c38 233d
000003e0: 4dff 6ebd 0e1f 523d 4855 b23d 3c00 fcbc
000003f0: 9004 6d3d 82c2 053e 2589 493d 266d 613d

bias f4 [32]
0.08203232 0.032519322 0.027466217 0.071574755 -0.012770938 -0.034757443 0.058008254 -0.026466595
0.061266616 0.0071981763 -0.010259329 -0.030067133 0.011888216 -0.028339516 0.041853838 0.042590167
-0.07008607 -0.0080070915 -0.06510598 0.06342938 -0.0014623515 0.16109577 -0.047267288 -0.08248948
-0.061300196 -0.0725458 0.0766318 -0.08601098 -0.05588784 0.1545255 -0.034733664 -0.07091848
00000000: 9000 a83d fb32 053d d500 e13c c995 923d
00000010: 323d 51bc d25d 0ebd 109a 6d3d 79d0 d8bc
00000020: b4f2 7a3d aede eb3b bf16 28bc 594f f6bc
00000030: cbc6 423c 4628 e8bc ee6e 2b3d 0773 2e3d
00000040: 4989 8fbd 2d30 03bc 4956 85bd 43e7 813d
00000050: 60ac bfba 4af6 243e 589b 41bd 3ff0 a8bd
00000060: ea15 7bbd e492 94bd 22f1 9c3d 8626 b0bd
00000070: a6ea 64bd ef3b 1e3e e344 0ebd b53d 91bd

weight f4 [32]
1.1388294 0.9765419 1.05614 0.8186292 1.0193009 0.9502006 0.9925816 1.0178657
0.91324556 0.9097994 0.97013307 0.9244262 1.0130942 0.92003447 1.0544574 1.0607297
0.9450677 1.075379 0.9177698 1.0642395 0.96694046 1.0100098 0.9681978 0.94643474
1.1094737 0.98317844 0.96657544 1.0858289 0.89883584 0.97543865 1.0384547 1.0949153
00000000: 29c5 913f a6fe 793f 982f 873f af91 513f
00000010: 7478 823f 5940 733f d419 7e3f 6c49 823f
00000020: 76ca 693f 9de8 683f a45a 783f 32a7 6c3f
00000030: 12ad 813f 6187 6b3f 76f8 863f fec5 873f
00000040: f5ef 713f 05a6 893f f6f2 6a3f 0039 883f
00000050: 6989 773f 0048 813f d0db 773f 8c49 723f
00000060: 3c03 8e3f 95b1 7b3f 7d71 773f 71fc 8a3f
00000070: 1b1a 663f 59b6 793f 15ec 843f 2f26 8c3f

bias f4 [32]
-0.017890085 -0.067212045 -0.10777302 -0.14794514 -0.031721957 -0.15762216 -0.011366048 -0.05191171
-0.056690857 -0.09494526 -0.041279007 -0.11613189 0.05561264 -0.0519132 0.038643967 -0.0912187
-0.13259333 0.025566187 -0.064206384 -0.052202087 -0.06347616 0.014211277 0.0018620496 -0.03929197
-0.08470877 -0.043578655 -0.051698487 0.018891884 -0.11274406 -0.07910236 -0.05865821 -0.09683118
00000000: 3a8e 92bc 78a6 89bd 1ab8 dcbd ee7e 17be
00000010: e2ee 01bd b467 21be a938 3abc 60a1 54bd
00000020: ac34 68bd a972 c2bd 2d14 29bd 8ed6 edbd
00000030: 14ca 633d f0a2 54bd 2349 1e3d dfd0 babd
00000040: 8cc6 07be 2e70 d13c a37e 83bd dbd1 55bd
00000050: caff 81bd 6ad6 683c 0410 f43a 9ef0 20bd
00000060: cb7b adbd 887f 32bd cbc1 53bd 27c3 9a3c
00000070: 5ce6 e6bd 6b00 a2bd 9743 70bd 6d4f c6bd

running_mean f4 [32]
-0.77336276 2.4919598 -0.20383361 -1.4636875 1.6259073 0.65594274 0.18249118 1.5685725
-0.43571037 0.37596756 1.6938967 1.741831 0.1578978 -1.4926593 -0.7794745 -1.0565157
0.09925715 -1.0003334 0.9429809 1.7182957 0.45040324 -1.0906953 -1.2991743 -0.47486556
1.4279732 0.43928567 0.7547288 -0.6730683 -0.6450824 -0.3041438 1.611608 -0.1067586
00000000: 1afb 45bf 457c 1f40 c2b9 50be 1d5a bbbf
00000010: bb1d d03f ddeb 273f f8de 3a3e fcc6 c83f
00000020: 6e15 dfbe d27e c03e 9bd1 d83f 51f4 de3f
00000030: f6af 213e 760f bfbf a48b 47bf e83b 87bf
00000040: 5547 cb3d ed0a 80bf 3267 713f 1df1 db3f
00000050: 419b e63e e79b 8bbf 584b a6bf 9421 f3be
00000060: d3c7 b63f 0dea e03e e835 413f 344e 2cbf
00000070: 1f24 25bf bcb8 9bbe 2c49 ce3f 41a4 dabd

running_var f4 [32]
1.2506561 1.4011637 1.6207336 1.550438 4.8627386 0.40485632 2.5191891 3.3726377
0.89549994 3.2239528 2.052144 1.0895579 0.4475931 2.7222576 1.8879057 0.7945319
1.4505107 1.611092 4.630574 6.7671022 6.3186655 3.6173236 1.7639071 3.2949424
4.2326813 0.9525475 3.4259899 2.229987 4.891321 3.155793 6.844575 0.64807916
00000000: 8015 a03f 5559 b33f 3374 cf3f c174 c63f
00000010: 8e9b 9b40 5449 cf3e 653a 2140 4cd9 5740
00000020: 7c3f 653f 3e55 4e40 5456 0340 a276 8b3f
00000030: ec2a e53e 7839 2e40 e5a6 f13f 7166 4b3f
00000040: 56aa b93f 4338 ce3f aa2d 9440 1a8c d840
00000050: 8232 ca40 3b82 6740 b5c7 e13f 56e0 5240
00000060: 2072 8740 27da 733f 6b43 5b40 1bb8 0e40
00000070: b485 9c40 83f8 4940 c206 db40 84e8 253f

weight f4 [64, 32, 3, 3]
0.10187816 0.0354948 0.025801672 0.06412125 -0.025878202 -0.03259937 0.03146309 0.07543767
0.04562496 0.054945797 0.027788954 0.041807715 0.10003487 0.015956676 0.03904013 0.05211659
0.07669925 0.060772184 0.046190243 -0.065123126 -0.04266872 -0.02802413 0.013611954 0.0050374134
-0.017971337 0.015428055 -0.012611583 0.0056438493 0.009765228 -0.004188543 0.06967528 0.021881169
0.05425103 -0.06774141 0.015471291 -0.032083083 0.10230243 0.08421888 0.029457787 0.09822654
0.061911114 0.08708948 0.052787945 0.06191928 0.049696185 0.09535538 0.03384467 -0.02383493
0.09104242 0.0106015615 0.08370099 0.09413775 0.0017953599 0.019110516 0.07585852 0.052375726
-0.03715781 0.11799126 0.022800388 0.05812158 0.045021214 0.009410145 0.056058757 -0.034833614
0.005277381 -0.006855354 -0.08208989 -0.053939786 -0.007361798 -0.050265018 -0.11634713 -0.104070894
0.036761466 -0.04954716 0.009010973 -0.026154183 -0.0023598368 0.001864989 0.01152139 0.012932407
-0.013969044 -0.046964947 -0.010229871 -0.08390091 -0.08750471 -0.045246482 -0.08846814 -0.03235085
-0.020941792 -0.09221005 -0.03186397 -0.050331347 0.0045729876 -0.037156846 -0.01902859 -0.073385686
0.01889302 -0.0021233931 0.0021917557 -0.0065989844 0.020715015 -0.022348665 0.059275825 -0.0054520653
0.04828359 0.010660631 0.0036337213 -0.054361522 -0.013956317 0.012248885 -0.01785792 0.009723266
-0.0022924081 -0.042400606 -0.0009924545 0.00019640787 0.010983417 0.09279216 0.11079371 0.022658717
0.051614128 -0.054519866 0.022221938 -0.087120146 -0.010689936 -0.0409906 0.049211312 0.11740523
0.068001494 0.109759256 0.03991944 0.01557565 -0.048869275 0.023104507 -0.014406274 0.017275752
0.035738844 -0.01815344 0.045912195 0.013025431 -0.021675609 0.12206586 0.05376205 0.0057428875
-0.055670254 -0.05457231 -0.06979614 0.03724725 0.02608053 -0.022935543 0.045422185 0.08962434
0.023299145 0.10615901 0.13786995 0.1471379 0.11345961 0.07012309 0.065247834 -0.049330175
-0.03389284 -0.07115934 -0.014804649 0.061119515 0.01796507 0.09617945 0.029275356 0.05449891
0.00030722332 0.06801178 0.028754188 0.074968785 0.034323893 0.051037822 0.061176706 0.054718655
0.056100577 0.059194922 0.036296632 0.12071182 0.029662631 0.02226714 -0.042931747 -0.008750851
-0.09905713 -0.014357049 -0.061984867 -0.07275086 -0.09117355 0.05206948 0.05347179 0.05074364
0.043529697 -0.044569954 -0.033714414 -0.049523707 -0.07675495 -0.052860275 -0.015253316 -0.027924353
-0.08277021 -0.11787325 -0.021751702 -0.11808224 -0.02468214 -0.022521282 -0.11035178 0.052959714
0.020318354 0.016421076 -0.011697071 -0.0817503 -0.07219969 -0.012965669 -0.049510337 -0.08375527
-0.039300956 -0.040655274 -0.02049835 -0.024269726 -0.11621048 -0.0959596 -0.0021542907 -0.11855487
-0.017629128 -0.06570976 0.024079766 -0.013758839 0.014636935 0.02433078 0.054018747 0.03032846
0.06467212 0.08920716 -0.001739763 0.029529583 -0.030767117 0.0218639 0.07373155 0.029120551
0.062026292 0.052438065 0.049943518 0.0056663626 -0.011656702 -0.006905212 -0.05364928 -0.012187349
-0.07943667 0.006765259 -0.03445557 -0.05233402 -0.01108716 0.022571595 0.059593312 -0.063028075
00000000: 7fa5 d03d ff62 113d 075e d33c 0052 833d
00000010: 86fe d3bc eb86 05bd 71df 003d 117f 9a3d
00000020: 3de1 3a3d d80e 613d a9a5 e33c 913e 2b3d
00000030: 15df cc3d 93b7 823c 8be8 1f3d 3578 553d
00000040: 7f14 9d3d 41ec 783d fb31 3d3d 465f 85bd
00000050: 65c5 2ebd dc92 e5bc ac04 5f3c e310 a53b
00000060: a038 93bc f4c5 7c3c d0a0 4ebc 0af0 b83b
00000070: 56fe 1f3c 0c40 89bb eab1 8e3d 2340 b33c
00000080: 5436 5e3d 02bc 8abd 4c7b 7d3c 8d69 03bd
00000090: f083 d13d f37a ac3d 7551 f13c ff2a c93d
000000a0: 8296 7d3d f85b b23d 2c38 583d 129f 7d3d
000000b0: 3a8e 4b3d ae49 c33d b5a0 0a3d 7941 c3bc
000000c0: 7374 ba3d 2cb2 2d3c 6d6b ab3d 4bcb c03d
000000d0: 4852 eb3a a88d 9c3c b65b 9b3d ee87 563d
000000e0: ca32 18bd 67a5 f13d e1c7 ba3c e510 6e3d
000000f0: 2a68 383d 022d 1a3c de9d 653d b1ad 0ebd
00000100: e1ed ac3b e1a2 e0bb bf1e a8bd f7ef 5cbd
00000110: 3d3b f1bb b1e2 4dbd 6747 eebd 1f23 d5bd
00000120: 3193 163d f6f1 4abd c3a2 133c 4c41 d6bc
00000130: 7ea7 1abb a672 f43a 36c4 3c3c 72e2 533c
00000140: 6bde 64bc 515e 40bd 309b 27bc 3ed4 abbd
00000150: ab35 b3bd 6054 39bd c92e b5bd 5382 04bd
00000160: 1f8e abbc 9fd8 bcbd cb83 02bd 3e28 4ebd
00000170: 00d9 953b c731 18bd d8e1 9bbc 3c4b 96bd
00000180: 89c5 9a3c a028 0bbb 8fa3 0f3b 4b3c d8bb
00000190: 89b2 a93c 8c14 b7bc 35cb 723d 3da7 b2bb
000001a0: 03c5 453d eda9 2e3c ba23 6e3b 30aa 5ebd
000001b0: 09a9 64bc 8caf 483c c64a 92bc 554e 1f3c
000001c0: 3a3c 16bb 42ac 2dbd 3f15 82ba d6f2 4d39
000001d0: caf3 333c d109 be3d d0e7 e23d c69e b93c
000001e0: 5669 533d 3950 5fbd c80a b63c 0c6c b2bd
000001f0: d724 2fbc c2e5 27bd cd91 493d 2772 f03d
00000200: 5e44 8b3d 76c9 e03d 9182 233d 0331 7f3c
00000210: 262b 48bd aa45 bd3c 4b08 6cbc e185 8d3c
00000220: e562 123d 86b6 94bc 6d0e 3c3d 9e68 553c
00000230: 0c91 b1bc aafd f93d 9835 5c3d d52e bc3b
00000240: 7e06 64bd 3787 5fbd 47f1 8ebd 9390 183d
00000250: d6a6 d53c 52e3 bbbc 9d0c 3a3d f78c b73d
00000260: d9dd be3c e569 d93d c82d 0d3e 51ab 163e
00000270: 835d e83d b29c 8f3d a8a0 853d 700e 4abd
00000280: 38d3 0abd fdbb 91bd 338f 72bc 7558 7a3d
00000290: 7c2b 933c bbf9 c43d dfd2 ef3c 403a 5f3d
000002a0: d112 a139 c349 8b3d e78d eb3c 3c89 993d
000002b0: 3697 0c3d 090d 513d 6d94 7a3d ab20 603d
000002c0: b8c9 653d 6076 723d c7ab 143d c237 f73d
000002d0: 0cff f23c 9469 b63c 33d9 2fbd bb5f 0fbc
000002e0: 77de cabd d439 6bbc d8e3 7dbd 67fe 94bd
000002f0: 33b9 babd cf46 553d 3c05 5b3d 90d8 4f3d
00000300: 324c 323d fc8e 36bd 2018 0abd 5fd9 4abd
00000310: b331 9dbd 0484 58bd 0be9 79bc 9dc1 e4bc
00000320: 6e83 a9bd 8867 f1bd a030 b2bc 1ad5 f1bd
00000330: 3332 cabc 8d7e b8bc 1d00 e2bd 49ec 583d
00000340: ad72 a63c 7e85 863c 12a5 3fbc b46c a7bd
00000350: 6edd 93bd f56d 54bc 5acb 4abd e287 abbd
00000360: 0afa 20bd 2586 26bd 28ec a7bc 4ed1 c6bc
00000370: c3ff edbd 7786 c4bd 002f 0dbb e5cc f2bd
00000380: f66a 90bc d792 86bd ee42 c53c c16c 61bc
00000390: c1cf 6f3c 5851 c73c c342 5d3d 6473 f83c
000003a0: d172 843d 3eb2 b63d c208 e4ba 06e8 f13c
000003b0: 520b fcbc ec1b b33c 9100 973d 398e ee3c
000003c0: 480f 7e3d 4cc9 563d 9391 4c3d e5ac b93b
000003d0: c0fb 3ebc 1e45 e2bb 59bf 5bbd 72ad 47bc
000003e0: b1af a2bd 1baf dd3b 4921 0dbd 335c 56bd
000003f0: eba6 35bc 11e8 b83c 1e18 743d dd14 81bd

bias f4 [64]
-0.041287303 0.016023297 -0.07745866 0.014311827 -0.016901406 -0.007331741 0.09696073 -0.04907746
-0.023349535 -0.026535146 -0.0066403374 0.06834878 0.042601425 0.06376334 0.042944763 -0.021681797
0.057755515 0.014935733 0.013658269 0.02427561 0.047597073 -0.020959517 0.004256667 0.048397567
-0.10340312 0.050270155 0.0865896 0.008273082 0.0035862953 -0.027960815 -0.07435888 -0.030318854
-0.07062007 0.087763615 -0.00010432567 -0.09158349 -0.0020352632 -0.12022607 0.06570657 -0.07823362
0.011587061 -0.03340659 0.00950745 0.023804555 -0.11300237 -0.11388873 0.023237491 0.105888546
0.048581127 0.012362836 0.03049328 -0.15868348 -0.020075044 0.0035873575 -0.038497824 -0.0119138425
-0.066354156 0.13447203 -0.0681878 0.05222404 -0.011286768 0.02945997 0.06381845 0.008128303
00000000: e01c 29bd 4a43 833c a5a2 9ebd 277c 6a3c
00000010: d174 8abc 1a3f f0bb 5993 c63d 7205 49bd
00000020: 8647 bfbc 3c60 d9bc 3097 d9bb 72fa 8b3d
00000030: d57e 2e3d 5b96 823d d9e6 2f3d 069e b1bc
00000040: 0c91 6c3d 01b5 743c efc6 5f3c a5dd c63c
00000050: 26f5 423d 4bb3 abbc 837b 8b3b 873c 463d
00000060: 04c5 d3bd 14e8 4d3d e355 b13d d28b 073c
00000070: 0d08 6b3b 140e e5bc 7849 98bd 3f5f f8bc
00000080: 41a1 90bd 69bd b33d 6bc9 dab8 2090 bbbd
00000090: 0d62 05bb 1639 f6bd 2b91 863d f338 a0bd
000000a0: a8d7 3d3c 59d5 08bd 23c5 1b3c c501 c33c
000000b0: c96d e7bd 7f3e e9bd 8d5c be3c 18dc d83d
000000c0: 01fd 463d 7e8d 4a3c 0bcd f93c ec7d 22be
000000d0: 6b74 a4bc df19 6b3b e5af 1dbd 4732 43bc
000000e0: b0e4 87bd 09b3 093e 0ca6 8bbd e0e8 553d
000000f0: 23ec 38bc 0956 f13c 3fb3 823d 932c 053c

weight f4 [64]
0.8326943 0.7823481 0.89983517 0.8480523 0.9444384 0.9198753 0.9404888 0.83171374
0.86281234 0.87490416 0.86895007 0.83706427 0.8927241 0.8790555 0.87482816 0.90903354
0.78272164 0.9425477 0.9474517 0.817605 0.898805 0.7754272 1.0199492 0.80962986
0.7613143 0.9104422 0.9026506 0.8489217 0.7911819 0.9292889 0.86812454 0.8575779
0.87284523 0.9665256 0.8979614 0.84494644 0.8838342 0.8313238 0.7927869 0.92094016
0.89744294 0.8388882 0.92874664 0.8267627 0.9685207 0.97074753 0.84643114 0.888162
0.9486447 0.8535099 0.83583224 0.80947715 0.8735131 0.76974696 0.8351818 0.87996995
0.8766193 0.8256479 0.9355902 0.827574 0.83796966 0.89229774 0.87784135 0.80191207
00000000: 742b 553f f747 483f 995b 663f f519 593f
00000010: b7c6 713f f37c 6b3f e0c3 703f 31eb 543f
00000020: 45e1 5c3f b8f9 5f3f 8373 5e3f d849 563f
00000030: 9189 643f c809 613f bdf4 5f3f 6cb6 683f
00000040: 7260 483f ce4a 713f 328c 723f 904e 513f
00000050: 1618 663f 6682 463f b28d 823f e743 4f3f
00000060: 7ee5 423f bd12 693f 1c14 673f ef52 593f
00000070: e68a 4a3f e1e5 6d3f 693d 5e3f 3a8a 5b3f
00000080: c972 5f3f 396e 773f cce0 653f 694e 583f
00000090: f542 623f a3d1 543f 15f4 4a3f bcc2 6b3f
000000a0: d2be 653f 61c1 563f 57c2 6d3f b8a6 533f
000000b0: f9f0 773f e982 783f b6af 583f 965e 633f
000000c0: 61da 723f a07f 5a3f 1af9 553f e539 4f3f
000000d0: 8e9e 5f3f 230e 453f 79ce 553f b645 613f
000000e0: 1f6a 603f a95d 533f d782 6f3f e4db 533f
000000f0: 2e85 563f a06d 643f 36ba 603f 1c4a 4d3f

bias f4 [64]
-0.16579401 -0.35676637 -0.23420605 -0.17707336 -0.115833014 -0.10252532 -0.16498369 -0.19211426
-0.1765187 -0.16776122 -0.12168381 -0.17917678 -0.13486844 -0.21985763 -0.16265926 -0.16673326
-0.19588046 -0.110080756 -0.12275694 -0.2075176 -0.10803159 -0.24489886 -0.08695816 -0.21143347
-0.30234098 -0.116275445 -0.13318788 -0.19884102 -0.21339926 -0.1239446 -0.16659012 -0.14611048
-0.18025246 -0.111184 -0.17797187 -0.14197949 -0.15901424 -0.19565228 -0.18615001 -0.11639187
-0.1536849 -0.18912542 -0.20165804 -0.179236 -0.081937686 -0.105999395 -0.20773816 -0.18801458
-0.050913166 -0.23160575 -0.21550673 -0.27453053 -0.18114446 -0.21888651 -0.19616476 -0.1553628
-0.21227357 -0.15433402 -0.13885519 -0.18104744 -0.32019022 -0.15603285 -0.18500222 -0.20158124
00000000: e8c5 29be 15aa b6be b6d3 6fbe b852 35be
00000010: dc39 edbd ccf8 d1bd 7cf1 28be 9ab9 44be
00000020: 51c1 34be 99c9 2bbe 5d35 f9bd 1e7a 37be
00000030: f41a 0abe 5c22 61be 2690 26be 20bc 2abe
00000040: e394 48be 0572 e1bd fe67 fbbd 7e7f 54be
00000050: ab3f ddbd c4c6 7abe 1f17 b2bd 0482 58be
00000060: 70cc 9abe d221 eebd 6762 08be fb9c 4bbe
00000070: 5685 5abe abd6 fdbd 9a96 2abe fc9d 15be
00000080: 1a94 38be 70b4 e3bd 423e 36be 1263 11be
00000090: a1d4 22be 1259 48be 1c9e 3ebe dc5e eebd
000000a0: 935f 1dbe 18aa 41be 727f 4ebe a489 37be
000000b0: f2ce a7bd 3616 d9bd 50b9 54be e586 40be
000000c0: 538a 50bd 0f2a 6dbe ccad 5cbe 448f 8cbe
000000d0: ef7d 39be c923 60be 6adf 48be 6d17 1fbe
000000e0: 3e5e 59be bd09 1ebe 0e30 0ebe 8064 39be
000000f0: f9ef a3be 13c7 1fbe 3971 3dbe 506b 4ebe

running_mean f4 [64]
1.2977 4.3111258 1.0933768 0.067819335 2.0534093 1.2404099 1.3181459 -2.2883942
4.01784 1.8637071 2.8592222 4.1417894 1.8786263 2.6202147 -0.05957295 -0.57791543
2.192508 1.9252476 2.090245 3.0844955 2.0881743 -3.4406393 0.22835869 -0.85466135
4.326313 1.8916153 1.368007 2.6599393 -3.3066068 1.1167623 0.967248 1.1920779
-1.3204399 1.7109802 2.477644 0.067383304 1.8054365 -0.41728538 2.3185866 1.4555476
-4.354985 -3.0734055 2.698104 0.8824707 -1.2891698 -0.53774446 2.6293652 0.6982172
-0.20914751 -1.8288912 3.3233037 2.753579 0.80421174 -3.053556 1.227893 0.38744724
2.6404455 0.8336752 3.0294306 1.1046324 3.323892 -0.04184427 1.4704181 -3.6046867
00000000: 091b a63f bef4 8940 c5f3 8b3f dde4 8a3d
00000010: 0f6b 0340 c0c5 9e3f 01b9 a83f 0d75 12c0
00000020: 2592 8040 f48d ee3f 7ffd 3640 8a89 8440
00000030: d476 f03f 99b1 2740 c402 74bd 44f2 13bf
00000040: 0d52 0c40 836e f63f 93c6 0540 6068 4540
00000050: a6a4 0540 6f33 5cc0 dcd6 693e 16cb 5abf
00000060: 2871 8a40 7320 f23f da1a af3f 723c 2a40
00000070: 729f 53c0 11f2 8e3f 919d 773f 0296 983f
00000080: 2d04 a9bf 6601 db3f b891 1e40 4200 8a3d
00000090: 8b18 e73f 6ea6 d5be b963 1440 624f ba3f
000000a0: 0a5c 8bc0 adb2 44c0 bcad 2c40 9ae9 613f
000000b0: 8403 a5bf 9fa9 09bf 8547 2840 5dbe 323f
000000c0: c42a 56be 1b19 eabf 02b1 5440 a33a 3040
000000d0: d2e0 4d3f 766d 43c0 992b 9d3f 7c5f c63e
000000e0: 0ffd 2840 bd6b 553f 31e2 4140 9864 8d3f
000000f0: a6ba 5440 e664 2bbd a936 bc3f 30b3 66c0

running_var f4 [64]
9.103781 6.539165 2.9866126 12.535485 7.6424503 16.657806 5.7295065 9.748464
7.7111435 5.5143623 6.6411853 7.756525 8.014352 6.651516 16.087204 15.619018
5.320915 19.309607 10.677879 6.1061587 11.606725 5.8110275 18.38208 4.012828
9.4765835 11.020511 4.893482 8.328167 6.59032 4.644336 7.8829036 5.125561
13.804858 17.907654 5.8592877 20.0014 6.124687 3.3581524 5.3156404 4.3969064
9.728823 9.959925 8.536511 6.2473526 15.221495 20.16499 7.0303645 6.432944
7.2372384 7.170437 8.126932 7.7201147 6.11488 5.8490233 7.2004457 6.5914407
6.0398517 5.1018157 7.5018587 4.632367 5.848059 10.411872 3.4987516 7.2921863
00000000: 16a9 1141 d740 d140 a924 3f40 5991 4841
00000010: f48e f440 3043 8541 1e58 b740 b5f9 1b41
00000020: b0c1 f640 a875 b040 9784 d440 7435 f840
00000030: c93a 0041 38d9 d440 98b2 8041 7fe7 7941
00000040: f044 aa40 137a 9a41 98d8 2a41 a765 c340
00000050: 25b5 3941 f0f3 b940 800e 9341 1669 8040
00000060: 16a0 1741 0354 3041 6897 9c40 2c40 0541
00000070: e7e3 d240 679e 9440 bf40 fc40 9904 a440
00000080: b3e0 5c41 e042 8f41 497f bb40 de02 a041
00000090: 70fd c340 f8eb 5640 ba19 aa40 75b3 8c40
000000a0: 42a9 1b41 da5b 1f41 8d95 0841 50ea c740
000000b0: 3e8b 7341 e651 a141 bff8 e040 adda cd40
000000c0: 7597 e740 3874 e540 ea07 0241 2e0b f740
000000d0: 19ad c340 332b bb40 0d6a e640 15ed d240
000000e0: 7746 c140 1342 a340 3a0f f040 5a3c 9440
000000f0: 4d23 bb40 0797 2641 8ceb 5f40 9759 e940

weight f4 [3, 50176]
0.05674705 0.043134775 0.022192566 0.022271805 0.012546911 0.011107943 0.0026815913 0.002699957
0.0138751445 0.016678097 0.021517338 0.0030159783 -0.009446709 -0.011960521 0.002445981 0.022203006
0.014619061 0.007896793 -0.0014641656 -0.0050866744 0.009073669 0.012155647 -0.0029860598 0.0046394677
0.015070466 0.02164049 0.031095905 0.04302908 0.066281274 0.040905487 0.006911576 0.0021132443
-0.012976806 0.008245017 0.032466803 0.052452426 0.071327806 0.064890936 0.03221944 0.015262331
-0.0050064865 0.0034500815 0.032814953 0.05149871 0.039131813 0.04492749 0.05677839 0.03779493
0.03192444 0.036698814 -0.00053536444 -0.01217311 -0.016338192 0.010264046 0.019461473 0.030978458
0.028770942 0.0054437695 -0.027996125 -0.031730153 -0.020623563 0.01488896 0.030848714 0.045965932
0.024988052 0.033087764 0.009304497 -0.0106021045 -0.027535591 -0.04621504 -0.039532825 -0.024223214
0.005456974 0.047948223 0.07256578 0.05600744 0.049117386 0.04342877 0.018974246 -0.0067504724
-0.020169491 -0.034771528 -0.013114487 0.0012089721 0.030694447 0.009709793 -0.027904628 -0.018751226
-0.005580103 0.036745496 0.040700376 0.018632967 0.0036809524 -0.014787297 -0.017068412 -0.019313956
-0.054662153 -0.075328335 -0.08269188 -0.06432119 -0.03788708 -0.01175709 0.048061557 0.050476335
0.051106222 0.054600894 0.019352425 0.010065096 -0.042290702 -0.04239132 -0.0092363255 0.03002703
0.017810572 -0.0011054358 -0.027907081 0.0007871318 0.039412715 0.05339287 0.0379811 0.012558659
-0.02753439 -0.05003678 -0.03623793 -0.009579469 -0.023798505 -0.051376738 -0.037621688 -0.028452083
-0.026686389 0.0023430549 0.0134047065 0.029367648 0.015419168 0.022032358 0.015503442 0.014694494
-0.027592285 -0.04961169 -0.039631017 0.0033366205 0.008910735 -0.013049048 -0.038937915 -0.0025588688
0.042126987 0.050690923 -0.0030536354 -0.026027827 -0.061686236 -0.049823377 -0.024184646 0.0016272856
0.00903838 -0.0009119292 0.0062987017 0.01863935 0.01357395 -0.0002087005 0.019017728 0.023909437
0.018271975 0.0014883095 0.03422734 0.02996732 0.0029157547 -0.024658917 -0.052812908 -0.011352356
0.0199446 -0.025727166 -0.039556567 0.007341878 0.046838585 0.05804987 0.011379314 -0.042525336
-0.04785388 0.010179296 0.0553482 0.050124127 0.019177059 -0.0018343971 0.008253023 0.025634205
0.040584605 0.036143422 0.031796135 0.025446536 0.014024753 0.009313587 0.045608975 0.037887335
0.0043732403 -0.015236985 -0.036384653 0.013722168 0.01743433 -0.024980718 -0.020480605 0.012682956
0.05623373 0.03687538 -0.000843865 0.015985748 0.01215782 0.0124694025 0.018595632 0.042103503
0.041633815 -0.025353616 0.010101124 0.037547432 0.04411429 0.02985971 0.018640118 0.004137942
-0.024116887 -0.026489886 0.016497899 0.046068452 0.02109145 0.0001510231 -0.018312989 0.018955339
0.020337174 -0.0010255025 -0.0025675069 0.022038518 0.03737555 0.026674928 0.0058177155 0.0057643047
-0.0016495187 -0.013714486 -0.00075429154 0.0389875 0.04934377 0.030030752 0.024653759 0.014520606
0.021689124 0.021341922 0.01529669 0.004100234 -0.020104714 -0.020588992 -0.005640968 0.033119053
0.0272252 -0.0010794366 -0.025835255 0.004455249 0.03542075 0.011091136 0.015751958 0.02128591
00000000: 986f 683d 17ae 303d 2fcd b53c 5c73 b63c
00000010: 8f91 4d3c 17fe 353c a3bd 2f3b c3f1 303b
00000020: 9354 633c 81a0 883c 2145 b03c b8a7 453b
00000030: 5fc6 1abc 10f6 43bc c04c 203b 14e3 b53c
00000040: c984 6f3c 8d61 013c 3fe9 bfba 1eae a6bb
00000050: baa9 143c 7b28 473c c5b1 43bb ad06 983b
00000060: 1eea 763c 6647 b13c d7bc fe3c 433f 303d
00000070: 7abe 873d 838c 273d 807a e23b 5b7e 0a3b
00000080: ab9c 54bc 1c16 073c e9fb 043d 5bd8 563d
00000090: 5014 923d 8ae5 843d 88f8 033d db0e 7a3c
000000a0: 740d a4bb c31a 623b f968 063d 50f0 523d
000000b0: ae48 203d e305 383d 7590 683d dbce 1a3d
000000c0: 34c3 023d 7f51 163d b357 0cba b971 47bc
000000d0: acd7 85bc 872a 283c ab6d 9f3c 89c6 fd3c
000000e0: 0ab1 eb3c a661 b23b 2158 e5bc 7af7 01bd
000000f0: bff2 a8bc d3f0 733c 71b6 fc3c c646 3c3d
00000100: beb3 cc3c 0987 073d e471 183c 73b4 2dbc
00000110: 5292 e1bc fb4b 3dbd 2ced 21bd c36f c6bc
00000120: 6ad0 b23b 5b65 443d 5e9d 943d 0f68 653d
00000130: 502f 493d 5ee2 313d e16f 9b3c 1133 ddbb
00000140: 7d3a a5bc 976c 0ebd 25de 56bc 5f76 9e3a
00000150: ec72 fb3c d315 1f3c 3f98 e4bc 2c9c 99bc
00000160: 4cd9 b6bb 7282 163d 70b5 263d 2aa4 983c
00000170: 223c 713b 6b46 72bc 0ed3 8bbc 4d38 9ebc
00000180: 6ce5 5fbd be45 9abd 5c5a a9bd d4ba 83bd
00000190: 7c2f 1bbd cfa0 40bc 32dc 443d 46c0 4e3d
000001a0: c254 513d 30a5 5f3d fa88 9e3c 13e8 243c
000001b0: 0439 2dbd 85a2 2dbd f553 17bc 3ffb f53c
000001c0: 7ae7 913c 45e4 90ba 649d e4bc 8557 4e3a
000001d0: 3a6f 213d 7bb2 5a3d 1292 1b3d d5c2 4d3c
000001e0: cd8f e1bc 5ef3 4cbd 396e 14bd 35f3 1cbc
000001f0: 15f5 c2bc 6a70 52bd 3319 1abd 5814 e9bc
00000200: 6a9d dabc f08d 193b 6a9f 5b3c 6c94 f03c
00000210: aea0 7c3c 347d b43c 2602 7e3c 2dc1 703c
00000220: 3709 e2bc a135 4bbd 2254 22bd 34ab 5a3b
00000230: 55fe 113c adcb 55bc 5d7d 1fbd b2b2 27bb
00000240: 598d 2c3d 49a1 4f3d 801f 48bb 4f38 d5bc
00000250: b5aa 7cbd 9913 4cbd e11e c6bc a54a d53a
00000260: b715 143c 880e 6fba 5765 ce3b 8db1 983c
00000270: 4665 5e3c 9dd6 5ab9 11cb 9b3c b9dd c33c
00000280: 1caf 953c 6113 c33a f831 0c3d 067e f53c
00000290: 3f16 3f3b 7f01 cabc 5952 58bd 3bff 39bc
000002a0: dc62 a33c c7c1 d2bc 1106 22bd 2394 f03b
000002b0: d1d9 3f3d b3c5 6d3d 4d70 3a3c 0c2f 2ebd
000002c0: 6e02 44bd 10c7 263c cbb4 623d f54e 4d3d
000002d0: 3519 9d3c 2770 f0ba b037 073c d3fe d13c
000002e0: 0b3c 263d 200b 143d aa3c 023d 4175 d03c
000002f0: 14c8 653c 0498 183c 7ad0 3a3d c02f 1b3d
00000300: 664d 8f3b 8ca4 79bc 1308 15bd f2d2 603c
00000310: 71d2 8e3c 5da4 ccbc f1c6 a7bc 2ccc 4f3c
00000320: 5755 663d a30a 173d d236 5dba 8bf4 823c
00000330: 9831 473c 774c 4c3c de55 983c b974 2c3d
00000340: 3888 2a3d 63b2 cfbc 2f7f 253c 56cb 193d
00000350: 30b1 343d 5a9c f43c 29b3 983c 9397 873b
00000360: c790 c5bc 5101 d9bc 9a26 873c 46b2 3c3d
00000370: fac7 ac3c f45b 1e39 1f05 96bc 3a48 9b3c
00000380: 259a a63c 276a 86ba 9e43 28bb 1f8a b43c
00000390: 1b17 193d 6185 da3c 89a2 be3b 7ee2 bc3b
000003a0: aa34 d8ba b9b2 60bc a6bb 45ba 5bb1 1f3d
000003b0: b11c 4a3d 0d03 f63c aef6 c93c d6e7 6d3c
000003c0: 64ad b13c 41d5 ae3c f89e 7a3c 415b 863b
000003d0: a4b2 a4bc 3faa a8bc dfd7 b8bb d8a7 073d
000003e0: 6207 df3c e27b 8dba 75a4 d3bc 56fd 913b
000003f0: 5915 113d 99b7 353c 400a 813c ca5f ae3c

bias f4 [3]
0.0078055337 0.0053296676 -0.0046606176
00000000: 90c5 ff3b 7ea4 ae3b 18b8 98bb
