face_recognition_custom_model_dict.pt (torch, 699677 bytes, 8 tensors)

base_model.conv1.weight f4 [16, 3, 3, 3]
0	0x3da2d07b	0.07949921
1	0xbdac6724	-0.0841811
2	0xbdbd45f0	-0.09241855
3	0x3d0feb07	0.03513625
4	0xbdf486cb	-0.11939772
5	0x3d38fa74	0.045160726
6	0x3d1e415a	0.038636543
7	0xbe25ce14	-0.16191894
8	0x3c5bd5dc	0.013417687
9	0x3db0dd95	0.086360134
10	0x3da4e3b5	0.08051244
11	0xbca36121	-0.019943776
12	0xbe1d1c4c	-0.15342826
13	0xbcce723a	-0.025200952
14	0x3d92da13	0.071705006
15	0xbd85e8e8	-0.06538564
16	0x3da01c17	0.07817858
17	0x3e091732	0.13387755
18	0xbdc1e345	-0.09467176
19	0x3bf9826e	0.0076144254
20	0x3daea248	0.085270464
21	0x3cab4a79	0.020909535
22	0x3cb443b0	0.022004932
23	0x3cf969fd	0.030446047
24	0xbe145cd2	-0.14488533
25	0x3cb2d79a	0.021831322
26	0x3e1011b2	0.1406925
27	0x3dc25813	0.09489455
28	0x3d0dd236	0.0346243
29	0xbd589946	-0.052880548
30	0x3c3a415a	0.01136812
31	0xbe302e62	-0.17205194
32	0xbe73b512	-0.23799542
33	0xbe7995cf	-0.24373554
34	0x3de8f872	0.11375512
35	0x3d32f324	0.04368891
36	0xbe57f3ab	-0.21089046
37	0xbb2283ac	-0.002479772
38	0x3d8a032e	0.06738888
39	0x3dea7dac	0.11449751
40	0x3db974a4	0.090554506
41	0x3d9218f5	0.071336664
42	0xbdf93b95	-0.121695675
43	0xbe148445	-0.14503582
44	0x3da463f2	0.080268756
45	0x3d021b31	0.031764213
46	0xbe4461f9	-0.19177999
47	0x3dc66c41	0.096886165
48	0x3c8a9a30	0.016919225
49	0x3cedafe5	0.029014537
50	0xbe493978	-0.19650829
51	0xbca7b66c	-0.020472728
52	0xbe1284c1	-0.14308454
53	0x3d989339	0.074499555
54	0xbd984275	-0.07434551
55	0x3cf1878b	0.029483577
56	0xbc3b94b9	-0.011449032
57	0x3ca3832d	0.01996001
58	0xbde2c105	-0.11071972
59	0x3d45f800	0.048332214
60	0xbe4bf67a	-0.19918242
61	0xbb2e15f7	-0.0026563385
62	0xbe349d98	-0.17638242
63	0xbe6b9f33	-0.23009948
64	0xbe4da5df	-0.20082806
65	0x3dd8177a	0.10551353
66	0x3d2aea81	0.041727547
67	0x3e09bca4	0.13450867
68	0x3ddd2d26	0.10799627
69	0xbe724821	-0.23660327
70	0xbe363a28	-0.17795622
71	0xbd9f32cd	-0.07773361
72	0xbe2b8d78	-0.16753185
73	0x3db2cb26	0.08730154
74	0xbe448dd8	-0.19194734
75	0xbe214320	-0.15748262
76	0xbe6d9865	-0.23202665
77	0xbe1f34e7	-0.15547524
78	0x3dbfa700	0.093580246
79	0x3de3d2fa	0.11124225
80	0x3dbb360a	0.091411665
81	0x3de74ea1	0.11294294
82	0x3e0a9632	0.13533857
83	0xbdae3192	-0.085055485
84	0x3d48d05e	0.04902684
85	0x3e0aa478	0.13539302
86	0x3ce0915d	0.027413065
87	0x3e20a68e	0.15688536
88	0x3d8325e1	0.06403709
89	0x3dab4adf	0.0836389
90	0xbdd80759	-0.105482765
91	0x3d5ce491	0.053928915
92	0xbc865d1a	-0.016401816
93	0xbdac4f92	-0.08413614
94	0xbe16db72	-0.14732149
95	0xbe16b8c7	-0.14718924
96	0xbe3e9be4	-0.18614155
97	0x3db9a8a9	0.090653725
98	0x3dc8701d	0.09787009
99	0xbd733b72	-0.059382863
100	0xbe18b7c1	-0.14913847
101	0x3de2f376	0.11081593
102	0x3daf00aa	0.085450485
103	0xbcc4cd2c	-0.024023615
104	0xbe04bb7d	-0.12962146
105	0x3e0eab3a	0.13932505
106	0x3d26814c	0.04065065
107	0xbe3d09ea	-0.18460813
108	0x3e6ccadd	0.23124261
109	0x3e458227	0.1928793
110	0xbcb6c248	-0.022309437
111	0x3e1de45b	0.15419142
112	0xbd81f0c8	-0.063447535
113	0x3c8b0d77	0.016974194
114	0x3e564f96	0.20928797
115	0x3d5c49d2	0.053781338
116	0xbdb76363	-0.089545034
117	0xbcefd15b	-0.029274633
118	0xbc93a501	-0.018023016
119	0xbae925ae	-0.0017787719
120	0x3d548b09	0.051890407
121	0x3e58055d	0.21095796
122	0x3d3728aa	0.044716515
123	0xbdaf607d	-0.085633256
124	0x3d2f2ca1	0.04276717
125	0x3e00f060	0.12591696
126	0x3e00b440	0.1256876
127	0xbe1626b4	-0.14663202
128	0xbb855895	-0.0040693977
129	0xbdeb06e2	-0.11475922
130	0xbd5f5be9	-0.05453101
131	0x3dc96e6f	0.09835517
132	0xbddf3a59	-0.10899801
133	0x3dca221c	0.09869787
134	0x3e43c91d	0.19119687
135	0x3bd26ab4	0.0064214114
136	0xbe08714b	-0.13324468
137	0xbd9368d4	-0.07197729
138	0x3d2098c3	0.039208185
139	0xbe1979f5	-0.14987929
140	0x3dc2e48b	0.09516247
141	0xbe295482	-0.16536143
142	0xbe34e128	-0.17664015
143	0xbe352d17	-0.17692982
144	0xbd3717b9	-0.044700358
145	0x3dfe70b0	0.12423837
146	0xbe3e63d7	-0.18592773
147	0x3e20c783	0.15701108
148	0xbda5e8f4	-0.08101073
149	0x3d6120d8	0.054962963
150	0x3cb521c3	0.022110825
151	0xbe2594c7	-0.16170035
152	0x3e316496	0.17323527
153	0x3dc92d36	0.098230764
154	0x3e3f13c7	0.18659888
155	0x3dbf6118	0.09344691
156	0xbe05d657	-0.13070045
157	0x3e1ffb67	0.15623246
158	0x3c074e58	0.008258425
159	0x3dc8f620	0.098125696
160	0xbe18ab42	-0.1490908
161	0xbd42ff6e	-0.047606878
162	0xbe239ef7	-0.15978609
163	0xbe241d25	-0.16026743
164	0xbd83665a	-0.064160064
165	0xbdfe16af	-0.1240667
166	0xbca46cc1	-0.02007139
167	0xba5e4093	-0.000847825
168	0x3d686b23	0.0567428
169	0xbe54c0d9	-0.2077669
170	0xbe77a670	-0.24184585
171	0xbd18a4d6	-0.037266575
172	0xbb2f3ea2	-0.0026740213
173	0x3db0fb4f	0.08641683
174	0x3e03915c	0.12848419
175	0xbdd83662	-0.10557248
176	0xbd1018d6	-0.035179935
177	0xbe2de87b	-0.16983216
178	0xbe7cbd9e	-0.24681708
179	0xbb9c7c39	-0.0047755507
180	0xbdb09f0d	-0.086240865
181	0x3cc603e6	0.02417178
182	0xbe75ca55	-0.24002965
183	0xbd9c275e	-0.07624696
184	0xbe651920	-0.22372866
185	0xbb634bff	-0.0034682748
186	0xbb0ad0e6	-0.0021181642
187	0x3dac29b9	0.084063955
188	0x3cb756b0	0.022380203
189	0x3d9d119f	0.076693766
190	0xbcbb794a	-0.022884984
191	0xbdb44368	-0.08801919
192	0xbd9158bd	-0.070970036
193	0xbb41e999	-0.0029588698
194	0x3d8a2d33	0.06746902
195	0xbe278942	-0.16360953
196	0x3e089e80	0.13341713
197	0xbd46f59b	-0.04857407
198	0xbe57e20b	-0.21082322
199	0xbe0807da	-0.13284245
200	0x3dfa63a7	0.122260384
201	0x3e02485a	0.12722912
202	0xbe67bf92	-0.22631672
203	0x3db50a76	0.08839886
204	0x3d44d67a	0.048056103
205	0x3d87d014	0.06631485
206	0x3ded4e79	0.11587233
207	0xbe1f83d8	-0.15577638
208	0x3c1fc075	0.009750475
209	0x3cea19ce	0.028576758
210	0xbddd7a99	-0.10814399
211	0x3c64daf5	0.013968219
212	0xbdd6d88a	-0.1049052
213	0x3d8b7fda	0.06811495
214	0xbdd38d18	-0.10329646
215	0xbdf7c61c	-0.12098333
216	0x3d1bc41e	0.03802883
217	0x3d70d1ad	0.058793712
218	0xbdd550d4	-0.10415807
219	0x3b81f1dd	0.0039656
220	0x3dc921a0	0.098208666
221	0xbd067d22	-0.03283418
222	0x3d2a561b	0.041586023
223	0xbd826368	-0.063666165
224	0x3d4a6c15	0.04941948
225	0xbe1470ce	-0.14496157
226	0xbdf0066a	-0.117199734
227	0xbdd305bf	-0.1030383
228	0x3e2bc692	0.16774967
229	0xbd7c5734	-0.0616066
230	0xbc34d75e	-0.011037676
231	0xbddd3ff5	-0.108032145
232	0x3e3514ca	0.17683712
233	0x3e2f4d95	0.17119439
234	0xbe33ff16	-0.17577776
235	0xbe3d5564	-0.18489605
236	0xbe34ca1e	-0.17655227
237	0xbd0a74a1	-0.033802632
238	0xbda93264	-0.082615644
239	0xbe246489	-0.16053976
240	0xbddb37d8	-0.10704011
241	0xbad44b55	-0.0016196767
242	0xbe0f8ea1	-0.14019252
243	0x3d4d5e79	0.050138924
244	0xbcfd95e2	-0.030955259
245	0xbdb02e9b	-0.08602639
246	0x3d5424c4	0.051792875
247	0x3e3d1644	0.18465525
248	0xbdd3f9f9	-0.10350413
249	0x3d202c05	0.03910448
250	0xbd1f359a	-0.038869478
251	0x3e8160e7	0.25269243
252	0xbe3f137e	-0.1865978
253	0xbe33e3a0	-0.17567301
254	0x3e3ef2a8	0.18647254
255	0xbdc5fc01	-0.096672066

base_model.conv1.bias f4 [16]
0	0xbcaa8da2	-0.020819489
1	0x3d757141	0.05992246
2	0xbdb8085d	-0.0898597
3	0xbcf2b4fe	-0.02962732
4	0xbdff5784	-0.12467864
5	0x3e491d67	0.19640122
6	0xbd093a3d	-0.033502806
7	0xbe2b9414	-0.16755706
8	0x3e002a43	0.12516122
9	0xbdd1e2a5	-0.10248307
10	0xbe09f8c0	-0.13473797
11	0xbd5d87d2	-0.054084606
12	0x3e5f905a	0.2183241
13	0xbdf79f47	-0.120909266
14	0x3e06ebe4	0.13175923
15	0x3de3d96a	0.11125453

base_model.conv2.weight f4 [32, 16, 3, 3]
0	0x3bc2c47f	0.0059438343
1	0xbde490eb	-0.111604534
2	0xbda5d4a2	-0.08097197
3	0xbd9c067e	-0.07618426
4	0xbe0dadbe	-0.13835809
5	0xbd5edf3c	-0.05441211
6	0x3c5e03d2	0.0135507155
7	0xbb16c77b	-0.0023007083
8	0xbd885fe5	-0.066589154
9	0xbd4a09ff	-0.04932594
10	0xbdd4bf05	-0.103879966
11	0xbba5fc30	-0.0050654635
12	0xbdd45320	-0.10367417
13	0xbe019cf2	-0.12657526
14	0xbd665df5	-0.05624195
15	0xbc984975	-0.018589715
16	0xbe131a7f	-0.14365576
17	0x3bcf3b16	0.0063241823
18	0xbc5f039c	-0.0136117
19	0xbc739929	-0.014868059
20	0xbd8e8416	-0.06958787
21	0x3cd7a5d8	0.026324198
22	0xbe0315ba	-0.12801257
23	0xbdb287b2	-0.08717288
24	0xbc8606f5	-0.01636074
25	0xbe07be92	-0.1325629
26	0xbc62735c	-0.013821449
27	0xbb958144	-0.004562529
28	0x3b8d8381	0.004318655
29	0xbdcdcbd4	-0.10048643
30	0x3d0dccbe	0.034619085
31	0xbdc722b8	-0.09723419
32	0x3d0f045f	0.034916278
33	0xbe17562f	-0.1477897
34	0xbe113a68	-0.14182436
35	0xbc8c1031	-0.017097564
36	0xbd248e81	-0.040174965
37	0xbd2d55bc	-0.04231809
38	0xbdbf5e9b	-0.093442164
39	0xbdaa989a	-0.08329888
40	0xbd9219b6	-0.0713381
41	0xbe0443d1	-0.12916495
42	0xbd2f49fd	-0.04279517
43	0xbd027938	-0.031853884
44	0xbd45b4ad	-0.04826801
45	0x3d816723	0.063185
46	0x3de73ee7	0.112912945
47	0x3d64447b	0.05572937
48	0xbde8f7dd	-0.11375401
49	0xbdf04c44	-0.117332965
50	0xbde81082	-0.113312736
51	0xbcde8dd6	-0.027167242
52	0x3c79909b	0.015232231
53	0x3c37aef1	0.011211143
54	0xbb6c4fbd	-0.003605827
55	0xbbcca06f	-0.006244711
56	0x3e18ba33	0.1491478
57	0xbdcb1c1d	-0.099174716
58	0xbc288731	-0.010286138
59	0x3e1a8fa8	0.15093863
60	0x3d2df13d	0.04246639
61	0xbce41ff9	-0.027847277
62	0x3d5a8185	0.053346176
63	0xbd0eb2bd	-0.034838427
64	0xbdaafb36	-0.08348696
65	0xbd97a1a5	-0.07403878
66	0xbcb3a369	-0.021928506
67	0xbdfaf93a	-0.122545674
68	0xbd55199b	-0.052026372
69	0xbce90b13	-0.028447663
70	0xbdc875a8	-0.09788066
71	0x3b508daa	0.003182272
72	0xbc9902df	-0.018678127
73	0x3c95e2f8	0.018296704
74	0x3d785959	0.060632084
75	0xbd5c6ffb	-0.05381773
76	0x3c8504b2	0.01623759
77	0xbd5c1e98	-0.053740114
78	0xbd19a8b5	-0.037514407
79	0xbd277ac1	-0.04088855
80	0xbce9904a	-0.028511185
81	0x3cec82cc	0.028870963
82	0x3da0550d	0.07828722
83	0x3d7dc485	0.061954994
84	0xbbb87ff5	-0.005630488
85	0x3d85db32	0.06535949
86	0x3d973659	0.07383413
87	0x3cd8b793	0.026454723
88	0xbe022146	-0.12708005
89	0xbc905008	-0.017616287
90	0xbd186d6e	-0.037213735
91	0xbdcadbc4	-0.09905198
92	0xbdbf0765	-0.09327582
93	0xbcd09374	-0.025460936
94	0xbda3f06a	-0.0800484
95	0x3c0dd74e	0.00865729
96	0xbd28cafd	-0.04120921
97	0xbd083464	-0.03325309
98	0xbcf9a80c	-0.030475639
99	0xbdadee66	-0.084927365
100	0xbce9dbf8	-0.028547272
101	0xbb8e45e8	-0.0043418296
102	0xbd78c885	-0.060738105
103	0xbd47d587	-0.04878762
104	0xbd814889	-0.06312663
105	0xbbe5a810	-0.00700856
106	0xbdceb28b	-0.10092648
107	0xbde22592	-0.11042322
108	0x3c3fa43d	0.011696872
109	0xbde89c41	-0.11357928
110	0xbd24d09f	-0.04023802
111	0xbdae3fb5	-0.08508245
112	0x3cb98e48	0.022650853
113	0xbde0a4da	-0.10968943
114	0x3cc34efa	0.02384137
115	0x3d68c43f	0.05682778
116	0xbbe658b8	-0.007029619
117	0xbd931cd2	-0.071832314
118	0x3897fee0	7.247715e-05
119	0xbdd3bbb6	-0.103385374
120	0xbd98087f	-0.074234955
121	0xbdf258ba	-0.118333295
122	0xbda320cb	-0.07965239
123	0xbd4cf572	-0.050038762
124	0xbd8dbc4c	-0.069206804
125	0xbdac2352	-0.08405174
126	0xbe0835ee	-0.13301823
127	0xbd3d19d4	-0.04616721
128	0xbd5a88f8	-0.05335328
129	0xbd1e45b8	-0.038640708
130	0x3c43549e	0.01192203
131	0x3ceb4fdf	0.028724609
132	0xbdcd5c85	-0.10027412
133	0xbd9d0e13	-0.076687
134	0xbdd70397	-0.104987316
135	0xbe010bfb	-0.12602226
136	0xbe04ee2b	-0.12981479
137	0x3ce7b9b9	0.028286802
138	0xbb115907	-0.0022178309
139	0xbbd27b52	-0.0064233923
140	0xbbb92560	-0.0056502074
141	0xbdedc868	-0.1161049
142	0xbd7d381c	-0.06182109
143	0x3cd87e62	0.026427452
144	0xbdbc8724	-0.092054635
145	0x3ce7d4d3	0.028299725
146	0xbcc4ac0a	-0.024007816
147	0xbbf2d163	-0.0074102147
148	0xbda7ae8d	-0.0818759
149	0xbbfb676b	-0.0076722405
150	0xbe0dbe8a	-0.13842216
151	0xbd499c7a	-0.049221493
152	0xbc882039	-0.016616927
153	0xbd2777d7	-0.040885773
154	0x3b815e3a	0.0039480003
155	0x3c84a01e	0.016189631
156	0x3c24f883	0.010069015
157	0xbc1fd3c4	-0.009755079
158	0xbbe90e43	-0.007112296
159	0xbd9b705f	-0.075897925
160	0xbe04d2ad	-0.12970991
161	0xbdc49276	-0.09598248
162	0xbd993ac4	-0.07481912
163	0xbdb6a364	-0.08917883
164	0xbb05e73d	-0.0020432018
165	0xbc83b953	-0.01607958
166	0xbd0237db	-0.03179155
167	0xbccf8cd4	-0.025335707
168	0x3db7a20d	0.089664556
169	0xbc588ff0	-0.013217911
170	0xbdefd77a	-0.11711021
171	0xbe011d45	-0.12608822
172	0xbcebc2b6	-0.028779369
173	0xbd5e2133	-0.05423088
174	0xbccbb32a	-0.024865706
175	0xbe18445f	-0.14869832
176	0xbe11eeac	-0.14251202
177	0xbc656a24	-0.014002357
178	0xbc3ea11d	-0.011635092
179	0xbe0fc7eb	-0.14041106
180	0xbc552d5f	-0.013011306
181	0xbde0d364	-0.109778196
182	0x3c92e72e	0.0179325
183	0xbd1e063b	-0.03858016
184	0x3d19ad77	0.037518945
185	0xbe02a2eb	-0.12757461
186	0xbe143b60	-0.14475775
187	0xbc04c276	-0.008103004
188	0x3cf3b7e2	0.029750768
189	0x3df0e5e0	0.11762595
190	0x3df95373	0.1217412
191	0xbb7e46ed	-0.00387996
192	0x3c64d03d	0.0139656635
193	0xbe001598	-0.12508237
194	0xbce72fdf	-0.028221069
195	0x3c3d1267	0.011540032
196	0x3d062929	0.032754097
197	0x3da44101	0.08020211
198	0x3c388fc4	0.011264745
199	0xbd616491	-0.05502755
200	0xbcd543a4	-0.02603323
201	0xbde3b34b	-0.11118182
202	0xbc25f39c	-0.010128882
203	0xbd6f7d42	-0.058469065
204	0xbd98452f	-0.07435071
205	0xbd8eab7a	-0.069663
206	0xbd8f04f4	-0.069833666
207	0xbe0858c2	-0.13315108
208	0xbc84e2a9	-0.016221361
209	0xbcbcc4e5	-0.023043105
210	0xbd619edb	-0.055083137
211	0xbde48095	-0.111573376
212	0xbd1b4165	-0.037904162
213	0xbd83d20c	-0.06436548
214	0xbe027c16	-0.12742648
215	0xbd46a7ac	-0.048499748
216	0x3e10d6cf	0.14144443
217	0xbc8c6c1f	-0.0171414
218	0xbc8ed541	-0.017435672
219	0x3d96a9f3	0.07356634
220	0x3dff5cdc	0.124688834
221	0x3c579dda	0.013160193
222	0x3db0c557	0.086313896
223	0x3e013d23	0.12620978
224	0x3dbbfa61	0.09178615
225	0xbd12365d	-0.035696376
226	0x3cc79217	0.024361653
227	0xbca42ce3	-0.020040935
228	0xbde0dd03	-0.10979655
229	0xbd52fc95	-0.051510412
230	0x3cf9edcc	0.030508898
231	0x3e09b013	0.13446073
232	0xbe1099de	-0.14121196
233	0xbc572ac3	-0.013132754
234	0xbdb9f0e5	-0.0907915
235	0xbe179124	-0.1480146
236	0xbd437609	-0.04771999
237	0xbde5b03d	-0.112152554
238	0xbd5f77ce	-0.054557614
239	0xbdf5fed5	-0.12011496
240	0xbe0731c7	-0.13202582
241	0xbd9c5387	-0.07633119
242	0xbdc541de	-0.09631704
243	0xbc8fa422	-0.01753432
244	0xbd70eca1	-0.058819417
245	0xb96b0946	-0.00022414801
246	0xbd4e10c9	-0.050308976
247	0xbdbdf5ab	-0.09275373
248	0xbc10bcd9	-0.008834087
249	0xbd7e91b3	-0.06215067
250	0xbd4efcc7	-0.050534036
251	0xbdbcedf9	-0.09225077
252	0x3d8404e2	0.06446244
253	0x3d45ab5b	0.04825912
254	0x3d6c2a53	0.05765755
255	0xbd4a4e05	-0.04939081

base_model.conv2.bias f4 [32]
0	0xbd88409e	-0.0665295
1	0xbda6e094	-0.08148304
2	0x3d65d680	0.056112766
3	0xbce03a8e	-0.027371671
4	0x3a959c81	0.001141444
5	0x3bc53faf	0.0060195546
6	0xbd9c08b8	-0.076188505
7	0xbdeac5f8	-0.11463541
8	0x3cacdc70	0.021101207
9	0xbdb6684e	-0.08906613
10	0xbc3e4375	-0.011612763
11	0xbc33e0f1	-0.010978923
12	0x3d5c497e	0.053781025
13	0xbde4924e	-0.11160718
14	0xbe120913	-0.14261274
15	0xbca9d3cd	-0.020730877
16	0xbd1c6f9e	-0.038192384
17	0xbd1ba100	-0.03799534
18	0xbe079d40	-0.1324358
19	0xbd76807f	-0.060181137
20	0x3c800a07	0.015629781
21	0xbd20ee69	-0.039289866
22	0xbc440238	-0.01196342
23	0xba5fb75c	-0.00085340976
24	0xbd95e561	-0.07319141
25	0xbdba434b	-0.09094866
26	0xbdbc2e94	-0.091885716
27	0xbd13fde8	-0.036130816
28	0xbdc2926c	-0.09500584
29	0xbd702405	-0.0586281
30	0xbd4f7de2	-0.05065716
31	0x3c144267	0.009049035

base_model.conv3.weight f4 [64, 32, 3, 3]
0	0x3dc8c7c2	0.09803726
1	0x3dc953a1	0.09830404
2	0x3d88a326	0.06671743
3	0x3dca0494	0.098641545
4	0x3d188931	0.03724021
5	0x3d280022	0.04101575
6	0x3d62647d	0.055271614
7	0x3cf4c974	0.029881217
8	0x3dee8fa4	0.11648491
9	0x3bfb4390	0.007667966
10	0x3d0ab712	0.033865996
11	0xbcbf7822	-0.023372713
12	0x3b180dcb	0.002320158
13	0xbcbd86f2	-0.023135636
14	0xbce7683b	-0.028247943
15	0xbdb12110	-0.08648884
16	0xbd820cdd	-0.0635011
17	0x3bc05f32	0.005870723
18	0xbd4eac42	-0.050457247
19	0x3ca37290	0.019952089
20	0x3a10cf6e	0.00055240735
21	0xbd4bcc0e	-0.04975515
22	0x3caf04f4	0.021364667
23	0x3d08247d	0.033237923
24	0x3d4d200d	0.050079394
25	0x3ca82a8c	0.0205281
26	0x3d5da858	0.054115623
27	0x3d606780	0.054786205
28	0x3d99a17f	0.07501506
29	0x3d8f4455	0.06995455
30	0x3c22090c	0.009889852
31	0x3d264b34	0.040599063
32	0x3c4437a9	0.011976161
33	0x3dc7d4d8	0.097573936
34	0x3da4b15f	0.08041643
35	0x3cdc2d28	0.026877
36	0xbcd5af21	-0.026084485
37	0xbabf8435	-0.0014611544
38	0xbd8a99be	-0.06767605
39	0xbc473c96	-0.012160441
40	0x3c463e70	0.012099847
41	0xbc08419f	-0.008316427
42	0xbc956eda	-0.018241335
43	0x3cb9928d	0.022652889
44	0x3c2806ff	0.010255574
45	0x3c664d51	0.01405652
46	0x3d99fe56	0.07519214
47	0xbc880990	-0.016606122
48	0x3dbc97b8	0.092086256
49	0x3dde6b2f	0.108602874
50	0x3d83eba3	0.064414285
51	0x3cced86e	0.025249686
52	0x3ce9bcbc	0.028532378
53	0x3d066fd4	0.03282149
54	0x3d45258e	0.048131518
55	0x3d0da29a	0.034578897
56	0x3deeeb11	0.11665929
57	0x3d098724	0.033576146
58	0x3daaec4e	0.08345853
59	0x3b728307	0.0037004368
60	0x3db6026b	0.0888718
61	0x3ddf8190	0.10913384
62	0x3c82beed	0.015960181
63	0xbd972bb4	-0.073813826
64	0xbd36e9f6	-0.044656716
65	0x3b21d70b	0.0024694826
66	0xbdc465b9	-0.095897146
67	0xbd19aae5	-0.037516493
68	0x3de9b14b	0.11410769
69	0xbd9c71f1	-0.0763892
70	0xbd739468	-0.059467703
71	0xbded1058	-0.11575383
72	0xbd8634ae	-0.065530166
73	0x3d2f1b10	0.04275042
74	0x3d2c1dc2	0.042020567
75	0xbcdbb385	-0.026819
76	0xbd02a950	-0.03189975
77	0xbc43bc30	-0.011946723
78	0x3c8fa7ea	0.017536122
79	0xbd88d6a3	-0.06681564
80	0xbd2c428b	-0.042055648
81	0x3c83f7a9	0.016109305
82	0x3d08948a	0.033344783
83	0x3d6b4161	0.057435397
84	0x3dcae295	0.09906498
85	0x3d937c42	0.07201435
86	0x3bb9a84c	0.0056658145
87	0x3db9781f	0.090561144
88	0x3ddb5518	0.1070959
89	0x3da04d23	0.07827213
90	0x3a423501	0.0007408411
91	0x3db2a9de	0.08723806
92	0x3de8253b	0.11335226
93	0xbdbe5232	-0.09293021
94	0x3ceba3cf	0.028764633
95	0x3d6c973d	0.05776142
96	0xbd4d3442	-0.050098665
97	0x3cd8e34a	0.026475567
98	0x3c0f9fd3	0.008766132
99	0x3ca49ef1	0.02009532
100	0x3d646aeb	0.055766027
101	0x3deaf4b5	0.114724554
102	0x3dd5330a	0.104101256
103	0x3da7a445	0.08185629
104	0x3ce94bc2	0.028478507
105	0x3d23b459	0.039966915
106	0x3d8da8bb	0.069169484
107	0x3c0d168b	0.008611332
108	0xbda8e821	-0.082474
109	0xbd2c3ab4	-0.04204817
110	0xbd301f64	-0.042998686
111	0xbd6772f4	-0.056506112
112	0xbca6c0ae	-0.020355549
113	0xbda4e545	-0.08051542
114	0xbe01b260	-0.12665701
115	0xbcad2232	-0.02113447
116	0xbd34cfcd	-0.044143487
117	0x3c476780	0.012170672
118	0x3cc410dd	0.023933822
119	0x3db25862	0.08708264
120	0x3cb8ce1d	0.02255922
121	0x3dcace6c	0.09902653
122	0xbdb119b1	-0.08647478
123	0x3d25e280	0.04049921
124	0x3d2ba425	0.041904587
125	0xbb25c33d	-0.0025293373
126	0x3d2002b4	0.039065078
127	0x3d42b3f0	0.047534883
128	0x3dc1c489	0.09461314
129	0x3c9928ca	0.018696208
130	0x3d7078ae	0.05870884
131	0x3c5cabb9	0.013468676
132	0x3b98d9f4	0.004664654
133	0x3d3a8780	0.04553938
134	0x3d86229e	0.065495715
135	0x3db41a29	0.08794052
136	0xbc9385c0	-0.018008113
137	0x3cb17a10	0.02166465
138	0x3d5ecedf	0.054396506
139	0x3d7c4b8c	0.061595485
140	0x3d97d093	0.07412829
141	0xbc4dc456	-0.012559017
142	0x3cadf1be	0.021233436
143	0x3d499588	0.04921487
144	0xbd687902	-0.056756027
145	0x3c9b22e5	0.018937537
146	0xbd8acacb	-0.06776961
147	0x3ce603e2	0.028078023
148	0x3c15d325	0.009144579
149	0xbce3a9ac	-0.027790867
150	0x3c30d877	0.010793797
151	0x3d244346	0.04010322
152	0x3d052fca	0.03251628
153	0x3d280976	0.041024648
154	0xbcef6f0f	-0.029227762
155	0x3cab5468	0.020914271
156	0x3d53eea8	0.051741272
157	0x3c8a7b8f	0.01690462
158	0x3d348736	0.04407426
159	0xbcdff2bc	-0.027337424
160	0x3d4939e9	0.049127493
161	0x3b860176	0.0040895296
162	0x3b3acc96	0.002850329
163	0xbd93541e	-0.071937785
164	0x3ddb5145	0.1070886
165	0xbca8a26e	-0.020585265
166	0x3d0a884b	0.033821385
167	0xbcc11b1e	-0.0235725
168	0xbd033bd0	-0.032039464
169	0x3c274244	0.01020867
170	0x3d126a9d	0.035746206
171	0x3be450f8	0.00696766
172	0xbb6e2ee0	-0.0036343858
173	0x3b5f63e0	0.003408663
174	0xbd34fe29	-0.0441877
175	0xbcfe57da	-0.03104775
176	0x3b413d70	0.0029486082
177	0xbd40eabf	-0.04709887
178	0x3cef176a	0.02918597
179	0x3c1326d4	0.008981425
180	0xbd313022	-0.043258794
181	0xbce50868	-0.02795811
182	0x3ccd7e32	0.025084589
183	0xbaa4d46f	-0.0012575517
184	0x3c1374c5	0.009000008
185	0x3c1d29f2	0.00959252
186	0xbdb4dee2	-0.08831574
187	0xbc6eeed3	-0.014583307
188	0xbda20351	-0.07910789
189	0x3d6227e6	0.05521383
190	0x3c8c6732	0.017139051
191	0x3c91df88	0.017806783
192	0xbd021bd5	-0.031764824
193	0x3dc8e595	0.09809414
194	0x3dd752ce	0.105138406
195	0xbd7d0b6d	-0.061778475
196	0xbd131996	-0.035913073
197	0x3d93730d	0.071996786
198	0x3df7cbf6	0.12099449
199	0x3dcdca44	0.10048345
200	0xbccb2596	-0.024798196
201	0x3d21efd6	0.039535366
202	0x3ccae179	0.024765717
203	0xbd65fdad	-0.056150127
204	0x3d730e5b	0.059339862
205	0x3c948433	0.018129444
206	0xbcd7b951	-0.026333483
207	0xbc5d7565	-0.013516759
208	0xbc35a43a	-0.011086518
209	0xbd94046b	-0.07227405
210	0xbd43e470	-0.047825277
211	0xbcc859fa	-0.024456967
212	0xbde64ba3	-0.11244895
213	0xbcdeacfe	-0.027182098
214	0xbdcb081e	-0.099136576
215	0xbdcfe3d9	-0.1015088
216	0x3d1347fa	0.035957314
217	0x3c9d6d6f	0.019217221
218	0x3c8378a4	0.016048737
219	0x3da6c8cd	0.081437685
220	0x3db2d454	0.087319046
221	0x3db34f5d	0.08755372
222	0x3dd7375f	0.10508608
223	0x3cde9e22	0.027175013
224	0x3c0cf17f	0.008602499
225	0xbdc0d9da	-0.09416552
226	0xbdaa3c8b	-0.08312329
227	0xbd63697a	-0.055520512
228	0x3c19d526	0.009389197
229	0xbb75f002	-0.003752709
230	0xbce476ee	-0.027888741
231	0xbaab43a9	-0.0013066429
232	0xbd8c2081	-0.06842137
233	0xbd0191f7	-0.031633344
234	0xbd655a22	-0.05599416
235	0x3c388c29	0.011263886
236	0x3ccd02ad	0.02502569
237	0xbd747bdb	-0.05968843
238	0x3c1bfe36	0.009521058
239	0xbd2d5695	-0.0423189
240	0x3ce1a34e	0.02754369
241	0x3d2e6afa	0.04258249
242	0xbd7ab126	-0.0612041
243	0xbc68fbde	-0.014220206
244	0xbaa28903	-0.0012400452
245	0x3c374b7b	0.01118743
246	0x3b919117	0.004442345
247	0xbcf8e099	-0.030380534
248	0xbd214147	-0.039368894
249	0xbce3f46a	-0.027826507
250	0xbd9dbd27	-0.077020936
251	0xbd5cde1d	-0.05392276
252	0x3d551cee	0.052029543
253	0xbbcd32cb	-0.0062621585
254	0x3d6741f4	0.056459382
255	0x3d31fb2d	0.04345243

base_model.conv3.bias f4 [64]
0	0xbd464ce8	-0.048413187
1	0xbd332e29	-0.043745194
2	0xbc27fb36	-0.010252764
3	0xbdd612be	-0.104527935
4	0x3d0b3c71	0.03399319
5	0xbd247649	-0.040151868
6	0xbd9a5b4c	-0.07536945
7	0xbd0cc658	-0.034368843
8	0xbd94e94c	-0.0727106
9	0x3c195382	0.009358289
10	0xbd89f352	-0.06735863
11	0xbd1996b1	-0.037497226
12	0xbd99d658	-0.07511586
13	0xbd9cba26	-0.076526925
14	0xbd7eadea	-0.062177576
15	0xbc0d3063	-0.008617493
16	0xbd0b68b4	-0.0340354
17	0x3d0ba451	0.03409225
18	0xbd95dde5	-0.07317714
19	0xbd547fda	-0.05187974
20	0x3b0dac6d	0.0021617666
21	0xbdb4a4dd	-0.08820508
22	0xbde525b3	-0.11188831
23	0x3c98884d	0.01861968
24	0xbd89c56d	-0.06727109
25	0x3d23bbbb	0.039973956
26	0xbd4ee9f3	-0.05051608
27	0x3c97fb8b	0.018552562
28	0xbd6b9035	-0.057510573
29	0xbd128377	-0.035769906
30	0x3cc2e54b	0.023790976
31	0xbd00735b	-0.03136001
32	0x3ced45cd	0.028963948
33	0xbdba2518	-0.09089106
34	0xbd3308bc	-0.0437095
35	0xbca1d89f	-0.019756613
36	0xbd638f6d	-0.055556703
37	0xbd9b5ecf	-0.07586443
38	0xbcf0766e	-0.029353347
39	0xbd92d078	-0.071686685
40	0xbca988e7	-0.020695163
41	0xbd32ae8c	-0.043623492
42	0xbd676bb5	-0.0564992
43	0xbd892ef6	-0.0669841
44	0xbdcaf329	-0.0990966
45	0xbdd2f6ce	-0.103009805
46	0xbd48913f	-0.048966642
47	0xbd820e58	-0.06350392
48	0x3d0b8edf	0.0340718
49	0xbd29e508	-0.041478187
50	0xbc189bdb	-0.009314503
51	0xbd925148	-0.071444094
52	0xbac59024	-0.0015072864
53	0x3d0938c5	0.033501405
54	0xbd8175da	-0.063213065
55	0xbd0e6aac	-0.0347697
56	0xbd5a9b30	-0.053370655
57	0xbda4f8c7	-0.08055263
58	0xbdbcb660	-0.09214473
59	0xbdcaa983	-0.09895613
60	0xbdcd8e8d	-0.10036955
61	0xbdaa7b19	-0.0832426
62	0x3cb41134	0.02198086
63	0xbd6ae14d	-0.05734377

base_model.fc.weight f4 [3, 50176]
0	0x3d60a986	0.05484917
1	0x3d6848d1	0.056710068
2	0x3d58bba3	0.05291332
3	0x3d6e263e	0.05814194
4	0x3d6eb552	0.05827839
5	0x3d7835e1	0.060598258
6	0x3da1b507	0.07895856
7	0x3d96d7c5	0.073653735
8	0x3d9dbca4	0.07701996
9	0x3da81130	0.08206403
10	0x3d9c257b	0.07624336
11	0x3da7184c	0.08158931
12	0x3da4c1f7	0.08044808
13	0x3da960d4	0.082704216
14	0x3daa375a	0.08311339
15	0x3d9f8f5c	0.077910155
16	0x3da7a9fa	0.08186717
17	0x3da41532	0.08011855
18	0x3d99ee11	0.07516111
19	0x3da9955b	0.082804404
20	0x3da32c8a	0.079674795
21	0x3d96e36b	0.07367595
22	0x3d61c64e	0.05512076
23	0x3d9f67fa	0.07783504
24	0x3d5adab6	0.053431235
25	0x3d9830ee	0.074312076
26	0x3d9f5466	0.077797696
27	0x3d9aa77f	0.075514786
28	0x3d664000	0.05621338
29	0x3d7c858b	0.061650794
30	0x3d6009fa	0.054697014
31	0x3d71ea4a	0.059061326
32	0x3d5972ee	0.05308812
33	0x3d6a9cc9	0.05727843
34	0x3da6915e	0.08133195
35	0x3d9887e4	0.07447794
36	0x3d973dd9	0.073848434
37	0x3d9e40be	0.07727192
38	0x3d9f7edb	0.07787868
39	0x3da45bb7	0.08025306
40	0x3da0fada	0.07860346
41	0x3daa1a3b	0.08305784
42	0x3da7e2f6	0.08197586
43	0x3d9e3ae7	0.077260785
44	0x3d9c1d0b	0.07622727
45	0x3da7b3bb	0.08188578
46	0x3da2dac4	0.079518825
47	0x3d9f8b31	0.077902205
48	0x3d9d484f	0.076798074
49	0x3da2355d	0.079203345
50	0x3d99a9e1	0.07503105
51	0x3da417eb	0.080123745
52	0x3da5721d	0.08078406
53	0x3da7d879	0.08195586
54	0x3da3d351	0.0799929
55	0x3da282e2	0.0793512
56	0x3d5e3f95	0.054259855
57	0x3d67bb60	0.05657518
58	0x3d60b5cf	0.054860886
59	0x3d630916	0.055428587
60	0x3d749692	0.059713908
61	0x3da5b59b	0.08091279
62	0x3d9a3b89	0.07530887
63	0x3d96c43c	0.073616475
64	0x3da674de	0.081277594
65	0x3d9bb041	0.07601977
66	0x3d9d32c9	0.07675702
67	0x3da43c97	0.08019369
68	0x3da37c32	0.07982673
69	0x3da28b00	0.079366684
70	0x3dab1e67	0.08355408
71	0x3d9ac533	0.07557144
72	0x3d9ef4ab	0.077615105
73	0x3da191f9	0.0788917
74	0x3da00b81	0.07814694
75	0x3da9d514	0.082925946
76	0x3d9feec4	0.07809213
77	0x3da09d5c	0.07842514
78	0x3d9c0e95	0.07619969
79	0x3d6d4a56	0.05793222
80	0x3d9956f8	0.07487291
81	0x3d71fc6f	0.05907863
82	0x3d67e4be	0.05661463
83	0x3d9a4f58	0.07534665
84	0x3d792ab1	0.06083173
85	0x3d6cb528	0.05778995
86	0x3d70faa9	0.0588328
87	0x3d64d2d9	0.055865142
88	0x3d6d28ba	0.057900168
89	0x3d9819e9	0.07426817
90	0x3da07c2f	0.07836186
91	0x3d9e7d7e	0.077387795
92	0x3d9ee761	0.07758976
93	0x3da38275	0.07983867
94	0x3d9a47b7	0.0753321
95	0x3da6764a	0.081280306
96	0x3da57825	0.080795564
97	0x3da28a2e	0.07936512
98	0x3da69675	0.08134166
99	0x3d9b8749	0.07594163
100	0x3daa9634	0.0832943
101	0x3da0947f	0.078408234
102	0x3d9d3a05	0.07677082
103	0x3d716265	0.058931727
104	0x3da0e531	0.07856215
105	0x3da1ac03	0.07894137
106	0x3d9dfa4c	0.07713756
107	0x3da147ba	0.07875009
108	0x3da152bb	0.07877108
109	0x3d9df430	0.07712591
110	0x3d610bf4	0.05494304
111	0x3d5e00cb	0.054199975
112	0x3d77e301	0.060519222
113	0x3d60bd12	0.05486781
114	0x3d661125	0.056168694
115	0x3d73a643	0.05948473
116	0x3d999786	0.07499604
117	0x3d9a856e	0.07544981
118	0x3da07466	0.07834701
119	0x3da0972d	0.078413345
120	0x3da9aad9	0.0828454
121	0x3d97db56	0.07414882
122	0x3da098e0	0.078416586
123	0x3d9a8e46	0.07546668
124	0x3da89b63	0.08232763
125	0x3d9ccb5e	0.07655977
126	0x3da7302a	0.081634834
127	0x3d9a6ae0	0.07539916
128	0x3dab192a	0.08354409
129	0x3d9c84a1	0.076424845
130	0x3da14f4a	0.07876451
131	0x3d6d0136	0.057862483
132	0x3d6fe4b1	0.058567706
133	0x3da5188d	0.08061323
134	0x3d991354	0.0747439
135	0x3da1c8ff	0.07899665
136	0x3da40fd6	0.08010833
137	0x3da4077c	0.0800924
138	0x3d65a435	0.056064803
139	0x3da18cf7	0.07888215
140	0x3d56622e	0.052339725
141	0x3d5b4218	0.05352983
142	0x3d5db3e3	0.05412663
143	0x3d73a578	0.059483975
144	0x3da6fd09	0.081537314
145	0x3d9bdf44	0.07610944
146	0x3da6082d	0.08107028
147	0x3d9deeec	0.07711586
148	0x3da0599b	0.07829591
149	0x3d98a73c	0.074537724
150	0x3d9d3cca	0.0767761
151	0x3d9ea6f3	0.07746687
152	0x3d9f4d10	0.077783704
153	0x3da938d5	0.08262793
154	0x3da73a36	0.081654
155	0x3da4d4eb	0.080484234
156	0x3da367d1	0.07978786
157	0x3da2acfc	0.079431504
158	0x3da12365	0.07868079
159	0x3d7cdd9e	0.061734788
160	0x3d62cd8b	0.055371802
161	0x3d9a71f6	0.075412676
162	0x3d995dd5	0.074886
163	0x3d9c50fd	0.07632635
164	0x3d633778	0.05547282
165	0x3d967552	0.07346596
166	0x3d7adc7c	0.061245427
167	0x3d7e0a43	0.062021505
168	0x3d5e8f93	0.05433614
169	0x3d5a086a	0.05323068
170	0x3d6882aa	0.056765236
171	0x3d7c3d27	0.061581757
172	0x3da15a4a	0.078785494
173	0x3d999a38	0.07500118
174	0x3d9e7978	0.07738012
175	0x3da85143	0.082186244
176	0x3daa142a	0.08304627
177	0x3d9f5fc9	0.077819414
178	0x3d9d3a72	0.07677163
179	0x3d9e9922	0.077440515
180	0x3da03995	0.07823483
181	0x3da8b732	0.08238067
182	0x3d9a1be0	0.07524848
183	0x3d9a4b1c	0.07533857
184	0x3da1fb44	0.07909253
185	0x3d99d154	0.07510629
186	0x3d8291fe	0.06375502
187	0x3d6d3118	0.057908148
188	0x3d724fab	0.05915801
189	0x3d5e8fa2	0.054336198
190	0x3d9a3454	0.07529512
191	0x3da5bb21	0.08092333
192	0x3d9ba8d4	0.07600561
193	0x3d5ce61f	0.053930398
194	0x3d60af02	0.0548544
195	0x3d62ddbe	0.05538725
196	0x3d719cdc	0.058987483
197	0x3d75f241	0.060045484
198	0x3d6f2f63	0.0583948
199	0x3d7668a2	0.06015838
200	0x3da60cb2	0.0810789
201	0x3da248ec	0.07924065
202	0x3d9fecbe	0.07808827
203	0x3da3838b	0.07984074
204	0x3daa3a2d	0.083118774
205	0x3da6d573	0.08146181
206	0x3da01f3c	0.078184575
207	0x3daa95b0	0.08329332
208	0x3da0f8b0	0.078599334
209	0x3da3f3fc	0.08005521
210	0x3d9e207c	0.0772104
211	0x3d7f7b33	0.06237335
212	0x3d810177	0.062991075
213	0x3d80f184	0.062960654
214	0x3d67e19e	0.05661165
215	0x3d638748	0.055548936
216	0x3d60ad8a	0.054853
217	0x3d73bc1e	0.059505574
218	0x3d7e39ee	0.062066965
219	0x3d643683	0.05571605
220	0x3d670581	0.056401733
221	0x3d67b5ae	0.056569748
222	0x3d5ac305	0.05340864
223	0x3d77634e	0.06039744
224	0x3d6acf62	0.057326682
225	0x3d7801b0	0.060548484
226	0x3d9c1d7c	0.07622811
227	0x3d61713e	0.055039637
228	0x3d6022b7	0.054720607
229	0x3d5b476f	0.05353492
230	0x3d5cca40	0.053903818
231	0x3da823c3	0.08209946
232	0x3d9f2014	0.0776979
233	0x3d7e1943	0.06203581
234	0x3d7f91d4	0.062394932
235	0x3d6e56e6	0.05818834
236	0x3d9cadf8	0.076503694
237	0x3d9ca9ff	0.07649612
238	0x3da86353	0.082220696
239	0x3d823fa8	0.06359798
240	0x3d7849cf	0.060617264
241	0x3d6cb712	0.057791777
242	0x3da91546	0.08256011
243	0x3d7f7e0e	0.062376074
244	0x3d6f0538	0.058354586
245	0x3d722bad	0.059123684
246	0x3d6b314f	0.05742007
247	0x3d684e02	0.05671502
248	0x3d6af29b	0.057360273
249	0x3d7a2cb9	0.061077807
250	0x3d74c66c	0.059759542
251	0x3d6b6a01	0.05747414
252	0x3d9c4e43	0.07632115
253	0x3d6497cc	0.055808827
254	0x3d6ffb14	0.058589056
255	0x3d5bffe4	0.053710833

base_model.fc.bias f4 [3]
0	0x3cc5639e	0.024095353
1	0xbcc1e711	-0.023669751
2	0xba5b9870	-0.0008376902
