face_recognition_custom_model_dict.pt (torch, 706051 bytes, 20 tensors)

base_model.conv1.weight f4 [16, 3, 3, 3]
0	0x3daab767	0.083357625
1	0x3d8bfd8c	0.068354696
2	0x3dbb4a4b	0.0914503
3	0xbc018cfb	-0.0079071475
4	0x3ce2f33b	0.027703872
5	0xbdecef26	-0.115690514
6	0xbe236d63	-0.15959696
7	0xbd8b5805	-0.06803898
8	0x3d8f7829	0.070053406
9	0xbd117cef	-0.035519537
10	0xbd22e481	-0.0397687
11	0xbdd73180	-0.10507488
12	0xbdc4c911	-0.09608663
13	0xbdce8cb4	-0.10085431
14	0xbd2308a7	-0.039803173
15	0x3e380ac7	0.17972861
16	0xbd4a36db	-0.04936872
17	0xbcd19251	-0.025582464
18	0xbdcedc9e	-0.10100673
19	0xbdefa20c	-0.1170083
20	0xbe40ede1	-0.18840744
21	0xbdfafb74	-0.12254992
22	0xbd6327ba	-0.055457808
23	0xbd367f01	-0.044554714
24	0xbe079e01	-0.13243867
25	0xbc750f57	-0.014957271
26	0x3e26193c	0.16220564
27	0xbe183f56	-0.1486791
28	0x3df5caab	0.120015465
29	0xbe17aa97	-0.14811169
30	0x3d0ee28e	0.034884028
31	0x3aeaa487	0.0017901816
32	0xbe1ea106	-0.15491113
33	0xbdc9e954	-0.09858957
34	0xbdbb6c10	-0.09151471
35	0xbe1615f9	-0.1465682
36	0x3c64389b	0.013929511
37	0xbe1ceb9d	-0.15324254
38	0x3e376d8f	0.17912887
39	0x3c31c5ab	0.01085035
40	0xbe1656ee	-0.14681599
41	0xbd9dccb2	-0.07705058
42	0x3e2bfbc3	0.16795258
43	0xbc03cddb	-0.008044685
44	0x3db4cab6	0.088277265
45	0x3e076cac	0.13225049
46	0xbdc94ae4	-0.098287374
47	0x3e2930c0	0.16522503
48	0xbdcffe63	-0.10155942
49	0xbe243fb6	-0.16039929
50	0x3def1685	0.11674217
51	0xbe15aebb	-0.14617436
52	0xbe05d48d	-0.13069363
53	0xbe15f721	-0.14645053
54	0x3d8913af	0.066932075
55	0xbc224ac8	-0.009905525
56	0x3e299726	0.16561565
57	0xbdad6042	-0.08465625
58	0x3c1590a4	0.009128723
59	0x3dcb7da6	0.09936075
60	0xbd015141	-0.03157163
61	0xbc5f7600	-0.013638973
62	0xbdfaff55	-0.12255732
63	0x3de926b9	0.11384339
64	0x3d937c4e	0.072014436
65	0xbd079a0e	-0.033105902
66	0xbda6eaf9	-0.08150286
67	0x3e030c67	0.127977
68	0xbe2cfcce	-0.16893312
69	0x3da51ec8	0.08062512
70	0x3e0963bf	0.13416956
71	0xbd848c61	-0.06472088
72	0x3d9c3e31	0.076290496
73	0x3d52a963	0.05143107
74	0x3cd7f18b	0.026360294
75	0xbda9b953	-0.08287301
76	0xbce6d285	-0.028176555
77	0xbcebd065	-0.028785894
78	0x3d9786bc	0.073987454
79	0xbe436b42	-0.19083884
80	0xbc1f4277	-0.009720436
81	0x3d784962	0.06061686
82	0x3d6cd1ba	0.0578172
83	0xbdd68639	-0.1047482
84	0xbd8d052b	-0.06885751
85	0x3de9cc68	0.114159405
86	0x3d37acbb	0.044842463
87	0x3e43d5ea	0.1912457
88	0xbd8d88d0	-0.069108605
89	0x3dda8fcf	0.106719606
90	0xbcd90030	-0.026489347
91	0x3cf8c066	0.03036518
92	0xbb91f8f0	-0.0044547245
93	0xbe3b260a	-0.1827623
94	0x3d9f84f1	0.077890284
95	0x3d5858db	0.052819114
96	0xbe2bd2d4	-0.16779643
97	0xbbdd4dfc	-0.006753681
98	0x3d12f10d	0.035874415
99	0x3e1e7d62	0.15477517
100	0x3e42956a	0.1900231
101	0xbd0c52e0	-0.034258723
102	0xbd0b9f7f	-0.034087654
103	0xbd30d2fd	-0.043169964
104	0xbe112d13	-0.1417735
105	0x3dc0af70	0.09408462
106	0x3e40e721	0.18838169
107	0x3e2961f0	0.16541266
108	0xbe2bd3b0	-0.16779971
109	0xbe360d3a	-0.17778483
110	0xbe00468b	-0.1252691
111	0xbd0cf6b3	-0.03441496
112	0xbd4b46e1	-0.049628142
113	0xbe390c00	-0.18070984
114	0xbe2bb719	-0.16769065
115	0xbe1bdc06	-0.15220651
116	0xbd628223	-0.05529989
117	0x3b42af97	0.002970671
118	0x3e3d26c6	0.18471822
119	0xbe3a1325	-0.18171366
120	0x3df13153	0.11776986
121	0xbda0ec63	-0.07857587
122	0x3e42e88c	0.19034022
123	0xbe24f02d	-0.16107245
124	0xbe2e7dda	-0.17040196
125	0xbce9b32f	-0.028527824
126	0x3da2c0e0	0.07946944
127	0xbe2161db	-0.15759985
128	0xbd38e136	-0.045136653
129	0xbe1aa9d1	-0.15103842
130	0x3de158bf	0.11003255
131	0xbdbb6f5e	-0.09152101
132	0xbdbecb59	-0.09316129
133	0xbe2a2314	-0.16614944
134	0x3d6e5071	0.058182184
135	0x3e350e6e	0.17681286
136	0x3d495eee	0.049162798
137	0x3d9a27c3	0.07527115
138	0x3e1a208a	0.15051475
139	0xbc5426f8	-0.012948744
140	0xba71e4d4	-0.00092275185
141	0x3e289053	0.16461305
142	0xbd840cca	-0.06447752
143	0xbe348c75	-0.17631705
144	0x3cc9d8bb	0.024639478
145	0x3da7a780	0.08186245
146	0x3d81fe26	0.06347303
147	0x3e126e76	0.1429995
148	0x3e24af95	0.16082604
149	0x399a957d	0.00029484546
150	0x3de7f5c8	0.11326176
151	0xbe2649d1	-0.16239096
152	0x3ca97559	0.020685839
153	0x3de78b48	0.11305863
154	0x3df1be13	0.11803832
155	0xbe38db2f	-0.18052362
156	0x3e2c9c6e	0.16856548
157	0x3bd54275	0.0065081664
158	0x3ca0cb9a	0.019628335
159	0x3c3bc8e9	0.011461475
160	0x3b43e8e8	0.0029893462
161	0xbdecbade	-0.115590796
162	0x3e2beec8	0.16790307
163	0x3d776097	0.06039485
164	0xbe0a49aa	-0.13504663
165	0xbe16e845	-0.14737041
166	0x3ddd35f7	0.108013086
167	0x3e1b566c	0.15169686
168	0x3d0e3a73	0.03472371
169	0x3e2ca780	0.16860771
170	0xbc80be26	-0.01571567
171	0xbd9a747f	-0.07541751
172	0x3db5a3c1	0.08869124
173	0xbaae256b	-0.0013286298
174	0x3cc164bb	0.023607602
175	0x3c7abc33	0.015303659
176	0x3e14b367	0.14521562
177	0x3db86dcc	0.09005317
178	0x3dcf96d1	0.10136188
179	0x3cb28d97	0.02179603
180	0xbd66fc67	-0.056393053
181	0xbe0910ba	-0.13385287
182	0xbcc7c055	-0.024383703
183	0xbe2e9227	-0.1704794
184	0xbddde494	-0.108346134
185	0xbd40209c	-0.0469061
186	0x3e1332af	0.14374803
187	0xbe4393e3	-0.19099383
188	0x3de7a1a5	0.11310128
189	0xbdf15c1c	-0.117851466
190	0xbe370242	-0.17871955
191	0xbe0514b6	-0.12996182
192	0xbe05363d	-0.13008972
193	0x3e3eba8f	0.18625854
194	0x3e0f8183	0.14014249
195	0x3e3b1219	0.18268622
196	0xbdd51e74	-0.10406199
197	0xbe3d1515	-0.18465073
198	0xbd3d07e8	-0.046150118
199	0x3e1b7628	0.15181792
200	0x3dcb5474	0.099282175
201	0xbe1cbb8c	-0.15305918
202	0xbd61a836	-0.05509206
203	0x3bb11776	0.005404408
204	0x3e3ea796	0.18618616
205	0xbe07bc33	-0.13255386
206	0x3e058460	0.13038778
207	0x3de7737d	0.113013245
208	0xbdd49cdd	-0.10381482
209	0xbe12f0be	-0.14349648
210	0xbdec1841	-0.115280636
211	0x3e02230f	0.12708686
212	0xbe3fef4d	-0.1874363
213	0x3e0589c0	0.13040829
214	0x3e34aadc	0.17643303
215	0xbe3910b7	-0.18072782
216	0xbced3e2e	-0.028960314
217	0x3e05381d	0.13009687
218	0xbd479ca6	-0.048733376
219	0x3da83477	0.08213132
220	0xbaf1d70b	-0.0018450929
221	0xbdb28fe6	-0.08718853
222	0x3e0e94b4	0.13923913
223	0x3cf1cf8c	0.029517911
224	0xbcea2a70	-0.028584689
225	0x3d85794e	0.06517278
226	0xbdd14ddf	-0.10219931
227	0xbd171a8f	-0.036890563
228	0xbdeafa5c	-0.114735335
229	0xbde2c85b	-0.11073371
230	0xbde371db	-0.111057006
231	0xbc555f74	-0.013023246
232	0xbe104e6f	-0.1409242
233	0xbcb4063a	-0.021975625
234	0xbd7c4fcc	-0.061599538
235	0xbd24e84f	-0.04026061
236	0xbdb931c7	-0.090426974
237	0xbdf302cc	-0.11865768
238	0x3e35d26f	0.17756055
239	0x3d9683eb	0.0734938
240	0x3e25e66a	0.16201177
241	0xbc33aa46	-0.010965889
242	0x3e110dea	0.14165464
243	0x3b4ded8c	0.0031422107
244	0x3b972c14	0.004613409
245	0xbe36abc6	-0.17838964
246	0x3d88cbbc	0.06679484
247	0x3dd8f6a6	0.105939195
248	0xbd3d888c	-0.0462728
249	0xbe2e8e35	-0.17046435
250	0xbe099aa0	-0.13437891
251	0x3e08ad76	0.1334742
252	0xbd641ebb	-0.05569337
253	0x3dc81816	0.09770219
254	0x3d12c285	0.03583004
255	0x3e291322	0.16511205

base_model.conv1.bias f4 [16]
0	0xbd234e96	-0.039869867
1	0x3cc14ccf	0.023596196
2	0xbe2c160d	-0.16805287
3	0x3de2b272	0.11069192
4	0x3da5c146	0.080935046
5	0x3d21c321	0.03949273
6	0xbd28d22c	-0.04121606
7	0x3e331286	0.17487535
8	0xbe22d358	-0.15900934
9	0x3dcec7a7	0.100966744
10	0x3e2c54af	0.16829179
11	0x3d8a48e9	0.06752188
12	0x3e219230	0.15778422
13	0xbdf14dc5	-0.117824115
14	0x3e30c18e	0.17261335
15	0x3e10f01d	0.14154096

base_model.bn1.weight f4 [16]
0	0x3f8002c8	1.0000849
1	0x3f8001d6	1.000056
2	0x3f8005bb	1.0001749
3	0x3f8006f3	1.0002121
4	0x3f7ff85d	0.9998835
5	0x3f8006f7	1.0002126
6	0x3f7ff98a	0.9999014
7	0x3f800000	1.0
8	0x3f7ff7b5	0.99987346
9	0x3f800125	1.0000349
10	0x3f7ff987	0.99990124
11	0x3f7ff647	0.99985164
12	0x3f7ff610	0.99984837
13	0x3f7ffe2f	0.9999723
14	0x3f80026f	1.0000743
15	0x3f800898	1.0002623

base_model.bn1.bias f4 [16]
0	0x3804bc7a	3.1646785e-05
1	0x371eb405	9.459448e-06
2	0x393b3331	0.0001785278
3	0x377b2018	1.4968238e-05
4	0x37889f55	1.6286658e-05
5	0x3932979d	0.00017031883
6	0xb8d22f1b	-0.000100223544
7	0x392fd799	0.00016769617
8	0xb8e897bd	-0.000110908855
9	0xb8e942cc	-0.00011122748
10	0x38acccf0	8.239772e-05
11	0xb909a9bc	-0.00013128569
12	0xb9105e8e	-0.00013768135
13	0x3913c86d	0.00014093677
14	0x38228b3c	3.8753482e-05
15	0x3913eed2	0.0001410798

base_model.bn1.running_mean f4 [16]
0	0xbed57a64	-0.4169494
1	0xbed80005	-0.42187515
2	0xbdb8178e	-0.08988868
3	0x3ed1d6be	0.40984148
4	0xbf3d414a	-0.7392775
5	0x3ef73dc4	0.4828931
6	0x3e2a6b03	0.16642384
7	0x3bef93fd	0.0073113427
8	0xbe6a18ba	-0.22860995
9	0x3b01b7b4	0.0019793333
10	0x3edf91d5	0.4366595
11	0xbe1c948c	-0.15291041
12	0x3e82f5e5	0.25578228
13	0xbdc7df8f	-0.09759437
14	0x3e9d2619	0.3069313
15	0x3ee26ed5	0.44225183

base_model.bn1.running_var f4 [16]
0	0x3d48cf84	0.049026027
1	0x3d44f035	0.04808064
2	0x3b0eb284	0.0021773884
3	0x3cd330c4	0.02578009
4	0x3e2242e0	0.15845823
5	0x3d584e21	0.052808885
6	0x3c2150f9	0.009845966
7	0x3bf1d9c2	0.007380695
8	0x3b4fae74	0.0031689676
9	0x3b37c2b7	0.0028039643
10	0x3c959296	0.018258374
11	0x3ca37e60	0.019957721
12	0x3b9068a6	0.0044070063
13	0x3ac2d7d0	0.0014865343
14	0x3c003aa3	0.00782648
15	0x3ca8f528	0.020624712

base_model.conv2.weight f4 [32, 16, 3, 3]
0	0xbd0f1f66	-0.034942053
1	0x3d9208f9	0.07130618
2	0xbd1a8a3e	-0.037729494
3	0xbd901dae	-0.07036911
4	0x3da00ed0	0.07815325
5	0x3cd600e7	0.026123477
6	0x3d3e77c5	0.04650094
7	0x3ca654a0	0.020304024
8	0x3c4613fb	0.012089725
9	0x3ce2dc53	0.02769295
10	0x3cfd6289	0.030930774
11	0xbd638a8e	-0.055552058
12	0x3d5efe08	0.05444148
13	0x3bb58cfe	0.005540489
14	0x3d145729	0.036215935
15	0xbd94d5b6	-0.072673246
16	0xbd53dfca	-0.051727094
17	0xbd194ede	-0.03742873
18	0xbd8bc4b3	-0.06824627
19	0x3d851b21	0.06499315
20	0x3c5480f7	0.012970201
21	0xbd79cb1e	-0.060984723
22	0xbd52b82d	-0.051445175
23	0xbc9d4664	-0.019198604
24	0x3d8fbd03	0.07018473
25	0xbd0d2a55	-0.0344642
26	0x3d99ce96	0.07510106
27	0x3d3a97e9	0.04555503
28	0xbd75f629	-0.06004921
29	0xbd99bcd0	-0.07506716
30	0x3cc1d49e	0.023660954
31	0x3d68ba8b	0.056818526
32	0xbc890e7f	-0.016730545
33	0xbd95f688	-0.07322413
34	0x3cfce4f4	0.030870892
35	0xbce412f1	-0.027841063
36	0xbd21e707	-0.039526965
37	0x3be6b6e4	0.007040845
38	0x3d7f04b6	0.062260352
39	0xbd9993fd	-0.0749893
40	0x3c995a3f	0.01871979
41	0xbb831900	-0.004000783
42	0xbd6ab4ea	-0.05730144
43	0x3d8ed8d7	0.06974953
44	0xbc4fb1c5	-0.012676661
45	0x3da30d08	0.0796147
46	0xbd735032	-0.059402652
47	0x3ba24772	0.0049523646
48	0xbcb5cb8d	-0.022191787
49	0x3c8e5916	0.017376464
50	0xbda4ce48	-0.080471575
51	0x3cca030e	0.02465966
52	0xbd366204	-0.04452707
53	0x3d3e920c	0.046526
54	0xbd128b03	-0.035777103
55	0xba2cc1bd	-0.00065901486
56	0xbd840d8c	-0.06447896
57	0xbd5b1f14	-0.053496435
58	0x3d2288b3	0.039681148
59	0x3d985475	0.07437984
60	0x3d8e4afb	0.06947895
61	0xbd8c4ea9	-0.06850941
62	0xbce13ea4	-0.02749569
63	0x3d6a1fcb	0.057159226
64	0x3d061cd4	0.032742336
65	0x3d3e5c4a	0.046474732
66	0x3d9a88e7	0.07545643
67	0xbcbbe29f	-0.02293521
68	0xbce5efe9	-0.0280685
69	0x3bd81272	0.0065939957
70	0xbd9afa60	-0.075672865
71	0xbc93d1a0	-0.018044293
72	0x3da1e666	0.07905273
73	0xbbdcbed6	-0.0067366166
74	0xbcf95ef6	-0.030440789
75	0xbd04ab06	-0.032389663
76	0xbc86f7df	-0.016475616
77	0xb94c5ab0	-0.0001948874
78	0xbd95e4b3	-0.073190115
79	0x3d823834	0.06358376
80	0xbda463ce	-0.08026849
81	0xbd27ef1b	-0.040999513
82	0xbd8c2567	-0.068430714
83	0xbd46dce9	-0.04855052
84	0x3ccb44c6	0.024813067
85	0xbd54045f	-0.05176198
86	0xbd063fd8	-0.03277573
87	0xbd7029c3	-0.058633577
88	0xbb7e4a7d	-0.0038801723
89	0x3d98660a	0.074413374
90	0x3d0fe60c	0.0351315
91	0x3d4fa252	0.05069191
92	0xbd87aa75	-0.06624309
93	0xbce9e89c	-0.0285533
94	0x3d1aa518	0.037755102
95	0xbc045957	-0.008077941
96	0x3d844ca0	0.064599276
97	0xbd711896	-0.058861338
98	0xbda3fd5a	-0.08007307
99	0xbd83eba9	-0.06441433
100	0xbd2a972b	-0.04164807
101	0x3d6ffc6a	0.05859033
102	0xbced480e	-0.028965022
103	0xbd26f3eb	-0.040759962
104	0xbb4cb218	-0.0031234082
105	0x3d3ce9ae	0.04612129
106	0xbda9b659	-0.08286733
107	0xbc9d00e2	-0.01916546
108	0xbcfa5740	-0.030559182
109	0xbd5ada34	-0.05343075
110	0xbccdf6c3	-0.02514208
111	0xbbfc50df	-0.0077000703
112	0xbd9774a7	-0.073952965
113	0x3d85e6fa	0.06538196
114	0x3cdaf5ea	0.02672859
115	0x3b4a48f3	0.0030866235
116	0xb9983c80	-0.00029036775
117	0x3c5c3932	0.013441371
118	0x3d9d64c6	0.07685237
119	0x3c833496	0.016016286
120	0x3b3a43ad	0.0028421686
121	0xbb0d1b2a	-0.0021531084
122	0xbd685ece	-0.056731038
123	0xbda7f54b	-0.08201083
124	0xbc825084	-0.015907533
125	0xbd9aa41e	-0.07550834
126	0x3d0c4e15	0.034254152
127	0xbd3f73bb	-0.04674123
128	0x3c2aee3e	0.010432778
129	0x3d0f4db1	0.0349862
130	0xbd3ddd82	-0.046353824
131	0xbc9319f7	-0.017956717
132	0xbd8ab5bd	-0.06772945
133	0xbc87596a	-0.016522128
134	0x3d8a6a97	0.06758612
135	0x3d06e59a	0.03293381
136	0x3d68ffca	0.056884564
137	0xbd3ba16a	-0.045808233
138	0xbd982d13	-0.07430472
139	0xbd1c2960	-0.038125396
140	0xbd0de60a	-0.03464321
141	0x3d4ab38c	0.049487635
142	0xbd3081bb	-0.04309247
143	0x3d5b3eb4	0.053526595
144	0xbd831ca0	-0.06401944
145	0x3cc00e5e	0.02344435
146	0x3c34b175	0.011028637
147	0x3d66411d	0.05621444
148	0x3d60328f	0.054735716
149	0xbd83d4a9	-0.06437046
150	0x3d9768a1	0.07393003
151	0x3ca65c34	0.020307638
152	0x3da508b0	0.08058298
153	0x3d0d3ab7	0.034479823
154	0xbd921027	-0.07131987
155	0x3cab52e8	0.020913556
156	0xbb6df3c8	-0.0036308635
157	0x3d235728	0.03987804
158	0xbd07739b	-0.033069234
159	0xbae8e823	-0.0017769377
160	0xbd8886d0	-0.066663384
161	0xbc65f2e4	-0.01403496
162	0xbd35ed03	-0.044415485
163	0x3cc95be4	0.02457995
164	0xbd889833	-0.06669655
165	0x3a44360f	0.0007484862
166	0x3c23bf11	0.009994284
167	0x3b098c96	0.0020988337
168	0x3da5a2e6	0.08087711
169	0xbd937fd1	-0.072021134
170	0x3d6f60c5	0.058441896
171	0xbdaa5614	-0.08317199
172	0xbd0eed64	-0.034894362
173	0xbd19788f	-0.03746849
174	0xbd3146d3	-0.043280434
175	0x3cda04b1	0.026613565
176	0xbd0d3aa1	-0.03447974
177	0xbccd37f0	-0.025051087
178	0x3d87e285	0.06635002
179	0x3ccaa857	0.024738474
180	0x3cc52a46	0.02406801
181	0xbcbd68d4	-0.023121275
182	0x3cc15cc4	0.023603804
183	0xbd13a3cd	-0.036044884
184	0x3ca60985	0.020268211
185	0xbd9373c0	-0.07199812
186	0xbd965c6e	-0.07341848
187	0x3d33d07a	0.04389999
188	0x3d3b1e3e	0.045683138
189	0x3d568259	0.052370403
190	0xbd215dfd	-0.039396275
191	0xbc546eaa	-0.0129658375
192	0xbd521433	-0.051288795
193	0xbd433a75	-0.04766317
194	0xba52cde9	-0.0008041547
195	0xbc856837	-0.016285045
196	0x3d485c6e	0.048916273
197	0x3d889812	0.0666963
198	0x3d88d6fd	0.06681631
199	0xbcd60014	-0.026123084
200	0x3ace7af6	0.0015753198
201	0xbcf5cc82	-0.030004743
202	0x3c7e526a	0.015522579
203	0xbda355d9	-0.079753585
204	0xbc845cc1	-0.01615751
205	0xbbfd7001	-0.007734299
206	0x3c99c512	0.018770728
207	0x3d3017d7	0.042991485
208	0xbbfaafcb	-0.0076503507
209	0xbd22eeb4	-0.039778426
210	0x3d98f434	0.07468453
211	0xbc96f28e	-0.018426206
212	0xbc7fd9ca	-0.01561589
213	0xbd44298b	-0.04789118
214	0x3d210748	0.039313585
215	0x3d3fe32d	0.04684751
216	0x3d3a02be	0.04541277
217	0x3c420f06	0.011844402
218	0xbd6d76a1	-0.05797446
219	0x3d9d5b81	0.076834686
220	0x3d66a3c1	0.05630851
221	0x3d535754	0.051596954
222	0x3d1251bc	0.03572248
223	0x3c599d6a	0.013282159
224	0x3d329afc	0.043604836
225	0xbcadca06	-0.021214496
226	0xbda7a923	-0.08186557
227	0xbaea01de	-0.001785334
228	0xbd7e14a0	-0.06203139
229	0x3d87c41f	0.06629204
230	0xbd95b2d8	-0.07309502
231	0xbd06d7da	-0.032920696
232	0x3cb9177c	0.022594206
233	0x3d16a16d	0.03677504
234	0x3daa2011	0.083068974
235	0x3d8b619b	0.06805726
236	0x3c66362c	0.0140510015
237	0x3d86f68d	0.065899946
238	0x3b72a1ad	0.0037022636
239	0xbd19f95e	-0.03759133
240	0x3a705b28	0.0009168857
241	0x3c3d6bab	0.011561315
242	0x3ab913cb	0.0014120279
243	0xbb6860e1	-0.0035458135
244	0xbd4a418a	-0.04937891
245	0x3d028d85	0.031873245
246	0x3d007b8f	0.031367835
247	0x3d2bc076	0.041931592
248	0xbcfed997	-0.031109614
249	0x3cad12b5	0.021127084
250	0x3d5d6757	0.05405363
251	0xbd1edbd8	-0.038783878
252	0xbcc73975	-0.02431939
253	0x3d40e83e	0.047096483
254	0xbd42b253	-0.047533344
255	0x3c72d51c	0.014821317

base_model.conv2.bias f4 [32]
0	0xbb6de7de	-0.0036301534
1	0x3d80b529	0.062845536
2	0x3c9add27	0.018904282
3	0x3d595eee	0.053069048
4	0x3d5614c8	0.052265912
5	0x3d39d30f	0.045367297
6	0x3d4619c5	0.04836442
7	0xbd92110e	-0.07132159
8	0x3ca5be76	0.02023242
9	0xbc6d5faa	-0.01448814
10	0x3cb62ad5	0.02223722
11	0xbd28edb1	-0.041242305
12	0x3da95b62	0.08269383
13	0xbcc9a970	-0.024616927
14	0x3d162f41	0.03666616
15	0x3d9253e5	0.07144908
16	0xbd8f1cbe	-0.06987904
17	0xbd0051c3	-0.031327974
18	0xbd88e7e0	-0.06684852
19	0x3d950fbb	0.07278391
20	0xbd4cc3ca	-0.049991407
21	0x3d7d84ba	0.061894156
22	0xbca09bf7	-0.01960562
23	0xbda306ff	-0.07960319
24	0xbd3bcf4a	-0.045851983
25	0xbc415f1e	-0.011802463
26	0x3d975d1e	0.073908076
27	0xbda091e4	-0.078403264
28	0xbd332f7d	-0.04374646
29	0x3d70d665	0.058798213
30	0xbcf94aca	-0.03043117
31	0xbd15b75f	-0.03655183

base_model.bn2.weight f4 [32]
0	0x3f80044c	1.0001311
1	0x3f7ff57e	0.99983966
2	0x3f80021a	1.0000641
3	0x3f7ff656	0.99985254
4	0x3f800403	1.0001224
5	0x3f7ff67f	0.999855
6	0x3f8005e1	1.0001794
7	0x3f800675	1.000197
8	0x3f7ff670	0.9998541
9	0x3f8008aa	1.0002644
10	0x3f80000e	1.0000017
11	0x3f7ffa5c	0.99991393
12	0x3f7ff5d1	0.9998446
13	0x3f7ffdc9	0.9999662
14	0x3f800717	1.0002164
15	0x3f800495	1.0001398
16	0x3f80069a	1.0002015
17	0x3f7ffa90	0.99991703
18	0x3f80059e	1.0001714
19	0x3f80025d	1.0000721
20	0x3f80017c	1.0000453
21	0x3f7ff63f	0.99985117
22	0x3f800085	1.0000159
23	0x3f8003c2	1.0001147
24	0x3f8002f8	1.0000906
25	0x3f7ffa9b	0.9999177
26	0x3f7ffc52	0.99994385
27	0x3f7ff704	0.9998629
28	0x3f80059b	1.0001711
29	0x3f7ff5e3	0.9998457
30	0x3f7ffb06	0.99992406
31	0x3f7ffaa4	0.9999182

base_model.bn2.bias f4 [32]
0	0x37f95e0a	2.9726903e-05
1	0x378d7d1b	1.6866767e-05
2	0x38d5b4e8	0.00010190328
3	0xb9025e74	-0.00012432953
4	0x38d7a697	0.00010283029
5	0xb917ecb0	-0.00014488655
6	0x3929bec3	0.0001618816
7	0x392b6ad2	0.00016347624
8	0xb9146b52	-0.0001415436
9	0x3933cc14	0.00017146795
10	0x38bd3c1f	9.023421e-05
11	0xb9232da3	-0.00015561892
12	0xb7d5e1bd	-2.5496696e-05
13	0x38f414a4	0.00011638671
14	0x38e1d434	0.00010768362
15	0x3692a28e	4.370063e-06
16	0x39386801	0.00017586352
17	0xb8c1a9d4	-9.23459e-05
18	0x393d1af7	0.0001803449
19	0x3923cb9f	0.00015620746
20	0xb90e4fac	-0.00013571855
21	0xb92833b8	-0.00016040995
22	0x38fdec37	0.000121079785
23	0x392fd6df	0.00016769346
24	0xb89cd8cc	-7.479041e-05
25	0x390198f8	0.00012359384
26	0x3887fcbf	6.484379e-05
27	0xb74baae2	-1.213953e-05
28	0x3922627a	0.0001548621
29	0xb938ccbf	-0.00017623881
30	0x38cade7e	9.673553e-05
31	0xb8092e50	-3.2706477e-05

base_model.bn2.running_mean f4 [32]
0	0xbee07671	-0.43840364
1	0xbc284d04	-0.010272268
2	0x3e8a75bb	0.27042946
3	0xbeb2dbf9	-0.3493345
4	0x3dd098d1	0.101853974
5	0x3ef70ca4	0.48251832
6	0xbd16d7ab	-0.03682677
7	0x3e4073a1	0.18794109
8	0xbe48a7dc	-0.19595283
9	0xbec990da	-0.39368325
10	0xbdd8c375	-0.105841555
11	0x3e19d769	0.15023579
12	0x3e12b0e2	0.14325288
13	0x3dc70e1c	0.09719488
14	0x3c04f10a	0.008114109
15	0x3d9470ab	0.07248052
16	0x3d97d4c0	0.07413626
17	0xbde3beb3	-0.11120357
18	0x3e25b781	0.16183282
19	0x3ea82dd0	0.32847452
20	0xbe2b8731	-0.1675079
21	0xbe99948f	-0.29996154
22	0xbe853f47	-0.2602484
23	0x3df06eac	0.11739859
24	0xbd547938	-0.051873416
25	0xbe009f15	-0.12560685
26	0x3ea5bed6	0.3237216
27	0xbe8a69c8	-0.2703383
28	0x3d57979d	0.052634824
29	0xbe2cac89	-0.16862692
30	0x3e6672fe	0.22504804
31	0xbe94cae9	-0.29061058

base_model.bn2.running_var f4 [32]
0	0x3d90085e	0.07032846
1	0x3df08525	0.11744145
2	0x3da36486	0.07978158
3	0x3e44a73d	0.19204421
4	0x3d56eac5	0.052469987
5	0x3d874a58	0.06605977
6	0x3d490e50	0.049085915
7	0x3e189b28	0.14902937
8	0x3db47f4e	0.08813344
9	0x3ebd3720	0.3695612
10	0x3e136778	0.14394939
11	0x3d8e8fab	0.06960996
12	0x3d0e9264	0.034807578
13	0x3d01fe02	0.03173638
14	0x3d59aecd	0.05314522
15	0x3d2bb200	0.0419178
16	0x3dad7eed	0.08471475
17	0x3d95db85	0.07317261
18	0x3d3dde82	0.046354778
19	0x3dfb6a94	0.122761875
20	0x3ea9d106	0.33167285
21	0x3d94bb6c	0.072623104
22	0x3df4c9cd	0.11952553
23	0x3dcaada3	0.098964
24	0x3da4742d	0.08029971
25	0x3d2e24a4	0.042515412
26	0x3d71dde1	0.05904949
27	0x3d83b836	0.0643162
28	0x3d70d2cf	0.058794793
29	0x3e43cc44	0.1912089
30	0x3d667175	0.056260545
31	0x3e070dcf	0.13188861

base_model.conv3.weight f4 [64, 32, 3, 3]
0	0x3c9f8428	0.019472197
1	0xbcfc9266	-0.030831527
2	0xbd08cfd4	-0.033401325
3	0x3d589456	0.05287584
4	0xbc84375c	-0.016139679
5	0xbc400bf1	-0.011721597
6	0xbd51e633	-0.051244926
7	0x3c264b80	0.010149837
8	0xbc3f35a5	-0.011670505
9	0x3d02bb06	0.03191664
10	0x3bfc6a1e	0.00770308
11	0x3d261cb0	0.040554702
12	0x3d41e2a1	0.04733527
13	0xbd30a200	-0.043123245
14	0xbbf40f84	-0.0074481387
15	0x3cfdc3fd	0.030977244
16	0x3d47b943	0.048760664
17	0x3d2d943e	0.042377703
18	0x3d681aeb	0.056666296
19	0xbd688871	-0.056770746
20	0xbcaeae77	-0.021323426
21	0xbbfd9164	-0.007738279
22	0x3d3b72a5	0.04576363
23	0x3d502da0	0.05082476
24	0xbd6acdf0	-0.057325304
25	0xbc4d6fc6	-0.012538856
26	0xbd00e78a	-0.031470813
27	0xbd236fda	-0.03990159
28	0xbd2341d4	-0.0398577
29	0xbd4cf22c	-0.05003564
30	0x3d32ff93	0.043700766
31	0xbb1b31d5	-0.0023680825
32	0x3d251707	0.040305164
33	0xbd3325fa	-0.04373739
34	0x3d19184b	0.037376683
35	0xbb3e8b7c	-0.0029074838
36	0x3d327bec	0.043575212
37	0x3cdab37b	0.026696911
38	0xbba8c8d9	-0.005150896
39	0x3d0b8d21	0.034070138
40	0xbc9fa0fa	-0.01948594
41	0x3c166612	0.009179609
42	0x3c066836	0.008203557
43	0x3a6d05e9	0.0009041713
44	0xbbc15fe5	-0.005901324
45	0x3d4652a6	0.048418663
46	0x3bf7f381	0.0075668697
47	0xbd2232e6	-0.03959932
48	0x3d09567b	0.03352974
49	0xbd215504	-0.039387718
50	0x3d21cd91	0.039502684
51	0x3d5f0bed	0.054454733
52	0xbcaf70b4	-0.021416046
53	0x3c3e91be	0.011631427
54	0x3cd333c7	0.025781525
55	0x3c8f1464	0.017465778
56	0xbd453210	-0.048143446
57	0x3d553a4d	0.052057553
58	0xbd0e4040	-0.034729242
59	0x3c9cfe93	0.01916436
60	0xbc8514e9	-0.016245322
61	0xbd2ef198	-0.04271087
62	0x3c951ecf	0.018203167
63	0xbc97b3e5	-0.018518398
64	0x3ce07afe	0.027402397
65	0x3c2cdf7e	0.010551332
66	0xbcbe66fa	-0.023242462
67	0x3c0e2fd9	0.0086784
68	0x3d50bd14	0.05096157
69	0x3c5c148e	0.013432635
70	0xbd50b6a9	-0.05095545
71	0xbd292833	-0.041298103
72	0x3d0e747a	0.03477905
73	0xbd2fdc9e	-0.042935006
74	0x3c8765a3	0.016527956
75	0x3cb06670	0.021533221
76	0x3d3f6df7	0.04673573
77	0x3d37256f	0.044713434
78	0x3c906fd2	0.017631445
79	0x3cd863ab	0.026414713
80	0xb999c7dc	-0.0002933134
81	0x3b229bf0	0.0024812184
82	0x3d21cf7b	0.03950451
83	0xbd1f4624	-0.03888525
84	0xbcf04c12	-0.029333148
85	0x3c1ecd6a	0.009692529
86	0xbd2eb926	-0.04265704
87	0x3d099964	0.03359355
88	0x3d284374	0.041079953
89	0xbd0d336f	-0.03447288
90	0xbcf9dac0	-0.030499816
91	0xbd0ef51f	-0.034901734
92	0x3d16da8e	0.036829524
93	0xbced82a0	-0.02899295
94	0xbc61c1eb	-0.013779144
95	0xbd209745	-0.039206762
96	0x3c790a28	0.015200175
97	0xbb8101cd	-0.0039369822
98	0x3c94d6d5	0.018168846
99	0xbc08cec9	-0.008350083
100	0x3cc5fcbe	0.024168368
101	0xbc192948	-0.009348221
102	0x3d467b3b	0.048457365
103	0xbc8c499c	-0.017124943
104	0x3d42c4f4	0.04755111
105	0xbb02518b	-0.001988503
106	0x3bcb4380	0.006203115
107	0xbccd7f2a	-0.02508505
108	0xbd21b959	-0.039483402
109	0xbd0afa94	-0.033930376
110	0xbd36afb1	-0.044601146
111	0x3d0f70e0	0.035019755
112	0x3ce86ce1	0.02837223
113	0xbb7fad34	-0.003901315
114	0x3ce85d71	0.028364869
115	0x3cb8bee4	0.022551961
116	0x3d4c61ab	0.04989783
117	0x3d542a54	0.05179818
118	0x3d656702	0.05600644
119	0xbcc6ed47	-0.024283065
120	0x3d4f6d41	0.050641302
121	0xbd6e7742	-0.058219202
122	0x3cb10670	0.021609515
123	0xbd0fe708	-0.035132438
124	0x3d25dbd5	0.04049285
125	0x3c607344	0.0136993565
126	0xbd51eb2c	-0.051249668
127	0x3c5d815c	0.013519611
128	0xbd1184b7	-0.035526957
129	0x3d554c8b	0.05207495
130	0xbc8efa33	-0.017453289
131	0xbd43a190	-0.0477615
132	0xbcdc76b2	-0.026912067
133	0x3d5d0e2e	0.0539686
134	0x3c600149	0.013672181
135	0x3c81ce7d	0.015845532
136	0x3d3747da	0.044746257
137	0xbc908e16	-0.017645877
138	0x3d269661	0.040670756
139	0x3ce49f8e	0.027908113
140	0x3a9191ec	0.001110611
141	0x3d52ad85	0.051435012
142	0xbb7382ef	-0.00371569
143	0xbd1069e1	-0.035257224
144	0xbd6f1f13	-0.058379244
145	0xbd25510e	-0.040360503
146	0xbd17d3c2	-0.037067182
147	0x3cab2f47	0.020896567
148	0x3cca3fcf	0.02468863
149	0xbc79259e	-0.015206723
150	0x3baa98ca	0.005206202
151	0x3d548b6f	0.051890787
152	0xbafb8b60	-0.0019191317
153	0x3d087c80	0.033321857
154	0x3ca8084c	0.020511769
155	0x3d619df0	0.05508226
156	0x3d5d89ee	0.054086618
157	0xbd27e78a	-0.040992297
158	0xbce602c1	-0.028077485
159	0xbd041f0d	-0.032256175
160	0xbcc6c944	-0.024265893
161	0xbd361e98	-0.04446277
162	0xbd4c631f	-0.049899217
163	0x3d1ed487	0.0387769
164	0x3cd8c885	0.026462803
165	0x3d36d62d	0.044637848
166	0xbc29255b	-0.010323848
167	0x3ced40dd	0.028961593
168	0xbd6bc449	-0.05756024
169	0x3c5a4923	0.013323101
170	0xbbe553db	-0.0069985217
171	0x3c60425d	0.013687697
172	0xbc612449	-0.013741561
173	0x3cc16d36	0.023611646
174	0xbc7b9a8e	-0.015356673
175	0xbca3e70f	-0.020007638
176	0xbbc231fe	-0.0059263697
177	0xbc1b6dc6	-0.009486621
178	0xbd13027f	-0.035891052
179	0x3d64d426	0.055866383
180	0x3d2c8f97	0.042129125
181	0x3d1b998b	0.037988227
182	0xbcdb5be4	-0.026777215
183	0x3d298f0f	0.041396197
184	0xbd29106c	-0.041275427
185	0x3d2f4575	0.04279085
186	0xbbcd5e29	-0.0062673283
187	0xbc1a27fd	-0.009408948
188	0xbcfe6bc6	-0.03105725
189	0x3ab6f445	0.0013958296
190	0x375a7fc1	1.3023558e-05
191	0xbb0ed3db	-0.0021793756
192	0x3d0bc0f9	0.03411958
193	0xbd495d03	-0.04916097
194	0xbd1bb4de	-0.038014285
195	0xbcd9ed2e	-0.026602354
196	0xbd4f282b	-0.050575417
197	0xbd01d332	-0.031695552
198	0x3d214a74	0.039377645
199	0x3c747945	0.014921491
200	0xbd1b1b12	-0.037867613
201	0xbd594c28	-0.053051144
202	0x3d1e8c1c	0.038707837
203	0xbd6da0e9	-0.058014784
204	0x3d1520ca	0.036408223
205	0x3d2569bb	0.040384036
206	0xbd3eae7c	-0.04655312
207	0x3c7ff069	0.015621283
208	0xbca2a0f4	-0.019852139
209	0xbc921660	-0.017832935
210	0x3c1a8494	0.009431023
211	0xbd5af7d5	-0.053459007
212	0xbd2e30d8	-0.04252705
213	0x3ca7fba0	0.020505726
214	0xbc6df474	-0.014523614
215	0xbd39b16c	-0.04533522
216	0xbaf3b7b4	-0.0018594177
217	0x3a55bfa3	0.0008153861
218	0x3cb68946	0.022282254
219	0x3d0e8e4e	0.03480368
220	0xbd3f6f73	-0.046737146
221	0xbcb62125	-0.022232601
222	0x3d67a9f9	0.056558583
223	0xbd45ad6e	-0.0482611
224	0x3d5fe19b	0.054658514
225	0xbd527264	-0.051378623
226	0x3d21c28a	0.039492168
227	0x3bdf648d	0.0068174065
228	0xbcc00af7	-0.023442728
229	0xbc6772fa	-0.014126534
230	0x3ca78a6d	0.020451749
231	0xbb3b163c	-0.0028547188
232	0x3cd4537e	0.025918718
233	0x3d63d104	0.055619255
234	0xbd348d56	-0.0440801
235	0xbc50ad99	-0.012736701
236	0xbd24e595	-0.04025801
237	0xbce90520	-0.028444827
238	0x3c5020d7	0.012703142
239	0xbc01800c	-0.007904064
240	0x3af75a88	0.0018871585
241	0xbc9e7357	-0.019342108
242	0xbbb3916f	-0.0054799835
243	0x3ce9cea1	0.028540911
244	0x3c58b6d2	0.0132271815
245	0x3cdc780d	0.026912713
246	0xbd0be4d1	-0.034153763
247	0x3c871d1c	0.016493373
248	0xbd1e5ab7	-0.03866073
249	0x3c2e4952	0.010637598
250	0xbc9b14b4	-0.01893077
251	0xbcb787b0	-0.022403568
252	0xbbc2fde0	-0.0059506744
253	0x3cc9e3b7	0.024644716
254	0x3d6f5056	0.058426224
255	0xbcd4955f	-0.025950132

base_model.conv3.bias f4 [64]
0	0xbd38a2a7	-0.045076992
1	0xbcc7c0c4	-0.02438391
2	0xbd5c1173	-0.05372758
3	0x3c11b54f	0.008893325
4	0x3c73c140	0.014877617
5	0x3d37d16d	0.04487746
6	0x3d0a823d	0.03381561
7	0x3c96d307	0.018411173
8	0x3d11dccf	0.03561097
9	0xbc32ca4e	-0.010912491
10	0x3c49909f	0.012302547
11	0x3d01377e	0.031547062
12	0xbc88dcae	-0.01670679
13	0x3d5272fb	0.051379185
14	0x3ca81f15	0.020522634
15	0xbcfd9b0f	-0.030957727
16	0x3d5edd34	0.054410174
17	0x3c775af8	0.015097372
18	0xbd1b87d6	-0.03797134
19	0x3cef4841	0.029209258
20	0x3c131a17	0.008978388
21	0xbcb79e3d	-0.022414321
22	0x3bb8f1fc	0.005644081
23	0xbd198d3d	-0.03748821
24	0xbd400067	-0.046875384
25	0xbcf02792	-0.029315744
26	0x3d32afd7	0.043624725
27	0x3c945c21	0.018110337
28	0xbcdada96	-0.026715558
29	0xbd53c89e	-0.051704995
30	0xbd4223c1	-0.04739738
31	0xbd70643f	-0.058689352
32	0xbcfda2a7	-0.030961348
33	0x3d3cce98	0.04609546
34	0x3cfbefce	0.030753996
35	0xbd657f53	-0.05602963
36	0xbcbe8a2d	-0.023259247
37	0xbd2d5536	-0.04231759
38	0x3d129815	0.035789568
39	0xbca257f5	-0.019817332
40	0x3ce90cf7	0.028448565
41	0xbd054f06	-0.032546066
42	0xb8eb39cf	-0.00011216441
43	0x3d699edc	0.057036266
44	0xbd161c00	-0.036647797
45	0xbd6d0e66	-0.05787506
46	0x3b392cbf	0.002825543
47	0x3cd1a981	0.025593521
48	0x3d69c188	0.05706933
49	0xbc88eab8	-0.016713485
50	0x3c94de4d	0.018172408
51	0xbd189b35	-0.037257392
52	0x3cb6a801	0.022296907
53	0xbcd10015	-0.025512734
54	0xbd103cd3	-0.035214256
55	0xbcc63f9c	-0.024200253
56	0xbd453a7d	-0.048151482
57	0x3d36ba55	0.044611294
58	0xbc0243e1	-0.007950754
59	0xbc86c995	-0.016453544
60	0x3ada2413	0.0016642831
61	0xbc12713a	-0.008938128
62	0x3d0934e6	0.033497714
63	0xbd1a38f1	-0.03765196

base_model.bn3.weight f4 [64]
0	0x3f8001cd	1.000055
1	0x3f8005c8	1.0001764
2	0x3f8008bf	1.0002669
3	0x3f800867	1.0002564
4	0x3f8008c0	1.000267
5	0x3f7ffcc6	0.99995077
6	0x3f80024d	1.0000702
7	0x3f7ffcaa	0.9999491
8	0x3f80028e	1.000078
9	0x3f80080a	1.0002453
10	0x3f8008c0	1.000267
11	0x3f7ffb4f	0.9999284
12	0x3f800891	1.0002614
13	0x3f8006d4	1.0002084
14	0x3f8006b7	1.0002049
15	0x3f800739	1.0002204
16	0x3f8002d1	1.000086
17	0x3f8000da	1.000026
18	0x3f800091	1.0000173
19	0x3f80084b	1.0002531
20	0x3f7ffa69	0.9999147
21	0x3f8004b8	1.000144
22	0x3f8008c0	1.000267
23	0x3f8007ab	1.000234
24	0x3f8007b5	1.0002352
25	0x3f7ffb79	0.9999309
26	0x3f8002ec	1.0000892
27	0x3f80060a	1.0001843
28	0x3f800605	1.0001837
29	0x3f8001ee	1.0000589
30	0x3f80054f	1.000162
31	0x3f80087f	1.0002593
32	0x3f80038f	1.0001086
33	0x3f80077f	1.0002288
34	0x3f8008a7	1.000264
35	0x3f7ff907	0.9998936
36	0x3f8008c0	1.000267
37	0x3f80072b	1.0002187
38	0x3f800771	1.0002271
39	0x3f800681	1.0001985
40	0x3f7ffce9	0.99995285
41	0x3f800239	1.0000678
42	0x3f8007a7	1.0002335
43	0x3f8007ab	1.000234
44	0x3f80010a	1.0000317
45	0x3f8005d7	1.0001782
46	0x3f8008b3	1.0002655
47	0x3f7ffa81	0.99991614
48	0x3f800787	1.0002297
49	0x3f8008c0	1.000267
50	0x3f7ffb6b	0.9999301
51	0x3f80089d	1.0002629
52	0x3f8008c0	1.000267
53	0x3f8001e1	1.0000573
54	0x3f80074c	1.0002227
55	0x3f80086a	1.0002568
56	0x3f8008b9	1.0002662
57	0x3f800072	1.0000136
58	0x3f8000b1	1.0000211
59	0x3f800761	1.0002252
60	0x3f80001c	1.0000033
61	0x3f80001b	1.0000032
62	0x3f800635	1.0001894
63	0x3f7ffb7d	0.99993116

base_model.bn3.bias f4 [64]
0	0xb907c7eb	-0.00012949079
1	0x38fbff89	0.0001201621
2	0x39084485	0.00012995496
3	0x3941f95d	0.0001849881
4	0x391d8ea9	0.00015025832
5	0xb897d240	-7.239403e-05
6	0x38f3705d	0.00011608072
7	0xb8b9a1f7	-8.851656e-05
8	0xb88035e9	-6.113557e-05
9	0x38190d28	3.6490295e-05
10	0xb8b06eb4	-8.412954e-05
11	0xb8a8476d	-8.024168e-05
12	0x3940b28b	0.0001837706
13	0x38e5565e	0.00010935658
14	0x392a6704	0.0001625084
15	0x39276cb9	0.00015966863
16	0x394702ce	0.00018979164
17	0x391cc76c	0.0001495161
18	0x389074ef	6.888236e-05
19	0x389fa626	7.6126584e-05
20	0xb8776ebd	-5.8992522e-05
21	0x380556db	3.179056e-05
22	0x3957db06	0.0002058559
23	0x390255ab	0.0001242968
24	0x38f649df	0.00011743954
25	0x3740fe4f	1.1503303e-05
26	0x3904ae1a	0.00012653359
27	0xb7ae466f	-2.0775215e-05
28	0x393e33b6	0.00018139076
29	0x37349010	1.0762378e-05
30	0x37843902	1.5762173e-05
31	0x393e29cb	0.00018135381
32	0x3915e5c6	0.00014295345
33	0x385d0aa1	5.2700405e-05
34	0x391196b3	0.00013884417
35	0xb8bf9d8a	-9.136934e-05
36	0x3943abe5	0.00018660685
37	0x38b9e6b9	8.864463e-05
38	0x394e76ea	0.0001968999
39	0x39056d58	0.00012724602
40	0x38b5e5ad	8.673533e-05
41	0x392b420f	0.0001633244
42	0xb76e7b43	-1.4214605e-05
43	0x39410692	0.00018408362
44	0xb82a7863	-4.0643277e-05
45	0x39242f3b	0.00015657854
46	0x39559b92	0.00020371217
47	0xb82e4aaa	-4.155437e-05
48	0x38c5efac	9.4383344e-05
49	0x394d029a	0.00019551293
50	0xb8a9292a	-8.0662154e-05
51	0x391cb616	0.00014945152
52	0x39407e5a	0.00018357616
53	0x3864d00c	5.4553195e-05
54	0x38abd1a5	8.192965e-05
55	0x392505d4	0.00015737797
56	0x39309214	0.00016839086
57	0xb7b82f90	-2.1956657e-05
58	0x393f3950	0.0001823653
59	0x39271fd0	0.00015938212
60	0xb90007f2	-0.00012209991
61	0x38e737d9	0.00011025341
62	0x38c0de71	9.1967064e-05
63	0x38bda9a5	9.043821e-05

base_model.bn3.running_mean f4 [64]
0	0x3d9ccba6	0.0765603
1	0x3de29425	0.110634126
2	0x3eb33938	0.35004592
3	0x3b37e2ce	0.002805877
4	0x3e52ee27	0.2059866
5	0x3e3812dc	0.17975944
6	0xbe539fb7	-0.20666395
7	0xbead7453	-0.3387781
8	0x3efb80e0	0.4912176
9	0x3d8c2b44	0.0684419
10	0x3dee54fc	0.11637303
11	0x3ece56f7	0.40300724
12	0x3e0a8554	0.13527423
13	0x3e5fadc1	0.21843626
14	0x3ebf8265	0.3740417
15	0xbe1d4496	-0.15358195
16	0x3ec77f0e	0.38964123
17	0x3f15f32f	0.58574194
18	0xbd6491e5	-0.0558032
19	0x3da043cb	0.078254305
20	0xbe3f2700	-0.18667221
21	0xbd6be003	-0.05758668
22	0x3e362a69	0.17789616
23	0xbd3314be	-0.043720953
24	0xbe039cb8	-0.12852752
25	0x3dc9baa6	0.098500535
26	0xbdc93acc	-0.09825668
27	0x3e08db5e	0.13364932
28	0xbe5bb643	-0.21456246
29	0x3e9c7eab	0.3056539
30	0xbed2df8d	-0.4118618
31	0xbddeb879	-0.10875029
32	0xbea63ac9	-0.32466725
33	0x3efa404c	0.4887718
34	0x3ef4e918	0.47834086
35	0xbe883ecf	-0.2661042
36	0x3b8ed697	0.004359077
37	0xbeb5a019	-0.35473707
38	0x3ea8d6b9	0.3297632
39	0xbe0536e9	-0.13009228
40	0xbf094053	-0.53613776
41	0xbea41b00	-0.3205185
42	0x3cd7a57d	0.026324028
43	0x3e4da4cc	0.20082396
44	0xbe5e18f5	-0.21689208
45	0xbdb58b75	-0.0886449
46	0x3c06cbe4	0.008227322
47	0xbf17f4fd	-0.593582
48	0x3eada28d	0.3391308
49	0xbeaecb27	-0.34139368
50	0x3edcd427	0.4313061
51	0x3cc3c23a	0.023896325
52	0xbe50512f	-0.20343469
53	0x3e18270e	0.14858648
54	0x3d8a7140	0.06759882
55	0xbe3d9a5b	-0.18515913
56	0x3e4d12c3	0.20026688
57	0x3e59c781	0.21267511
58	0x3ea5b004	0.32360852
59	0xbebce2bb	-0.36891732
60	0x3e945bad	0.28976193
61	0xbd8f8708	-0.07008177
62	0xbeb35838	-0.35028243
63	0xbe839911	-0.25702718

base_model.bn3.running_var f4 [64]
0	0x3db3a578	0.08771795
1	0x3da4199f	0.08012699
2	0x3dabc16e	0.08386503
3	0x3e0cf961	0.13767006
4	0x3e2cf1fa	0.16889182
5	0x3e4d9888	0.20077717
6	0x3dfa68d7	0.12227028
7	0x3dec21d5	0.115298904
8	0x3e12c3c4	0.14332491
9	0x3dc94cbe	0.098290905
10	0x3e4f3bad	0.20237608
11	0x3e9c57d2	0.30535752
12	0x3dd4d884	0.103928596
13	0x3d807f18	0.06274241
14	0x3dc3455c	0.095347136
15	0x3e157766	0.14596328
16	0x3e9af51c	0.3026513
17	0x3e4b3e9b	0.19848101
18	0x3dfebe99	0.12438697
19	0x3dd91df1	0.10601414
20	0x3de3b098	0.11117667
21	0x3dca4071	0.098755725
22	0x3df6d365	0.12052039
23	0x3db29d6a	0.087214306
24	0x3dbe1983	0.0928221
25	0x3e63429f	0.22193383
26	0x3db63add	0.08897946
27	0x3e09f9df	0.13474225
28	0x3e0e74a4	0.13911682
29	0x3e1b9048	0.15191758
30	0x3dbdde08	0.09270865
31	0x3d970c47	0.073753886
32	0x3d88f57b	0.06687447
33	0x3e41aab2	0.18912771
34	0x3de69ede	0.1126077
35	0x3e9de339	0.3083742
36	0x3d9eb97b	0.07750221
37	0x3deffaeb	0.11717781
38	0x3e6abd35	0.22923739
39	0x3e0ed085	0.13946731
40	0x3e5ff26d	0.21869822
41	0x3dcd2211	0.10016263
42	0x3dd06e50	0.101772904
43	0x3ec0a765	0.37627712
44	0x3e19a4a3	0.1500421
45	0x3e4618e2	0.1934543
46	0x3e39fbeb	0.18162505
47	0x3e3c44a0	0.18385553
48	0x3dbd18ea	0.092332676
49	0x3e2bb465	0.16768034
50	0x3e215785	0.15756042
51	0x3d9a986f	0.07548606
52	0x3d9fb74b	0.07798632
53	0x3e162a70	0.14664626
54	0x3db80edc	0.08987209
55	0x3e2ff8a7	0.17184697
56	0x3ddd23ed	0.10797868
57	0x3e6304b0	0.22169757
58	0x3d91e5b2	0.07123889
59	0x3e07d0b6	0.1326321
60	0x3d838a27	0.06422835
61	0x3da0c16d	0.07849393
62	0x3dafbede	0.08581327
63	0x3dda3ecb	0.10656508

base_model.fc.weight f4 [3, 50176]
0	0xbb570fde	-0.0032815854
1	0x39d39ed1	0.00040363384
2	0xba66f1ed	-0.00088098535
3	0x3b4706e2	0.0030369093
4	0xba17ed6b	-0.0005795571
5	0x3b49db77	0.0030800977
6	0xbaef67f3	-0.0018265232
7	0xbb10deca	-0.002210545
8	0xb98b3fdb	-0.00026559722
9	0xbacfce2a	-0.0015854288
10	0xbb91531d	-0.0044349567
11	0xba41f7b3	-0.0007399276
12	0xbb5c766a	-0.0033639916
13	0xbb04a07b	-0.0020237255
14	0xbb84469e	-0.0040367385
15	0x3b217504	0.0024636397
16	0xba9776fa	-0.0011555844
17	0xb9f2adbb	-0.00046287276
18	0xbb79da9d	-0.0038124688
19	0xbaed5cd8	-0.0018109335
20	0xbb70b40f	-0.0036728417
21	0xbb12812d	-0.0022354827
22	0xbb801e4b	-0.003909861
23	0xb89c5e51	-7.4562275e-05
24	0xba8b2218	-0.0010615019
25	0xbb0b0b51	-0.0021216462
26	0xba8193be	-0.000988595
27	0xbb45c6fd	-0.003017842
28	0x3b845c65	0.0040393346
29	0xba9eded7	-0.0012120855
30	0x3867bb30	5.5249024e-05
31	0xbae0e365	-0.0017157613
32	0xbae9a33c	-0.0017825137
33	0x3b438efe	0.0029839869
34	0x39809c83	0.00024530673
35	0xbb280c03	-0.0025641925
36	0xba33d498	-0.0006859987
37	0x3af1a46c	0.0018435842
38	0xba67c25d	-0.0008840913
39	0xba5a2e75	-0.00083229627
40	0xbadec1ff	-0.0016995071
41	0xbaebd250	-0.0017991755
42	0xbb1b2a5f	-0.0023676378
43	0x3b2927b8	0.0025811028
44	0x3ab16a97	0.0013535795
45	0x3a8c6ddb	0.0010713892
46	0x3b230184	0.002487273
47	0xb8c4e6c8	-9.388995e-05
48	0xba99a0f1	-0.0011720938
49	0x3ab78d9a	0.0014003993
50	0x392a6d81	0.00016253257
51	0x3b85a991	0.004079052
52	0xbb7be193	-0.0038434013
53	0x3b62a223	0.0034581504
54	0xb9b37fb1	-0.00034236678
55	0xb93dcdc1	-0.00018101094
56	0x39d9a2ea	0.00041510846
57	0x3a40c1b1	0.0007353081
58	0xb87909a4	-5.9375205e-05
59	0x3b2893d8	0.0025722887
60	0x3a637723	0.00086771155
61	0xbb0bbc9a	-0.0021322132
62	0xba360feb	-0.0006945121
63	0x3b0d50af	0.0021562984
64	0xbb8cfdec	-0.004302731
65	0x3b774f3f	0.0037736443
66	0x3ad91087	0.0016560712
67	0x3b8648a8	0.004098017
68	0xbb72f629	-0.0037072992
69	0x3a163c61	0.0005731043
70	0x3b628aba	0.003456755
71	0x3a7c5273	0.0009625323
72	0xbb11f76e	-0.0022272724
73	0xbb8476a9	-0.0040424657
74	0x3ac03e42	0.0014666992
75	0x3b4c018c	0.0031128852
76	0x3b22786f	0.0024791022
77	0x3a0fed9e	0.0005490425
78	0x3b8228c4	0.003972145
79	0x3b01e99c	0.001982308
80	0x3af1b924	0.0018442017
81	0x3a9bfc7e	0.001190081
82	0xbb3ad8b4	-0.0028510513
83	0x3a27d569	0.0006402345
84	0xbb07f4be	-0.0020745243
85	0x3b250fcd	0.002518642
86	0xb8f48ad8	-0.00011660688
87	0xbb16d6b3	-0.0023016154
88	0xbb5b78fb	-0.0033488858
89	0x3b4c1ce5	0.0031145152
90	0x3a8fb9f7	0.0010965456
91	0xbad2c51f	-0.0016080475
92	0x3b5228fb	0.0032067883
93	0x396e53b2	0.00022728628
94	0xbb80b2a4	-0.0039275456
95	0x3b8887bb	0.004166571
96	0x3b191117	0.0023356134
97	0xbb84cce9	-0.0040527475
98	0xbae784ae	-0.0017663443
99	0xbb5ad260	-0.0033389553
100	0x3b711af7	0.0036789754
101	0xbabded78	-0.0014490327
102	0x3b7b4000	0.0038337708
103	0xb9e5ca8f	-0.00043829202
104	0x3b873214	0.004125843
105	0x3b019ee6	0.0019778549
106	0x3b89607a	0.004192409
107	0x3b48b79f	0.0030627025
108	0xbb837195	-0.004011343
109	0x3ae029b4	0.0017102272
110	0xbaeb9afd	-0.0017975267
111	0x3b71531e	0.0036823223
112	0xbb585662	-0.0033010473
113	0xbb799994	-0.0038085924
114	0xbae43dda	-0.0017413453
115	0xbad1f5e4	-0.0016018716
116	0x3ae8ed19	0.0017770856
117	0xbabde519	-0.0014487832
118	0x3a857ae7	0.0010183722
119	0x3b882e0f	0.0041558812
120	0x3a5c3efc	0.00084017194
121	0x3b7cb8c4	0.0038562277
122	0xbb3b6fa1	-0.0028600472
123	0x3a9e7865	0.0012090324
124	0xbb61b3e5	-0.00344395
125	0x3ad470e5	0.0016207962
126	0x3b648dd3	0.0034874573
127	0xbb96e074	-0.0046043936
128	0xbb21cc6f	-0.0024688502
129	0xba5707ac	-0.00082027423
130	0x3b236c5a	0.0024936409
131	0xbb315c83	-0.0027063198
132	0xbb1bcfd3	-0.0023774996
133	0xbb201cbe	-0.0024431194
134	0xb6861473	-3.995892e-06
135	0x390d93ea	0.0001350191
136	0x3a77e47b	0.00094563485
137	0x3a89bea1	0.0010509082
138	0xbb190e48	-0.002335446
139	0xbab3f080	-0.0013728291
140	0xbb4b61ad	-0.003103356
141	0xbb014597	-0.0019725317
142	0xbb870309	-0.004120235
143	0xbabf2200	-0.0014582276
144	0x3b840095	0.0040283897
145	0x3b74d636	0.0037359125
146	0xbb7da777	-0.0038704553
147	0x3abd6c01	0.0014451743
148	0xbb902b68	-0.0043997057
149	0x3b895320	0.0041908175
150	0x3b2f1827	0.0026717277
151	0xba7dd2f8	-0.0009682621
152	0xbaffc573	-0.00195138
153	0x3aa0020a	0.0012207639
154	0xbb47bd57	-0.0030477846
155	0x3b723184	0.0036955783
156	0x3a181d94	0.00058027473
157	0x3a478131	0.00076104986
158	0xbb88047a	-0.0041509243
159	0xbb5fb838	-0.0034136903
160	0xbaa702c9	-0.0012741919
161	0x3a9df680	0.0012051612
162	0x3b361031	0.0027780647
163	0x3b450a78	0.0030066054
164	0x3b79caa4	0.0038115168
165	0x39e034fc	0.00042764086
166	0x3acad8c6	0.001547598
167	0x3b1df2b9	0.0024100973
168	0x3aba4ca3	0.0014213513
169	0xbb642aab	-0.003481547
170	0x3ac7e619	0.001525107
171	0x3a668a80	0.0008794442
172	0xbaff4590	-0.0019475687
173	0x39e7fe25	0.00044249106
174	0x3a57ad98	0.00082274666
175	0xbb314071	-0.0027046467
176	0xba466c68	-0.00075692544
177	0x3a5a11de	0.00083187025
178	0x3ac67b5a	0.0015142963
179	0x3add3df5	0.0016879427
180	0xbb39072f	-0.0028233042
181	0x3b83d651	0.0040233512
182	0xba3da8cd	-0.0007234931
183	0xbb336782	-0.0027374928
184	0x3a0c82e2	0.0005360079
185	0x3b3d95fd	0.0028928511
186	0xbb93577e	-0.004496514
187	0x3a500085	0.0007934648
188	0x3b870664	0.004120635
189	0xb98978fa	-0.0002622081
190	0x3b3234bb	0.0027192074
191	0xbb3c9ffa	-0.0028781877
192	0x3b90eef5	0.004423017
193	0x3ac952ac	0.0015359721
194	0x3b7ad92b	0.0038276415
195	0x3b8feb49	0.004392062
196	0xba8b44ce	-0.0010625364
197	0xbb65ff60	-0.0035094842
198	0x3a105fa5	0.0005507416
199	0xbb82b53d	-0.0039888904
200	0xbaacb592	-0.0013176671
201	0x3b16941f	0.002297647
202	0xbafe2aeb	-0.0019391453
203	0xbaf9bc3e	-0.0019053293
204	0xbb219a8a	-0.0024658763
205	0xbae5c1b1	-0.0017529038
206	0x3b28b7d4	0.0025744336
207	0xbae900f4	-0.0017776773
208	0x3a4cb7b3	0.0007809356
209	0x39991e8d	0.00029205196
210	0xbb78bf50	-0.0037955828
211	0xba6250df	-0.00086332666
212	0x3b8b3587	0.0042483243
213	0x3b2ed8c6	0.00266795
214	0xb9ce9df1	-0.00039409057
215	0x3b25a9e3	0.0025278262
216	0x3b7ac9fa	0.003826736
217	0xb9a381af	-0.00031186405
218	0xbaa2c9f7	-0.0012419809
219	0x3ae430bd	0.0017409545
220	0xba7c375e	-0.00096212875
221	0x3aa40e9b	0.001251656
222	0xba659990	-0.00087585393
223	0x3ad5a830	0.0016300734
224	0xbb48f35e	-0.0030662636
225	0x3b7091de	0.0036708037
226	0xbb68e9fc	-0.0035539856
227	0x3b24bf06	0.0025138273
228	0x39a95c8b	0.00032303142
229	0x3b7d3017	0.00386334
230	0xbb77017e	-0.0037690098
231	0x3b71f03e	0.0036916877
232	0xbb0833ce	-0.002078283
233	0xbac49d6d	-0.001500053
234	0xbb38944b	-0.0028164561
235	0xbb6822c9	-0.0035421124
236	0xbb339182	-0.0027399962
237	0x3b84bc25	0.004050749
238	0x3b01808c	0.0019760458
239	0xbae16fb6	-0.001719943
240	0xbb85f292	-0.0040877545
241	0xbb8511dd	-0.0040609674
242	0xbb895406	-0.0041909246
243	0x3a3084e7	0.0006733671
244	0xba91446e	-0.0011083016
245	0x3b83a34c	0.0040172692
246	0x3ae117b6	0.0017173204
247	0x3a836454	0.0010024407
248	0xbaf35aa0	-0.0018566437
249	0x3b5192be	0.0031978334
250	0x3a31fae3	0.0006789399
251	0xba2375bc	-0.00062355003
252	0x3b5f7528	0.003409693
253	0x3b526ab3	0.0032107055
254	0x3b59d74b	0.0033239897
255	0x3b3896dc	0.002816609

base_model.fc.bias f4 [3]
0	0x3b0e9e25	0.0021761742
1	0x3b082fe5	0.00207805
2	0x378c359a	1.671426e-05
