face_recognition_custom_model_dict.pt (torch, 699677 bytes, 8 tensors)

base_model.conv1.weight f4 [16, 3, 3, 3]
0.006179606 -0.06421823 -0.18780512 0.044208426 -0.12280307 -0.035091974 -0.09625537 0.12668234
0.05597402 -0.15027842 -0.009415488 -0.12330361 -0.086579144 0.07128614 -0.060010545 -0.036099274
0.112078026 0.007222253 0.043147102 -0.15109362 0.12005119 0.047254425 -0.1591537 -0.21816988
-0.08095911 -0.2211719 -0.017389271 0.05186852 -0.35297692 -0.4122375 -0.0069047557 -0.32445893
-0.19469844 -0.23020269 -0.09556231 -0.06508067 0.061112437 -0.41263992 -0.33008966 0.044756036
-0.081525035 -0.3449576 -0.35658842 -0.08802832 -0.2834244 0.03588431 -0.31895745 -0.049368
-0.03518104 -0.25444248 -0.27457958 0.010822035 -0.12871261 -0.35391858 0.06164743 -0.19684602
-0.0623839 -0.13214363 -0.24382424 0.097851776 0.09509999 0.05262634 -0.09734084 -0.13446958
-0.12571019 0.060706366 0.10235809 0.09607999 -0.10340949 0.005724757 -0.0917346 -0.0027416816
-0.028747927 -0.22333 0.08925334 -0.16970356 -0.080240786 -0.17581543 -0.12791167 0.08495573
0.07869752 0.11829411 -0.21354178 0.112387836 -0.1700754 -0.06032325 0.10679558 -0.020370651
0.022996955 -0.0026929965 -0.20489886 -0.13168778 -0.10590115 -0.05082974 -0.047906417 -0.16955087
0.08075073 -0.030827973 0.030034605 0.0073651066 -0.2303436 -0.019646933 -0.22768332 -0.0044978335
0.12873194 -0.010473959 0.04077339 0.03274863 -0.101134226 -0.0610606 -0.05068399 0.074266955
0.023077605 0.100491986 -0.17312244 -0.17835774 -0.19076677 0.08191752 -0.14948504 0.06198347
-0.09954016 -0.22753248 -0.115568824 -0.06752872 0.008044892 -0.25198475 -0.22998506 0.0356755
-0.09310383 -0.10167463 -0.21028279 0.04433191 0.08953514 -0.12421953 0.111695394 -0.2404002
-0.19208613 0.044856086 -0.1769945 0.017552717 -0.16357256 -0.2244635 -0.031878248 0.038011476
-0.17626598 -0.08504415 -0.02333362 0.124232404 -0.026220912 -0.05313403 -0.15743192 -0.08769993
0.016584557 0.1011845 -0.13805544 0.08300627 -0.19783987 0.0017554922 -0.24894527 0.12272428
0.06731677 0.048181508 -0.09950278 0.02987522 -0.0729707 0.02952954 0.085746124 0.119553454
-0.029250048 0.045425475 -0.16317637 0.03820053 -0.041040476 -0.044752054 -0.18158405 0.07774119
-0.22342819 -0.14162095 0.13890336 0.1363995 0.06541214 -0.15775928 0.14454481 -0.093712434
-0.07390097 0.08637532 -0.05808944 -0.056967888 0.0025787973 0.13281277 0.091016114 -0.18275654
-0.0374383 -0.07599184 -0.0057339254 -0.023730932 0.023603167 -0.16437507 -0.08270965 -0.025382044
-0.18781179 -0.0067353537 -0.2213403 -0.08079245 -0.094582915 0.050956033 -0.16632833 -0.12296289
0.074132726 0.051121745 0.12887736 -0.0816022 -0.037357517 -0.15836346 0.09015687 0.12813528
0.0743587 0.019256435 -0.16738522 -0.15425125 -0.09554923 0.04742267 -0.07711183 -0.08281152
-0.011438456 0.011883564 -0.0950048 -0.16876116 0.11413446 -0.16179316 0.11238217 -0.23272946
-0.20643434 -0.11468124 0.05685481 0.023799531 -0.038122684 -0.034332838 -0.06178255 -0.20559236
-0.11706481 -0.014032021 -0.14623961 0.10626869 -0.1089125 -0.11877617 -0.17722592 0.02515072
0.11455673 0.110102825 -0.24142112 -0.081354216 -0.10854236 -0.11411717 -0.23777245 0.13212359
00000000: 4b7e ca3b d984 83bd fc4f 40be e513 353d
00000010: 2d80 fbbd 9abc 0fbd 8921 c5bd 04b9 013e
00000020: 0445 653d 96e2 19be 6b43 1abc 9a86 fcbd
00000030: 6850 b1bd 78fe 913d 9ecd 75bd d5dc 13bd
00000040: 2a89 e53d a6a8 ec3b 04bb 303d 49b8 1abe
00000050: 66dd f53d db8d 413d 30f9 22be ed67 5fbe
00000060: e4cd a5bd e37a 62be f273 8ebc 1674 543d
00000070: 64b9 b4be cb10 d3be 4a41 e2bb 7b1f a6be
00000080: 075f 47be 41ba 6bbe 2cb6 c3bd 0449 85bd
00000090: 0951 7a3d 8a45 d3be 8301 a9be 1b52 373d
000000a0: 99f6 a6bd 489e b0be c292 b6be 3148 b4bd
000000b0: 011d 91be 6dfb 123d 644e a3be 1a36 4abd
000000c0: ff19 10bd 4946 82be b295 8cbe e84e 313c
000000d0: 3dcd 03be d134 b5be 0482 7c3d 0192 49be
000000e0: 4386 7fbd a950 07be 10ad 79be 8366 c83d
000000f0: c9c3 c23d b88e 573d a25a c7bd 65b2 09be
00000100: 2cba 00be 3da7 783d 1ea1 d13d 96c5 c43d
00000110: 5bc8 d3bd be96 bb3b 5adf bbbd c9ad 33bb
00000120: c680 ebbc 9fb0 64be 75ca b63d c5c6 2dbe
00000130: 4855 a4bd f608 34be 47fb 02be 45fd ad3d
00000140: 2a2c a13d 2f44 f23d b2aa 5abe 982b e63d
00000150: 3f28 2ebe 8315 77bd a4b7 da3d 5ae0 a6bc
00000160: 1c64 bc3c fc7c 30bb 02d1 51be 29d9 06be
00000170: b4e2 d8bd d832 50bd 8539 44bd be9e 2dbe
00000180: a460 a53d f28a fcbc 220b f63c fe56 f13b
00000190: 31df 6bbe 9bf2 a0bc d125 69be 9062 93bb
000001a0: 4ed2 033e f89a 2bbc 0002 273d 6d23 063d
000001b0: 761f cfbd ae1a 7abd 049a 4fbd 4619 983d
000001c0: 3f0d bd3c bece cd3d 0247 31be 69a3 36be
000001d0: 5d58 43be 5fc4 a73d 9b12 19be 61e2 7d3d
000001e0: b6db cbbd 46fe 68be 59af ecbd 7f4c 8abd
000001f0: b9ce 033c 2504 81be 3481 6bbe 7920 123d
00000200: 39ad bebd ca3a d0bd 5f54 57be 6095 353d
00000210: 335e b73d cf66 febd 8ec0 e43d 782b 76be
00000220: 3ab2 44be 04bb 373d 0c3e 35be b7ca 8f3c
00000230: 917f 27be c2d9 65be c492 02bd ecb1 1b3d
00000240: 127f 34be a12b aebd 2626 bfbc 8f6d fe3d
00000250: 3dcd d6bc 12a3 59bd d535 21be 059c b3bd
00000260: 56dc 873c d239 cf3d 685e 0dbe 31ff a93d
00000270: 8996 4abe 8b18 e63a 82eb 7ebe de56 fb3d
00000280: 60dd 893d f959 453d 1dc8 cbbd e1bc f43c
00000290: aa71 95bd efe7 f13c aa9b af3d 71d8 f43d
000002a0: cc9d efbc 1010 3a3d b517 27be 2978 1c3d
000002b0: 0f1a 28bd ee4d 37bd 2bf1 39be c636 9f3d
000002c0: 5cca 64be 1505 11be af3c 0e3e 4fac 0b3e
000002d0: cdf6 853d a68b 21be 8e03 143e 4eec bfbd
000002e0: 6459 97bd 8be5 b03d 31ef 6dbd 2957 69bd
000002f0: 0a01 293b 1200 083e a866 ba3d 8824 3bbe
00000300: e758 19bd 9ca1 9bbd a7e3 bbbb 5f67 c2bc
00000310: 6e5b c13c f051 28be ad63 a9bd 01ee cfbc
00000320: bc51 40be 3eb4 dcbb 08a7 62be 8376 a5bd
00000330: b0b4 c1bd 46b7 503d f951 2abe f8d3 fbbd
00000340: e6d2 973d 0965 513d 6df8 033e 0e1f a7bd
00000350: 3204 19bd 082a 22be 2aa4 b83d e535 033e
00000360: 6049 983d acbf 9d3c 0867 2bbe 0af4 1dbe
00000370: 51af c3bd 463e 423d cfec 9dbd 1699 a9bd
00000380: 5d68 3bbc 48b3 423c e091 c2bd bacf 2cbe
00000390: 54bf e93d 1bad 25be a028 e63d a250 6ebe
000003a0: 8663 53be ffdd eabd 97e0 683d 3cf7 c23c
000003b0: 8826 1cbd 97a0 0cbd b30f 7dbd ce86 52be
000003c0: adbf efbd 90e6 65bc d6bf 15be 66a3 d93d
000003d0: 840d dfbd ec40 f3bd b67a 35be e208 ce3c
000003e0: b89c ea3d 977d e13d 1937 77be 0a9d a6bd
000003f0: 754b debd 43b6 e9bd 9f7a 73be 684b 073e

base_model.conv1.bias f4 [16]
-0.16406868 -0.2885105 -0.09749709 -0.20114425 -0.0010085222 0.014759568 -0.0077054133 -0.23268774
-0.015958983 0.0734413 -0.104087055 -0.2473605 -0.08815367 0.09454667 -0.15410905 -0.60341954
00000000: 9f01 28be a6b7 93be 8eac c7bd c2f8 4dbe
00000010: 6430 84ba 1dd2 713c b17d fcbb b245 6ebe
00000020: 6abc 82bc 6468 963d 982b d5bd 124c 7dbe
00000030: e989 b4bd afa1 c13d c3ce 1dbe b479 1abf

base_model.conv2.weight f4 [32, 16, 3, 3]
0.14338648 0.14717807 0.06960722 0.012314308 -0.11759522 -0.014297828 -0.14438136 -0.09131122
0.00070882787 0.02484615 -0.0022561576 -0.04543926 0.03799149 -0.07442315 -0.117762595 0.023249218
0.031918056 -0.052508943 0.036723055 0.045608766 0.03558146 -0.10962822 -0.06182298 -0.030308489
-0.03711422 -0.004027798 -0.0005339704 -0.051216934 -0.011971616 0.0057548513 -0.051293775 -0.0476
-0.098221816 -0.08044386 -0.0708514 -0.12553115 -0.050637797 0.027394103 -0.1135901 -0.09140256
-0.0979343 -0.123674326 -0.04171607 -0.15635285 0.005824319 -0.10747438 -0.039873846 -0.116114296
-0.1200118 -0.0021166392 -0.08184655 -0.028647505 -0.0949261 -0.063891485 -0.017375614 0.050219923
-0.08869089 -0.06969595 0.005395025 -0.12518616 -0.0786459 -0.05074393 0.014741453 0.08607063
-0.0019241121 0.006978903 -0.03132986 0.025670357 -0.12539993 -0.10740774 -0.112781845 -0.11709619
0.026371432 0.00024698427 -0.07687068 -0.07901925 -0.04474875 -0.04245895 -0.03054784 -0.0854824
-0.090164915 -0.033911295 -0.20906197 -0.07183651 -0.040031377 -0.05679228 0.0014710514 0.013679673
-0.043373235 -0.1059702 -0.40116274 -0.400052 -0.4889288 -0.15038529 -0.12847865 0.01898301
-0.12171078 -6.853528e-05 -0.14978936 -0.09753657 -0.06730581 0.016469585 0.07375191 0.0062458497
0.12080513 -0.04124592 -0.11516173 0.02280007 0.09392823 -0.009785745 -0.018913813 -0.018341186
-0.05926758 -0.07838523 -0.038164135 0.0139972055 -0.08041421 -0.027325863 -0.21895486 -0.20358133
-0.06704288 -0.20420402 -0.16947235 -0.18078768 -0.21548373 -0.104502335 0.09343707 -0.05996626
-0.04271084 -0.099713445 -0.08560056 0.01891006 0.004489694 0.026928479 0.029335236 0.06959231
-0.16378891 -0.60334873 -0.14057787 -0.12874927 -0.0042227022 -0.094573855 0.005464029 -0.0885719
-0.095387734 -0.03351024 -0.06913068 -0.047023814 -0.043263283 -0.1468243 -0.122595675 0.14315327
0.070071645 -0.043463893 -0.025891379 -0.052074246 0.046175014 -0.13898215 -0.13262922 0.039550252
-0.07126218 -0.06101943 -0.057653334 -0.0101771625 0.0014553465 0.012373315 -0.11122253 -0.10015449
-0.08395716 -0.09558437 -0.07967175 -0.05182787 0.0118342405 -0.09941434 0.009083039 -0.0033297879
0.010004668 -0.017305356 0.07515647 -0.026949778 -0.0024962611 -0.1483318 -0.05112111 0.03679263
-0.032405272 -0.0382906 -0.09840606 -0.11565563 -0.032725412 -0.014615684 -0.09224421 -0.03661428
-0.039128438 -0.09382239 -0.04907386 -0.11457155 0.0015002494 -0.096719205 -0.00440979 0.0027356783
-0.016436726 -0.12399173 -0.0077022817 -0.06449641 -0.14596516 -0.00023625499 0.010595765 -0.028989255
-0.13330093 -0.08756286 -0.07351468 0.008247064 -0.13764636 -0.12572527 0.077639654 -0.01902808
-0.09096581 -0.13546349 -0.07452817 -0.013196343 0.028704375 -0.047622234 -0.09400234 -0.021106752
0.017541427 -0.095785655 -0.04670396 -0.019162145 -0.05725981 -0.13390085 -0.10930367 -0.12660238
-0.06808712 -0.0056013567 -0.051350895 0.018516328 -0.11195554 0.034672882 -0.0685242 -0.101900056
0.022146476 -0.06281575 -0.053355146 -0.0068362323 -0.054300014 -0.04789661 -0.005845774 0.03515384
-0.081168614 0.062253576 0.010418835 0.048681464 -0.014997369 -0.0059004566 -0.08254371 -0.111870036
00000000: e8d3 123e d9b5 163e 3b8e 8e3d f4c1 493c
00000010: c3d5 f0bd 7041 6abc b5d8 13be 6001 bbbd
00000020: a2d0 393a 278a cb3c 0bdc 13bb 841e 3abd
00000030: f79c 1b3d 2a6b 98bd 842d f1bd 2575 be3c
00000040: 82bc 023d 9e13 57bd ea6a 163d 42d0 3a3d
00000050: ddbd 113d c384 e0bd 183a 7dbd 8249 f8bc
00000060: 1505 18bd 9efb 83bb 26fa 0bba d9c8 51bd
00000070: 9924 44bc 3193 bc3b 6c19 52bd 38f8 42bd
00000080: 8528 c9bd c0bf a4bd 8a1a 91bd 3d8b 00be
00000090: 9469 4fbd 9969 e03c eda1 e8bd 4431 bbbd
000000a0: c791 c8bd f748 fdbd 78de 2abd f61a 20be
000000b0: eed9 be3b 871b dcbd c252 23bd 55cd edbd
000000c0: bfc8 f5bd 50b7 0abb 2a9f a7bd 2cae eabc
000000d0: 9d68 c2bd 8ad9 82bd 4e57 8ebc 68b3 4d3d
000000e0: 92a3 b5bd c0bc 8ebd c0c8 b03b cd30 00be
000000f0: 1a11 a1bd ded8 4fbd 2386 713c cc45 b03d
00000100: 7d32 fcba 48af e43b bd53 00bd a44a d23c
00000110: d768 00be 97f8 dbbd 2bfa e6bd 21d0 efbd
00000120: e708 d83c ab7d 8139 606e 9dbd d8d4 a1bd
00000130: 774a 37bd 70e9 2dbd 773f fabc 6611 afbd
00000140: 62a8 b8bd 92e6 0abd 5714 56be 051f 93bd
00000150: f1f7 23bd 069f 68bd 4bd0 c03a b520 603c
00000160: 22a8 31bd e706 d9bd 3465 cdbe 9ed3 ccbe
00000170: e054 fabe 9afe 19be e88f 03be 4282 9b3c
00000180: 8043 f9bd 99ba 8fb8 6262 19be 41c1 c7bd
00000190: a1d7 89bd 39eb 863c 3e0b 973d fca9 cc3b
000001a0: ae68 f73d 7bf1 28bd ead9 ebbd 36c7 ba3c
000001b0: 725d c03d 6454 20bc 24f1 9abc 4140 96bc
000001c0: 90c2 72bd 6f88 a0bd ff51 1cbd 8954 653c
000001d0: 35b0 a4bd 7dda dfbc b435 60be a077 50be
000001e0: c74d 89bd dc1a 51be 298a 2dbe 6820 39be
000001f0: c4a7 5cbe 5205 d6bd ef5b bf3d 2e9f 75bd
00000200: 90f1 2ebd 9036 ccbd 594f afbd 45e9 9a3c
00000210: 481e 933b 1d99 dc3c 7350 f03c 6a86 8e3d
00000220: 48b8 27be 1075 1abf a5f3 0fbe d9d6 03be
00000230: 985e 8abb f0af c1bd 990b b33b 2f65 b5bd
00000240: a55a c3bd 0942 09bd 6394 8dbd 0b9c 40bd
00000250: d734 31bd 1c59 16be 7113 fbbd c596 123e
00000260: b981 8f3d 3207 32bd 281a d4bc ce4b 55bd
00000270: 0322 3d3d 5651 0ebe f4cf 07be 72ff 213d
00000280: e8f1 91bd 83ef 79bd e725 6cbd 1dbe 26bc
00000290: 53c1 be3a 72b9 4a3c a3c8 e3bd cc1d cdbd
000002a0: bbf1 abbd bdc1 c3bd f12a a3bd 7649 54bd
000002b0: 67e4 413c bf99 cbbd 07d1 143c 9238 5abb
000002c0: 9eea 233c f6c3 8dbc a3eb 993d c8c5 dcbc
000002d0: 5098 23bb 4be4 17be 5e64 51bd deb3 163d
000002e0: 64bb 04bd 9bd6 1cbd 1e89 c9bd dcdc ecbd
000002f0: 150b 06bd 9f76 6fbc 88ea bcbd dbf8 15bd
00000300: 2445 20bd f425 c0bd ac01 49bd 7da4 eabd
00000310: 04a4 c43a b814 c6bd 0080 90bb 1149 333b
00000320: 50a6 86bc 60ef fdbd 6c63 fcbb b216 84bd
00000330: e477 15be 37bb 77b9 dc99 2d3c e07a edbc
00000340: 0a80 08be 2854 b3bd dd8e 96bd b21e 073c
00000350: 2bf3 0cbe 20be 00be 8a01 9f3d c7e0 9bbc
00000360: 484c babd f1b6 0abe 3aa2 98bd 7935 58bc
00000370: 7025 eb3c 880f 43bd 4d84 c0bd 11e8 acbc
00000380: 0ab3 8f3c 452b c4bd a74c 3fbd eef9 9cbc
00000390: 4389 6abd 4e1d 09be 9ada dfbd 0ea4 01be
000003a0: 4371 8bbd 968b b7bb 5155 52bd 8eaf 973c
000003b0: f248 e5bd 2705 0e3d 6a56 8cbd fab0 d0bd
000003c0: 876c b53c 8ba5 80bd ed8a 5abd 7902 e0bb
000003d0: b169 5ebd 3c2f 44bd e88d bfbb 79fd 0f3d
000003e0: bb3b a6bd 9bfd 7e3d c3b3 2a3c 3766 473d
000003f0: 86b7 75bc 9e58 c1bb ad0c a9bd 1e1c e5bd

base_model.conv2.bias f4 [32]
-0.0976365 -0.031811327 -0.13593693 -0.041231964 0.34157366 -0.06499144 -0.24021189 0.2779441
-0.07266192 -0.048902437 -0.16442588 -0.05307884 -0.079058 -0.015399373 -0.033076625 0.006430756
-0.072735816 -0.1857349 -0.11838161 -0.1516377 -0.118919164 0.106650464 -0.117982425 -0.037930094
-0.1047131 -0.032135945 -0.07392007 -0.11767293 -0.043323383 -0.11277679 -0.01890031 -0.008845695
00000000: a5f5 c7bd 984c 02bd 0d33 0bbe d9e2 28bd
00000010: bee2 ae3e 3b1a 85bd 1bfa 75be b04e 8e3e
00000020: c6cf 94bd ec4d 48bd 425f 28be 3369 59bd
00000030: 29e9 a1bd a74d 7cbc 5b7b 07bd 17b9 d23b
00000040: 84f6 94bd 4a31 3ebe 0f72 f2bd ea46 1bbe
00000050: e48b f3bd 8f6b da3d c5a0 f1bd 965c 1bbd
00000060: d273 d6bd fba0 03bd 6863 97bd 81fe f0bd
00000070: dc73 31bd 85f7 e6bd d3d4 9abc 89ed 10bc

base_model.conv3.weight f4 [64, 32, 3, 3]
-0.05030465 -0.079517215 -0.0002792883 0.04057188 0.076873206 0.09758207 -0.0016300443 0.036236107
0.08725182 -0.015081252 -0.04023681 -0.07084716 0.013696747 -0.047064975 -0.03633824 -0.009957387
-0.044777915 -0.09105386 -0.09928355 -0.039840564 -0.032893933 -0.025915919 -0.035002057 -0.007506864
-0.018754683 -0.036594663 -0.014403921 -0.06775885 -0.036245007 -0.08434739 -0.056931186 -0.035597693
-0.12388513 -0.009892788 -0.036575854 -0.06575059 -0.0672358 -0.067085795 -0.033418726 -0.05221228
-0.03223409 -0.06664622 -0.044589635 0.00021358936 -0.1262637 -0.051848844 -0.013189758 -0.020504523
-0.027520394 -0.005722246 -0.10283353 -0.0913624 -0.101855375 0.004476074 0.09468614 -0.0054530837
0.009253285 0.060570005 0.013778462 -0.041018255 0.10067953 -0.056803714 -0.072880164 -0.099233344
-0.049320072 -0.010698794 -0.100983985 -0.073462196 -0.055613708 -0.12070379 -0.05487367 -0.03210765
-0.05027139 -0.04124845 -0.009973112 -0.0863988 -0.06484149 -0.058067106 -0.020456655 -0.028125834
-0.096650995 -0.024476247 -0.12357063 -0.106118225 0.049073633 -0.0078067402 -0.013060862 0.04902219
-0.062464878 -0.049728062 -0.01665987 0.069757156 0.055564474 0.06655 0.032660607 0.11733631
0.12826788 0.031088462 0.095411725 0.080651075 0.020395217 0.032168377 0.060396563 0.025570964
0.023159653 0.060013443 0.008787032 0.021371169 0.04098221 -0.08776856 -0.061163433 0.06899019
-0.015042981 -0.093456045 -0.0071764234 -0.10218113 -0.054264225 -0.09948895 0.002462877 -0.0068036127
-0.058056835 -0.07084035 0.0035056544 -0.0129724555 0.011716499 -0.080229655 -0.10447537 -0.10148346
-0.057400886 -0.044934254 -0.0030058562 -0.081659384 -0.097721435 -0.04829742 -0.060366362 -0.029057113
-0.06886266 -0.092073224 -0.10042212 0.012749714 -0.06139055 -0.056553558 -0.013732251 -0.07734605
-0.09932178 -0.12302112 -0.068965636 -0.047022223 -0.038047552 -0.09255208 -0.041204337 -0.043123104
-0.010053192 -0.07930403 -0.021788329 -0.08061286 -0.01986671 -0.1151449 -0.06944133 -0.07766056
-0.09489032 -0.113876745 -0.031772174 0.011928696 -0.0015119422 -0.082344025 -0.051745787 -0.06180654
-0.07129456 -0.071683705 -0.030436603 -0.088844225 -0.107645065 -0.060250778 -0.00906577 -0.06984768
-0.012661964 -0.08270784 0.0016321783 -0.050913397 -0.023595728 -0.05763751 -0.030458182 -0.07210195
-0.04648114 -0.05851136 -0.07546842 -0.027980933 -0.0729182 -0.06888975 -0.08830672 -0.026446408
0.003116463 -0.035375442 -0.082354784 -0.023105308 -0.03792971 -0.008795348 -0.04552692 0.009005753
0.0052930843 -0.083129615 -0.00120897 -0.06571007 -0.10313331 0.008983369 -0.07748477 0.06218236
0.10796523 0.02707861 0.08764826 0.061034393 0.047164354 -0.015896482 -0.06561234 -0.061844643
-0.09513591 0.0028825416 -0.070803896 0.00057397137 -0.038330596 -0.05004434 0.006241782 -0.01648825
-0.013821516 0.050299227 0.08269596 0.0015895363 0.058640227 0.059860513 0.011078328 0.042393625
0.07161831 0.08804457 0.07950919 0.053854875 0.039034277 0.040209606 0.040322408 0.03189332
-0.110397056 -0.033889655 -0.08302125 -0.06689215 -0.0032572562 -0.08486013 -0.008628956 -0.093326904
-0.09554407 -0.008840824 -0.07454333 0.0047018374 0.007622097 -0.029342825 -0.075315736 -0.030288182
00000000: 400c 4ebd ecd9 a2bd 716d 92b9 b32e 263d
00000010: b36f 9d3d 1cd9 c73d 36a7 d5ba 506c 143d
00000020: 15b1 b23d 5b17 77bc 5acf 24bd 5118 91bd
00000030: 5268 603c 34c7 40bd 68d7 14bd 4f24 23bc
00000040: 0c69 37bd 727a babd 2d55 cbbd dc2f 23bd
00000050: cabb 06bd 9f4d d4bc 515e 0fbd 24fc f5bb
00000060: 6ca3 99bc 49e4 15bd 6cfe 6bbc 27c5 8abd
00000070: a575 14bd 53be acbd ad30 69bd e3ce 11bd
00000080: 7db7 fdbd 5c15 22bc 90d0 15bd 3fa8 86bd
00000090: ecb2 89bd 4764 89bd 13e2 08bd 8bdc 55bd
000000a0: e507 04bd d07d 88bd 9fa3 36bd f5f6 5f39
000000b0: 454b 01be 745f 54bd db19 58bc 1af9 a7bc
000000c0: 7372 e1bc ae81 bbbb 639a d2bd 361c bbbd
000000d0: 8d99 d0bd 08ac 923b cfea c13d c8af b2bb
000000e0: 179b 173c 4118 783d 0fbf 613c c202 28bd
000000f0: 1231 ce3d 03ab 68bd 3242 95bd da3a cbbd
00000100: d803 4abd ff49 2fbc b1d0 cebd 5973 96bd
00000110: 33cb 63bd 8c33 f7bd 37c3 60bd 5083 03bd
00000120: 5fe9 4dbd 22f4 28bd 4366 23bc dbf1 b0bd
00000130: 9dcb 84bd c6d7 6dbd b794 a7bc 2668 e6bc
00000140: f5f0 c5bd 6982 c8bc 9912 fdbd 8354 d9bd
00000150: 6f01 493d afcf ffbb 3afd 55bc 7ecb 483d
00000160: 2cdb 7fbd a7af 4bbd 487a 88bc d7dc 8e3d
00000170: 9397 633d 5e4b 883d 21c7 053d 054e f03d
00000180: a858 033e 3bad fe3c 3967 c33d 642c a53d
00000190: df13 a73c fdc2 033d 6362 773d 337a d13c
000001a0: 50b9 bd3c a8d0 753d 7cf7 0f3c 9712 af3c
000001b0: f6dc 273d 01c0 b3bd 8286 7abd bb4a 8d3d
000001c0: d676 76bc e265 bfbd 3428 ebbb 5744 d1bd
000001d0: 2a44 5ebd ddc0 cbbd 3868 213b d7f0 debb
000001e0: 01cd 6dbd bf14 91bd 1fbf 653b 6c8a 54bc
000001f0: 8ff6 3f3c 724f a4bd 2ff7 d5bd 8fd6 cfbd
00000200: 311d 6bbd fb0c 38bd e6fd 44bb 093d a7bd
00000210: 2d22 c8bd 84d3 45bd b842 77bd 2f09 eebc
00000220: de07 8dbd e390 bcbd 1daa cdbd 2de4 503c
00000230: a874 7bbd b4a4 67bd 3cfd 60bc 9b67 9ebd
00000240: 3869 cbbd 7ff2 fbbd db3d 8dbd 609a 40bd
00000250: c0d7 1bbd f28b bdbd e1c5 28bd daa1 30bd
00000260: 25b6 24bc 276a a2bd 707d b2bc 5b18 a5bd
00000270: 83bf a2bc 17d1 ebbd 4237 8ebd 800c 9fbd
00000280: db55 c2bd 3638 e9bd 8a23 02bd 9470 433c
00000290: 5d2c c6ba fca3 a8bd 64f3 53bd db28 7dbd
000002a0: e202 92bd e8ce 92bd 2f56 f9bc f6f3 b5bd
000002b0: 0475 dcbd 85c9 76bd 9888 14bc 4d0c 8fbd
000002c0: 2074 4fbc ba62 a9bd d1ee d53a 918a 50bd
000002d0: d44b c1bc 4f15 6cbd 7083 f9bc 30aa 93bd
000002e0: 0263 3ebd 9ca9 6fbd 308f 9abd 4538 e5bc
000002f0: 2356 95bd 1216 8dbd 27da b4bd 23a6 d8bc
00000300: 933d 4c3b d7e5 10bd a0a9 a8bd 5847 bdbc
00000310: 2f5c 1bbd 5d1a 10bc 707a 3abd de8c 133c
00000320: 9c71 ad3b dc3f aabd 4d76 9eba 0093 86bd
00000330: 8f37 d3bd fb2e 133c 56b0 9ebd eeb2 7e3d
00000340: e01c dd3d f6d3 dd3c ee80 b33d 33ff 793d
00000350: 692f 413d 5739 82bc c35f 86bd cf50 7dbd
00000360: 9ed6 c2bd 06e9 3c3b a201 91bd 9176 163a
00000370: 8b00 1dbd 4bfb 4cbd dd87 cc3b 5e12 87bc
00000380: a473 62bc 9006 4e3d 805c a93d fd57 d03a
00000390: bc30 703d 4c30 753d e081 353c f0a4 2d3d
000003a0: 9fac 923d b650 b43d b7d5 a23d ee96 5c3d
000003b0: 68e2 1f3d d4b2 243d 1c29 253d 92a2 023d
000003c0: da17 e2bd e1cf 0abd 0c07 aabd c0fe 88bd
000003d0: b177 55bb 26cb adbd 7760 0dbc 2d22 bfbd
000003e0: 9cac c3bd 1ad9 10bc 2caa 98bd df11 9a3b
000003f0: c9c2 f93b 5d60 f0bc 233f 9abd ec1e f8bc

base_model.conv3.bias f4 [64]
-0.047015738 -0.1659618 -0.034286395 -0.022073664 -0.07223719 -0.23543362 -0.07434325 -0.116500825
-0.09605894 -0.06483144 -0.061149247 -0.091791205 -0.02329611 -0.010944926 -0.062291216 -0.10131405
-0.07260645 -0.086266704 -0.028685156 -0.0908788 -0.13732806 -0.03950675 -0.21184309 -0.10078056
-0.024578907 -0.10845859 -0.053642944 -0.09530429 -0.07989584 -0.11665342 -0.10607568 -0.02422836
-0.00702463 -0.08057207 -0.031231824 -0.073371865 -0.047661476 -0.059340056 -0.11058737 -0.19566385
-0.27179337 -0.012416247 -0.080420285 -0.03701567 -0.02646705 -0.047756083 -0.049972538 -0.21584152
-0.08577767 -0.22822227 -0.01209008 -0.070245855 -0.062047474 -0.041293725 -0.09740496 -0.060888026
-0.18768024 -0.31724417 -0.18027298 -0.11724193 -0.1816241 -0.024508862 -0.0067594 -0.0735651
00000000: 9393 40bd e4f1 29be e46f 0cbd d4d3 b4bc
00000010: 18f1 93bd 8315 71be 4641 98bd fc97 eebd
00000020: 8dba c4bd 59c6 84bd a277 7abd 07fd bbbd
00000030: 7cd7 bebc 5952 33bc 1325 7fbd be7d cfbd
00000040: b1b2 94bd 99ac b0bd 22fd eabc aa1e babd
00000050: ba9f 0cbe d4d1 21bd 65ed 58be 0a66 cebd
00000060: b459 c9bc 8a1f debd b4b8 5bbd e52e c3bd
00000070: 6ea0 a3bd fde7 eebd 353e d9bd 8e7a c6bc
00000080: de2e e6bb f802 a5bd e2d9 ffbc fd43 96bd
00000090: ae38 43bd 8f0e 73bd a27b e2bd 1b5c 48be
000000a0: 8028 8bbe 846d 4bbc 64b3 a4bd be9d 17bd
000000b0: 6dd1 d8bc e29b 43bd 01b0 4cbd 8f05 5dbe
000000c0: 34ac afbd 19b3 69be 7915 46bc 0fdd 8fbd
000000d0: 7e25 7ebd 9c23 29bd 407c c7bd b965 79bd
000000e0: 402f 40be d46d a2be 7b99 38be 891c f0bd
000000f0: abfb 39be cfc6 c8bc f57d ddbb 4da9 96bd

base_model.fc.weight f4 [3, 50176]
0.040263135 0.04089665 0.044885978 0.044063967 0.036897555 0.042083208 0.05480726 0.032138284
0.03410995 0.045921907 0.04970179 0.05454335 0.03500596 0.033878632 0.031287976 0.05094988
0.031131305 0.052741546 0.054450657 0.055201 0.058120675 0.058495138 0.041814007 0.04256617
0.03847275 0.04028657 0.03913211 0.032764126 0.06102718 0.043665 0.047524735 0.062567905
0.061779413 0.06277682 0.06342666 0.046384737 0.042948417 0.04753915 0.045353338 0.04466539
0.04811211 0.047180716 0.049143363 0.044297665 0.043593794 0.04719303 0.042058714 0.044604916
0.04679351 0.04465119 0.065684445 0.046213508 0.04899133 0.04701509 0.04128732 0.039236166
0.064460486 0.044023026 0.041814525 0.066354625 0.06596414 0.064252675 0.041975316 0.04754563
0.043282494 0.04222016 0.04907556 0.04949775 0.045960616 0.043873366 0.04151608 0.043630533
0.047404982 0.04637906 0.04153595 0.04504305 0.042578936 0.045688264 0.06833548 0.06983098
0.04487929 0.04854285 0.04330914 0.03820774 0.061977312 0.04510353 0.049081475 0.064492084
0.066637 0.04326991 0.042992324 0.04549641 0.04808306 0.043498274 0.049292658 0.045826536
0.045073997 0.045320522 0.045384478 0.0463546 0.042482015 0.046818167 0.04663996 0.04353927
0.04689147 0.04666864 0.04862409 0.06837767 0.04879061 0.048035152 0.0412378 0.04439618
0.06746569 0.048482742 0.04559229 0.06396859 0.04323974 0.048696607 0.044675216 0.043811053
0.04762316 0.043553982 0.046056297 0.041259114 0.04312351 0.04178665 0.04397682 0.047959488
0.0466296 0.04159793 0.042578667 0.042166095 0.044683624 0.04954992 0.047867216 0.06846241
0.044884916 0.04402039 0.047074 0.04385526 0.06646472 0.041144412 0.048356187 0.061348144
0.04905626 0.041008707 0.041210316 0.048719317 0.044314794 0.04251309 0.046414074 0.045269523
0.043374777 0.041856855 0.042651262 0.049633913 0.04362061 0.04651499 0.042294092 0.043681208
0.048734684 0.043474402 0.048965998 0.06581417 0.041535437 0.04177461 0.041089423 0.042981215
0.062544584 0.04882059 0.046959527 0.048090726 0.044482253 0.041831642 0.04767037 0.042895228
0.04531428 0.041424308 0.044963114 0.043798145 0.04529478 0.04539057 0.045407787 0.044611037
0.04163512 0.046384178 0.041129697 0.04230895 0.04625802 0.04928171 0.041935887 0.06493962
0.04536782 0.045929883 0.04555532 0.03906774 0.059505478 0.043948777 0.041048132 0.043321874
0.043933947 0.044905297 0.04874897 0.041698933 0.04350949 0.04410186 0.042281054 0.04149644
0.045079157 0.042562768 0.0441718 0.043251604 0.04136829 0.04792731 0.046227694 0.04410577
0.044597708 0.048998054 0.041767765 0.044238247 0.065248616 0.04555811 0.04258617 0.040370602
0.04716244 0.04230988 0.044495158 0.04812509 0.04162033 0.046241473 0.049512397 0.044775847
0.04297789 0.04374531 0.047419723 0.04856057 0.044797223 0.04233387 0.04835893 0.04380003
0.045265052 0.048076782 0.044752296 0.049437597 0.04176782 0.040984914 0.04820825 0.049140543
0.06428393 0.068031825 0.044425134 0.04131957 0.0403567 0.04533409 0.04839708 0.047163244
00000000: f5ea 243d 3f83 273d 5cda 373d 6b7c 343d
00000010: e421 173d 715f 2c3d 947d 603d 6fa3 033d
00000020: e0b6 0b3d 9c18 3c3d 1b94 4b3d d968 5f3d
00000030: 6962 0f3d 52c4 0a3d d227 003d d2b0 503d
00000040: 1407 ff3c 8507 583d a707 5f3d 721a 623d
00000050: f20f 6e3d 9998 6f3d 2a45 2b3d dd59 2e3d
00000060: 9a95 1d3d 8803 253d fe48 203d ad33 063d
00000070: a3f7 793d 12da 323d 4ca9 423d 9a23 803d
00000080: 690c 7d3d 2291 803d d6e5 813d ecfd 3d3d
00000090: aeea 2f3d 69b8 423d 6cc4 393d 0ef3 363d
000000a0: 3411 453d 9140 413d 8d4a 493d 7871 353d
000000b0: 688f 323d 7b4d 413d c245 2c3d a5b3 363d
000000c0: 8daa 3f3d 2be4 363d 9185 863d 604a 3d3d
000000d0: 22ab 483d e592 403d e51c 293d 1ab6 203d
000000e0: dc03 843d 7d51 343d b545 2b3d efe4 873d
000000f0: 3518 873d e896 833d 4fee 2b3d 35bf 423d
00000100: fc48 313d 0cef 2c3d 7403 493d 27be 4a3d
00000110: 3341 3c3d 8fb4 333d c40c 2a3d eeb5 323d
00000120: ba2b 423d f8f7 3d3d 9a21 2a3d 107f 383d
00000130: 4067 2e3d 9e23 3b3d 79f3 8b3d 8b03 8f3d
00000140: 59d3 373d ded4 463d ed64 313d b87f 1c3d
00000150: ecdb 7d3d 7bbe 383d a809 493d 6d14 843d
00000160: fb78 883d ca3b 313d b818 303d 725a 3a3d
00000170: bef2 443d 3f2b 323d 19e7 493d 9bb4 3b3d
00000180: 839f 383d 03a2 393d 13e5 393d 52de 3d3d
00000190: 9f01 2e3d 68c4 3f3d 8b09 3f3d 3c56 323d
000001a0: 4511 403d 9e27 3f3d 0e2a 473d 9809 8c3d
000001b0: aad8 473d 82c0 443d f8e8 283d c5d8 353d
000001c0: 742b 8a3d d795 463d fbbe 3a3d f701 833d
000001d0: 271c 313d 1876 473d 5cfd 363d 3873 333d
000001e0: 8110 433d a965 323d 87a5 3c3d 51ff 283d
000001f0: 47a2 303d 7a28 2b3d 0a21 343d 2b71 443d
00000200: aefe 3e3d 9762 2a3d f866 2e3d 5bb6 2c3d
00000210: 2d06 373d dbf4 4a3d 6a10 443d 0536 8c3d
00000220: 3fd9 373d b94e 343d abd0 403d 93a1 333d
00000230: a81e 883d 0b87 283d 2311 463d 3148 7b3d
00000240: 38ef 483d bff8 273d 26cc 283d e88d 473d
00000250: 6e83 353d 3522 2e3d af1c 3e3d 896c 393d
00000260: c0a9 313d 1872 2b3d 17b3 2e3d ee4c 4b3d
00000270: 86ab 323d 8186 3e3d 923c 2d3d 11eb 323d
00000280: 059e 473d 3712 323d 9290 483d 94c9 863d
00000290: 1021 2a3d da1b 2b3d 624d 283d 120d 303d
000002a0: 6017 803d 19f8 473d a258 403d c8fa 443d
000002b0: 0633 363d a857 2b3d 0242 433d e8b2 2f3d
000002c0: 779b 393d 89ac 293d 3e2b 383d af65 333d
000002d0: 0587 393d 76eb 393d 84fd 393d 10ba 363d
000002e0: 9689 2a3d 56fd 3d3d 9d77 283d 264c 2d3d
000002f0: 0d79 3d3d 9edb 493d f7c4 2b3d 10ff 843d
00000300: 9bd3 393d f920 3c3d 3798 3a3d 7f05 203d
00000310: 04bc 733d a203 343d 1622 283d 4772 313d
00000320: 15f4 333d 9eee 373d 00ad 473d 80cc 2a3d
00000330: 0237 323d 27a4 343d e62e 2d3d 2cf8 293d
00000340: eca4 383d 4c56 2e3d 7ded 343d 9828 313d
00000350: cc71 293d 6d4f 443d 4059 3d3d 40a8 343d
00000360: 16ac 363d 2fb2 483d ad14 2b3d 2a33 353d
00000370: 11a1 853d 249b 3a3d d66e 2e3d a55b 253d
00000380: 672d 413d 204d 2d3d 8e40 363d d01e 453d
00000390: 147a 2a3d b367 3d3d 83cd 4a3d e166 373d
000003a0: 9609 303d 482e 333d 2f3b 423d 73e7 463d
000003b0: 4b7d 373d 4866 2d3d 0314 463d a967 333d
000003c0: d967 393d 29ec 443d 2f4e 373d 147f 4a3d
000003d0: bc14 2b3d ccdf 273d 0476 453d 9847 493d
000003e0: 4ba7 833d 4554 8b3d 21f7 353d b63e 293d
000003f0: 114d 253d 3db0 393d 043c 463d 3f2e 413d

base_model.fc.bias f4 [3]
-1.0750029 -0.9906261 1.7628444
00000000: b299 89bf ac99 7dbf e3a4 e13f
